model/bob_2022_02_13_18_13_09.pth (torch_old, 846504 bytes, 12 tensors)

cov1.weight f4 [64, 1, 3]
00000000: 2864 bb3d ceae 9bbe dabf cebe 9678 973e
00000010: 78ec e43d ca54 6bbe 180b 033f 4053 c2bc
00000020: da8c 02bf a283 873e 9ab8 71be 2878 bcbd
00000030: 56e2 63be 10ce f2bd 2174 8cbe 8950 03bf
00000040: 7eab 063f bbcd d1be bc7d e63e 6ca0 373e
00000050: 2626 0a3f 20f1 033f 6c72 7dbe ef8c 88be
00000060: f8f9 cdbd 0478 d2be 109c 5abd 76b0 fdbe
00000070: a6c3 bcbe acc4 ddbe 28b7 993e 308e 8dbd
00000080: 5c31 dbbe 81cc debe f96d debe fac6 51be
00000090: b633 9cbe b6d4 5cbe cc0c 4d3e a0d1 b2bc
000000a0: f214 12be 5a80 b53e c4ac 103e 7c9e fcbe
000000b0: 2596 babe 8811 c6bd 6a8d b9be a26b d03e
000000c0: a0e7 89bc 72ef 0bbf 4652 a5be 8071 163d
000000d0: a214 cdbe 6fc2 01bf 32d3 00bf a8de fd3d
000000e0: f8f8 4fbe c4b4 05be 4c5b a6bd fca0 b63e
000000f0: 8863 d83e 22ad b63e a8da 35be b016 90bd
00000100: 00a8 c0ba c0e7 73bd c430 f03e d060 ebbd
00000110: 90fd 5e3e 448b 143e feb6 71be 4456 0e3f
00000120: 7438 063f 6c03 e5be 10cb 0a3d 043e 35be
00000130: d074 dcbd b09f f23e a421 1d3e 605e c63c
00000140: 86a3 013f 1a68 ca3e 125b 0ebf 64eb 0fbf
00000150: 0a4f 9b3e 6a2c 953e 805c cabc 989b db3d
00000160: 006e 7ebc f05c 6f3e 500c 673e def6 a9be
00000170: 5d00 a8be 5ab5 883e 28f4 e73d 7a4a a33e
00000180: 76fd 8e3e 62c0 953e 926d 01be b097 053f
00000190: 48fc 86bd 3b49 a2be 8e6d 023f 1ced 173e
000001a0: d49e 8b3e 080d fb3e 1de0 c2be 1469 be3e
000001b0: 1033 493e eaa1 113f d03b 753d 084e f73e
000001c0: 1e62 31be 23d3 eebe d63d 23be 0cbe 98be
000001d0: 3c24 f33e 7813 9c3e d875 8c3d e66c ce3e
000001e0: 2e98 45be f4f4 aabd bcf1 0ebf 4658 033f
000001f0: 765b 91be 200f 043e 6a08 083f e417 e63e
00000200: 4a20 ccbe 6e16 9cbe 8bdd 81be a0f9 cf3d
00000210: 32d0 1fbe 8253 b03e e095 483d f854 b03d
00000220: e8f2 963d 9018 c8be c14e 11bf 81ba febe
00000230: 0827 eb3e 5cac 51be 80ed f4bb c5dc 0abf
00000240: 81b3 99be 6257 d03e b9b4 a9be 12d8 09bf
00000250: 6e34 08bf 48bb 823e 94a6 843e 48fb ffbd
00000260: 668b b7be 03d6 11bf 3ed3 9e3e b05d 7c3e
00000270: 5ff0 8fbe f0ef 463e 8c42 1c3e c057 d63e
00000280: fee6 16be 403a 5f3d 84a9 d9bd e06b dcbd
00000290: 9074 073f f477 6bbe 2a99 4ebe 977d eebe
000002a0: aaf3 d23e 625f 103f 9a22 b7be 22b3 b73e
000002b0: 6e0c e0be dce3 1c3e 2c81 ed3e 7c69 bfbd
000002c0: 00e3 b93d 723f 813e 141e 18be 6567 9fbe
000002d0: 3a34 a93e 3eec 12bf 16f3 05be a674 813e
000002e0: e40f 2cbe 50fb 68bd d419 a5be b699 d63e
000002f0: aa25 77be 0225 a63e 00c6 093f 1af3 17be
0.09149963 -0.30406803 -0.40380746 0.29584187 0.11177915 -0.22981563 0.511888 -0.023721337
-0.5099617 0.26467615 -0.23605576 -0.092026055 -0.22254309 -0.118557096 -0.2743235 -0.5129476
0.52605426 -0.40977272 0.45017803 0.1793229 0.5396446 0.515398 -0.2475068 -0.26670024
-0.100574434 -0.4110719 -0.05337149 -0.49548692 -0.36868018 -0.4331411 0.3002255 -0.06911886
-0.42811096 -0.435154 -0.43443277 -0.2048606 -0.30508202 -0.21565518 0.20024413 -0.021828473
-0.14265803 0.35449487 0.14128405 -0.49339664 -0.36442676 -0.096713126 -0.36240703 0.40707117
-0.01683408 -0.5466224 -0.32289332 0.036729336 -0.40054804 -0.5068731 -0.5032226 0.12395984
-0.20309818 -0.13057238 -0.08122882 0.35669696 0.42263436 0.35678965 -0.17759192 -0.07035577
-0.0014698505 -0.059547186 0.46912205 -0.11493075 0.21776414 0.1450625 -0.23604962 0.5560038
0.5242989 -0.44729173 0.03388506 -0.17699438 -0.10764468 0.47387457 0.15344864 0.024214923
0.5064014 0.39532548 -0.5560771 -0.5621855 0.3033374 0.29135448 -0.02470231 0.107230365
-0.015529156 0.23375297 0.2256329 -0.33196157 -0.32812777 0.2670086 0.11325866 0.3189276
0.2792775 0.2924834 -0.12639454 0.5218458 -0.065910876 -0.31696495 0.5094842 0.14836544
0.27269614 0.4903338 -0.3806161 0.37189543 0.19648385 0.56887686 0.059871495 0.4830172
-0.17322585 -0.4664546 -0.15941557 -0.29832494 0.47488582 0.30483603 0.068584144 0.40317458
-0.19296333 -0.08347502 -0.5583761 0.5130657 -0.28390092 0.12896395 0.5313784 0.44940102
-0.39868385 -0.30485862 -0.25364336 0.10155034 -0.15606764 0.3443871 0.048971057 0.086099565
0.073705494 -0.3908124 -0.56760794 -0.49751666 0.45928216 -0.20475906 -0.0074746013 -0.5424312
-0.30019763 0.40691668 -0.33145693 -0.5384532 -0.53205 0.2553351 0.2590834 -0.124991
-0.3584854 -0.5696718 0.3102054 0.24645114 -0.28113076 0.19427466 0.1525976 0.41863823
-0.14736554 0.05449891 -0.10628036 -0.10762763 0.52912235 -0.22994977 -0.20175615 -0.46580192
0.41201526 0.5639554 -0.35768586 0.35878855 -0.43759483 0.15321296 0.46387613 -0.093462914
0.090765 0.25243717 -0.14855224 -0.3113357 0.33047658 -0.57391727 -0.13081011 0.25284308
-0.16802937 -0.056880295 -0.32246268 0.41914147 -0.24135461 0.3245011 0.5381775 -0.1483883

cov1.bias f4 [64]
00000000: 5a91 b33e 9ad7 093f bf3c c8be 026c d2be
00000010: e37f 9ebe 60f7 9e3c d0e6 c9be 733a a4be
00000020: 34e8 753e 30b7 0d3f 3c8b 8d3e 4a18 ab3e
00000030: b635 aebe b692 d53e 3405 d73e b438 883e
00000040: f2af c4be 546f 143e d02a 643d ab9a c0be
00000050: aac5 ebbe 00c7 4ebb b22a 923e d8e1 1c3e
00000060: ffa9 9dbe 50f6 483e 8255 e1be 90e9 023f
00000070: 9a22 debe f0a7 76bd 8adb f4be 4083 5f3e
00000080: a4d6 b1be c6a1 123f 40f8 00bd 2816 febd
00000090: 5076 353d 2099 02bf d4e3 a33e ace7 2a3e
000000a0: 78ac 873e 28c6 f23e 3441 f33e 3449 6cbe
000000b0: cbdc 98be 06c6 13bf 28ea b5be 60c8 0f3f
000000c0: 058a e0be d6a6 d6be c206 fbbe e2cc 30be
000000d0: 6000 d13d f4a1 50be a075 50bd 30c5 483e
000000e0: 629d 07bf 4ba7 a2be 8001 23bd 3ce5 f0be
000000f0: e0a6 aa3d f2ad 893e aefb e5be 1cc3 80be
0.35071832 0.53844607 -0.39108846 -0.41098028 -0.30956945 0.019405067 -0.39433908 -0.32075843
0.2401436 0.55357647 0.2764529 0.3341697 -0.34025353 0.41713494 0.41996157 0.2660576
-0.38415486 0.14495593 0.05570489 -0.37618002 -0.46049243 -0.0031551719 0.285482 0.15320528
-0.3079376 0.19625211 -0.4401055 0.5113764 -0.43385774 -0.06021875 -0.47823745 0.21827412
-0.3473407 0.57278097 -0.03148675 -0.1240657 0.044302285 -0.510149 0.32009757 0.16689938
0.2649877 0.47416806 0.47510684 -0.230748 -0.29855952 -0.57724035 -0.3553021 0.56165123
-0.438553 -0.4192416 -0.49028593 -0.17265657 0.1020515 -0.2037428 -0.050893426 0.19606471
-0.5297452 -0.3176826 -0.039796352 -0.47049892 0.0833261 0.26890522 -0.4491858 -0.25148857

cov2.weight f4 [128, 64, 3]
00000000: d869 273d 5e73 403d b2a1 afbc a492 8bbc
00000010: 405c e73c a44c 803d 3481 253d 9822 9dbc
00000020: d820 403d 14b3 1abd 6888 113c 341e 80bc
00000030: 10d3 6b3d 5c48 5c3d 34c7 533d 2024 d8bb
00000040: b4d8 403d eb88 86bd 28a8 8e3d 386e 12bc
00000050: 0026 d93b 18a2 b9bc dc03 523d 76c8 323d
00000060: a08e b73c c335 6abd 3480 643d 5a71 24bd
00000070: 5a1c dabc e0ef 11bb 90c1 39bd bcd5 383d
00000080: d762 0fbd 76a5 283d e063 123d 4079 163d
00000090: 76f9 58bd e4b3 77bc e8ee 25bd 24b5 a9bc
000000a0: 6792 6ebd 8412 db3c 90eb 80bb a8a8 913c
000000b0: d09e 143c 6db5 1cbd a8d5 653c f4b7 debc
000000c0: 2820 86bc b4c5 183d fcf6 d5bc 3b1e 86bd
000000d0: b8de 84bc 1087 91bd 3694 503d 94a1 813d
000000e0: ee3c 503d 346a 9d3c da76 84bd 1c99 993c
000000f0: 1288 453d 0022 fa3c 635a 89bd 073b 5abd
00000100: 7156 89bd 10ac 1e3c 7c1d d13c 1c36 673d
00000110: dc25 d0bc f8a2 203c 2835 5bbd a6dc 343d
00000120: 040c 873d 8e80 093d 48bb c73c 208b 8c3d
00000130: e0ec 913c 68c8 27bc 680d 81bd 10ab 44bd
00000140: f621 4d3d b8d9 853c 5806 c5bc 6867 08bc
00000150: 6034 da3b 4819 88bc cc2c dfbc cafe 143d
00000160: 5c89 0c3d 0b70 19bd 08a9 903c a80c 82bd
00000170: ffb2 71bd f88c 393d 001f 173c d07a ff3c
00000180: 3970 64bd 6335 31bd 6ae0 38bd 8058 293c
00000190: 74bf 383d 88e4 913d 3aea 5bbd 164e 24bd
000001a0: 4a5c 85bc e0ac bcbb 0cee c53c 2072 55bc
000001b0: ecb9 8c3d c834 643d 0884 8dbd f282 e2bc
000001c0: ea94 203d 4017 283d 10a4 c43b d464 6a3d
000001d0: 02e1 82bc 908e c83b c0bc 5d3d 328b acbc
000001e0: b69f c7bc d0ff aebb 3052 ec3c 10e5 e43b
000001f0: 60d3 a23b bc55 94bc 267e 95bc 1c7c d93c
00000200: 0083 02bb a766 01bd b8b6 2ebc 6356 0cbd
00000210: 00c2 fc3a bb03 2abd 4b8c 52bd 01e7 64bd
00000220: f63a 213d 9ce3 6cbc 30ab eabc 08c2 78bd
00000230: e462 cc3c 629b cfbc 20f5 dfbb fc2a 583d
00000240: 64a1 12bd 002d 3d3d 5206 51bd 58a3 833c
00000250: 4079 84bc 6d13 36bd e6a0 8ebd ecbe 293d
00000260: ec55 d53c 4076 5dbb 08f0 58bd 8865 21bd
00000270: 9072 933c 401f ccbc e444 a83c 04b5 cbbc
00000280: cb2c 82bd d286 90bd 7c4e af3c 6c9e 89bd
00000290: f018 14bc a0b2 88bb b037 cd3c 80f9 48bb
000002a0: 588c 073d 1a9f b9bc 64b7 7f3d e80f 5bbc
000002b0: fcf9 423d aac5 913d 0036 1bb9 054d 05bd
000002c0: 705f c53c 500c df3c dd3d 46bd a6c8 1c3d
000002d0: fc7b aabc 60ec 943c 9a2f 5dbd d49a b33c
000002e0: 701e 19bc 2ef1 f4bc c2fd c7bc dcca a43c
000002f0: 1ae4 bfbc 9e9b 013d 8097 c73b 449d 053d
00000300: edd6 20bd 31f4 0cbd 1698 89bd e8a4 753c
00000310: a626 8cbd 98aa 85bc fc03 7c3d 00dc ceb8
00000320: 4bbe 1dbd fd71 3bbd 9c39 aebc fec0 343d
00000330: 4006 b73a 54e5 aa3c 6069 743c a003 15bd
00000340: 5af2 92bd 7df8 19bd 5971 54bd 70db eabc
00000350: 80a9 de3b 4e5e 96bc ec78 ee3c f01c 253c
00000360: 6c02 46bc b0a5 883c 3c9d 1fbd 90c8 273c
00000370: 2f0b 80bd 6e50 8fbd 96c3 82bd 0049 1eba
00000380: 98ef 8fbd d8ed 5e3c 00b3 ed3b 398d 88bd
00000390: fb72 93bd ca0b 003d 6864 893d 6c94 1c3d
000003a0: 1edc 813d a46b 993c 5067 f8bb 7c9f 633d
000003b0: 4d82 89bd 3643 823d 2e11 1dbd c8ef dd3c
000003c0: 00d9 a3bb d8e0 3fbd c09b 373d 4cea f43c
000003d0: e4cb 6dbc e2fb 113d c08a 8fbb 7059 92bd
000003e0: 7120 87bd a4ad 2bbd 00af 99ba e487 6b3d
000003f0: 9883 6e3c 00b2 76bb fc83 0a3d 0839 4f3c
0.040872425 0.046985023 -0.021439407 -0.017037697 0.02824223 0.06264618 0.04040642 -0.019181535
0.046906322 -0.03776844 0.008882619 -0.015639402 0.05757433 0.053779945 0.051703647 -0.0065961033
0.047081664 -0.06569084 0.06965667 -0.008937411 0.0066268444 -0.0226603 0.05127321 0.043648206
0.022406876 -0.057180177 0.055786327 -0.040147163 -0.026624847 -0.002226822 -0.04535061 0.045125708
-0.03500637 0.04117342 0.03573978 0.036736727 -0.05297228 -0.015118573 -0.040511042 -0.020716257
-0.05824509 0.026742227 -0.0039343312 0.017780617 0.009071067 -0.03825896 0.01402799 -0.027187325
-0.016372755 0.03729792 -0.026118748 -0.06548735 -0.016219482 -0.07105839 0.050922595 0.06329647
0.050839357 0.01921568 -0.06467982 0.018749766 0.04822547 0.03053379 -0.06706693 -0.05327895
-0.067059405 0.009684578 0.025526755 0.056448087 -0.025408678 0.00980448 -0.05351749 0.04415574
0.06594089 0.033569865 0.024381295 0.068624735 0.017813146 -0.010240652 -0.06301385 -0.0480147
0.050081216 0.016339168 -0.024050876 -0.008325435 0.0066590756 -0.016613618 -0.02724304 0.0363758
0.034310684 -0.037460368 0.017658725 -0.0635007 -0.059008595 0.045300454 0.0092237 0.031186491
-0.055771086 -0.043263804 -0.045135893 0.010336041 0.04510446 0.07123667 -0.053690173 -0.04011353
-0.016279358 -0.005757913 0.024161361 -0.013027698 0.06871399 0.0557144 -0.069099486 -0.02765033
0.039204516 0.041037798 0.006001003 0.057225063 -0.015976433 0.0061205104 0.054135084 -0.021062467
-0.024368148 -0.005340554 0.028847784 0.006985314 0.0049690455 -0.018107288 -0.018248629 0.026548438
-0.0019914508 -0.031592038 -0.010663681 -0.034262072 0.0019283891 -0.041507464 -0.051403325 -0.055884365
0.03936287 -0.014458563 -0.028646082 -0.060731918 0.024949498 -0.025342647 -0.006834641 0.052775368
-0.035798445 0.046185493 -0.05103142 0.0160691 -0.016171098 -0.04445212 -0.06964283 0.041441843
0.026041947 -0.0033792406 -0.052963287 -0.03940347 0.017998964 -0.024917245 0.020540662 -0.024866588
-0.063562 -0.07056965 0.021399729 -0.0671967 -0.009039149 -0.0041716844 0.025050968 -0.0030666292
0.033092827 -0.022658873 0.062430754 -0.013370492 0.047601685 0.071177796 -0.00014802068 -0.032544155
0.02409336 0.02722755 -0.04839884 0.03827729 -0.020811073 0.018179119 -0.054000475 0.021924414
-0.009345636 -0.02990016 -0.024412993 0.020116262 -0.023424197 0.03164255 0.0060910583 0.032620683
-0.03926747 -0.034412567 -0.06718461 0.01499293 -0.06843309 -0.016316697 0.061527237 -9.863824e-05
-0.038511556 -0.045763005 -0.021267705 0.044129364 0.0013963655 0.020861305 0.0149177015 -0.03638041
-0.07175131 -0.037590493 -0.05186591 -0.02866909 0.0067951083 -0.018355515 0.029110394 0.0100777
-0.012085538 0.016680568 -0.03896831 0.010240689 -0.06252133 -0.069977626 -0.06384961 -0.00060380995
-0.07028121 0.013606511 0.0072540045 -0.06667561 -0.07199665 0.031261243 0.06708604 0.038227484
0.06340812 0.018728085 -0.007580675 0.055572018 -0.06714306 0.06360476 -0.038346462 0.027091876
-0.0050002337 -0.046845287 0.04482627 0.029896878 -0.014513943 0.035640605 -0.004380554 -0.07145965
-0.065979846 -0.041913643 -0.0011725128 0.057502642 0.014557742 -0.0037642717 0.033817276 0.012647875

cov2.bias f4 [128]
00000000: 3896 6b3c 9851 54bd 24a1 ecbc 6881 6ebd
00000010: 7856 003c f2e6 4e3d f29c 94bc cf1d 81bd
00000020: 82e0 f3bc 605c 66bb 882e 82bd 981d 733d
00000030: fced 7d3d 6260 0a3d 66df 61bd 4cba f4bc
00000040: b078 c83b 0422 9ebc 6021 393b da9a 35bd
00000050: 87a3 01bd 7ca9 ff3c 7e36 b3bc 7cf2 8e3c
00000060: daab 82bc a895 a33c 7a0b 0c3d bc52 843c
00000070: d8b1 543c 2e75 04bd 7453 e73c 4cb6 e73c
00000080: 30fe 7c3c 62d0 4d3d c0b4 8d3a ab28 17bd
00000090: 883b 7e3d ec0b aebc 7410 b1bc 5436 98bc
000000a0: f981 6dbd 2440 58bd ce0c 853d 180f 313c
000000b0: d7a4 81bd 4869 c73c b606 1c3d bc81 303d
000000c0: 4c22 933c 5e99 563d 84f9 603d 4458 febc
000000d0: 98bb 743d 5ceb 38bc 9039 e53b 72e4 423d
000000e0: d4b2 0ebd 7065 0abc c040 c9bc 3084 acbb
000000f0: 6a5b 2dbd aab5 93bd 76a5 3bbd e047 53bb
00000100: 8411 7dbc 06dd 64bd ecb0 593d f40c 763d
00000110: a4b1 793d 4098 183c 167f 84bd d010 8e3b
00000120: 144c 1cbd 47ae 7cbd 5279 2ebd f0e7 85bd
00000130: e054 263b 5058 34bc c5f3 32bd 5f40 51bd
00000140: 34b9 4a3d 34e1 e63c 2be0 7fbd 5814 343d
00000150: 20fb c6bb 0070 74ba c427 0d3d 80fb 263b
00000160: b8a0 693d 7ecc 71bd a0f3 603d b476 83bd
00000170: aa68 29bd 20da aebc a04c 8dbb 68c9 5f3c
00000180: 007b 533c 1130 0dbd cc66 623d 0a00 4a3d
00000190: 9c93 833d 28c3 75bd bed8 e4bc 6432 72bd
000001a0: a044 2ebb d4c5 113d 9ce1 a8bc a016 9b3c
000001b0: be6c e6bc 96a8 0e3d d289 50bd 6901 01bd
000001c0: 1844 11bc 48d8 6e3d b864 ed3c 9852 f13c
000001d0: b4ee e6bc fe72 7ebd 045a 2cbd 94ac 62bc
000001e0: ba86 ebbc bef5 373d 3001 923d 88c9 69bc
000001f0: 7e41 833d 72f2 3a3d 6a8f fabc 09d3 37bd
0.014379077 -0.051835626 -0.028885432 -0.05822888 0.007833116 0.050513215 -0.018141244 -0.06304514
-0.02977014 -0.0035150275 -0.063565314 0.059354395 0.061994538 0.033783324 -0.05514469 -0.02987399
0.0061179027 -0.01930333 0.0028248653 -0.04433713 -0.031650092 0.031208746 -0.02187657 0.01744961
-0.015951086 0.019968823 0.034190632 0.016152732 0.012981854 -0.032338314 0.028238036 0.028285168
0.015441462 0.050247557 0.0010811314 -0.03690402 0.062068492 -0.02124592 -0.02161429 -0.018580593
-0.05798528 -0.052795544 0.06496583 0.010806821 -0.06330269 0.024342194 0.038092338 0.043092474
0.01796069 0.052392356 0.054925457 -0.031047948 0.059749216 -0.011286583 0.0069953874 0.047581144
-0.034838513 -0.008447036 -0.024567008 -0.0052647814 -0.042323507 -0.07212384 -0.045812093 -0.0032238886
-0.015446071 -0.055874847 0.05314724 0.060070947 0.060960427 0.009313643 -0.06469552 0.0043355003
-0.03815849 -0.06168964 -0.04259617 -0.06538379 0.002538018 -0.0110073835 -0.043689508 -0.05108678
0.04949303 0.028183557 -0.062469643 0.043964714 -0.006072417 -0.00093245506 0.03446175 0.0025479496
0.05703804 -0.05903291 0.05491984 -0.06419125 -0.04135958 -0.021344244 -0.004312113 0.013658859
0.012907743 -0.034469668 0.055273816 0.049316444 0.06424639 -0.06000057 -0.027935382 -0.059130087
-0.0026591197 0.035589054 -0.020615391 0.018931687 -0.028128024 0.034828745 -0.050912686 -0.031495485
-0.0088663325 0.05831173 0.02897869 0.02945833 -0.028189994 -0.062121384 -0.042078033 -0.013835091
-0.028750766 0.044912092 0.07129133 -0.01426924 0.06408976 0.04564137 -0.030585963 -0.044878993

fc1.weight f4 [320, 515]
00000000: 10b6 f5bc c1c4 2fbd a100 133d ac34 03bd
00000010: cdc5 b0bc 681d 52bc 0051 8cba d62e f93c
00000020: 5ac9 ae3c 756c b5bc 5342 343d 0627 28bd
00000030: ee7b fb3c 2355 fabc a0e1 e4bb 419b 203d
00000040: 68f2 85bb 322e c7bc 7214 aabc 2010 16bc
00000050: ce0c c3bc 6391 013d 7a38 f9bc 314d 213d
00000060: c498 8f3c 505d 523b 9421 903c 403e efba
00000070: 3045 81bc c012 96bc 0820 293c dbdd 073d
00000080: 524c 88bc 440c 3c3c 7549 293d 6401 11bc
00000090: 0ebd 91bc a884 f7bc 9fd3 053d d791 98bc
000000a0: ba2e d83c 8d45 24bd d609 a43c 1a78 b43c
000000b0: d37e 00bd 082b 323c 5002 47bc ef12 9fbc
000000c0: bc5c d5bc afb0 313d 2278 b63c 58cc 7a3c
000000d0: 9754 cebc a050 283b da06 ea3c 7068 373b
000000e0: 5ec5 cc3c e04d 8c3b e6a1 ce3c 7e52 983c
000000f0: c887 59bc fbb5 d4bc d7ad 203d b6ec 10bd
00000100: f6be a33c 6018 25bb 2635 32bd 18f1 1f3c
00000110: 0005 113b dd0a 0c3d 94dd 0dbd 38a5 a6bb
00000120: f432 1dbc fca4 173c 60ed f13b d85f e43b
00000130: b54b bcbc 14f9 78bc 31c9 15bd aab5 1ebd
00000140: 58a6 1fbd 4301 bfbc e0f6 42bc 4959 013d
00000150: aefe 28bd 40b0 a8ba 46b2 9e3c 662b c33c
00000160: 1a28 983c 971c cfbc bf56 2f3d 00e2 0dbd
00000170: cc0b 6dbc 00f1 38b9 5eaf b63c 800d 453b
00000180: d1e2 07bd b2ec 0abd 101b a4bb b61c 34bd
00000190: 823e 7ebc 2dc9 323d c5be 2abd ebbd 1fbd
000001a0: 696e a0bc e658 a23c 4243 8a3c 6a97 b93c
000001b0: f0a0 afbb d65d ebbc 0e04 e73c f0de c9bc
000001c0: 8ca6 6e3c 884c 99bb f420 243c 8bfe 1e3d
000001d0: 100a dbbc b4a5 e5bc a820 fd3b b89f 49bc
000001e0: 9263 f9bc 3097 2ebd 1043 d2bc 0a94 c8bc
000001f0: 2eb3 5cbc 1932 103d ae52 a33c c852 5ebc
00000200: 9c0b 49bc a064 33bc 6f08 253d dc69 463c
00000210: c04e 9aba 6793 91bc 5cac e0bc bc4b 4d3c
00000220: 6ee4 813c e53c 253d 701c 19bd 24fc 783c
00000230: 0177 043d 9ab3 eabc 208a cb3a d772 0f3d
00000240: dea8 cdbc ee3e f1bc e8f6 80bc ffc8 2e3d
00000250: f8a4 c3bb 3d99 8ebc 7ed4 56bc 20eb 6a3c
00000260: 00c0 96b7 2069 bbbc b394 053d a0fc b13b
00000270: dee6 8fbc 98c4 24bc b96d 8fbc a193 173d
00000280: a150 253d 98c9 3a3c 7974 21bd d0d9 1ebb
00000290: c097 d03b 7823 27bd c7a6 2c3d d1dc 093d
000002a0: aec8 f73c 60a5 423c 29ac 053d b72f 10bd
000002b0: f462 2ebc 802f 0bbc 90a2 e23b fa49 a53c
000002c0: 59f5 00bd 13b7 0c3d ff8b 193d 7096 14bc
000002d0: d8d0 b2bb e05b 353b c272 c13c 50cb 24bb
000002e0: 5183 1b3d aab6 cfbc 7d5e 273d 206d c63b
000002f0: 1208 8dbc 995a 303d 9c2c 0ebc e0f2 fc3b
00000300: 375c 19bd 787e 613c 9d7d dabc bee1 28bd
00000310: 72b8 d63c 9a96 fcbc 7cc0 41bc 7cfc 753c
00000320: 5109 033d d9e1 173d 1970 133d 2d62 213d
00000330: b75f 26bd 3d33 96bc 94e9 103c 9e9c ad3c
00000340: 1b4b 113d 08be d5bc 557b 1f3d c841 17bd
00000350: ceab c73c d88f d43b f12d 27bd a654 52bc
00000360: 82cd df3c bdbb 29bd 9e6b 55bc 29ac 293d
00000370: 6003 0bbc 716e 0a3d f07b 10bd 4c93 19bd
00000380: 703d 0dbd fa5a e53c e06e c93b 4436 0ebd
00000390: d855 8f3b 90db c0bb 3440 133c 00fd fd3a
000003a0: 805c ddba c972 b3bc 676e a0bc ca03 7fbc
000003b0: 0aca b93c 7f01 273d 6480 1abd af80 0ebd
000003c0: b852 003c 77a3 0c3d 7bf2 223d 93f6 fcbc
000003d0: d8fa 37bc 00eb c039 73af 073d 807e f8b9
000003e0: d2e3 a73c 6858 443c 0ece f93c 920a 8c3c
000003f0: 200a 16bd 2184 f7bc 580b 19bd 2224 de3c
-0.02999404 -0.04291225 0.03588927 -0.032032654 -0.021578694 -0.012824394 -0.0010705292 0.03041784
0.021336246 -0.022146443 0.044008564 -0.04105284 0.030698743 -0.030558174 -0.0069849044 0.03921056
-0.004087735 -0.02431402 -0.020761702 -0.009159118 -0.023809817 0.031632792 -0.030422438 0.039380256
0.017528899 0.0032099076 0.017594136 -0.0018252805 -0.015780061 -0.018319488 0.010322578 0.033170562
-0.016637955 0.011477534 0.04132982 -0.008850429 -0.017790344 -0.030214623 0.03267252 -0.01862423
0.026389468 -0.04010539 0.020024221 0.022029925 -0.03137095 0.010874517 -0.012146547 -0.019418208
-0.026045196 0.04338139 0.02227408 0.015307508 -0.02518682 0.0025682822 0.02856772 0.0027985834
0.024996456 0.0042817444 0.025223684 0.018594023 -0.013277002 -0.025965681 0.039228287 -0.035381995
0.019988518 -0.002519153 -0.043507718 0.009762071 0.0022128224 0.034190048 -0.03463514 -0.0050856136
-0.009594668 0.009255644 0.0073830336 0.0069694333 -0.022985319 -0.015196104 -0.036568824 -0.038747467
-0.038976997 -0.023316031 -0.01189968 0.03157929 -0.041258506 -0.0012869909 0.019372117 0.023824405
0.01857381 -0.025282187 0.042807337 -0.03463936 -0.014468145 -0.00017637387 0.022300418 0.003006786
-0.033175293 -0.033917136 -0.005008109 -0.043972693 -0.015517833 0.043648887 -0.04168584 -0.03899948
-0.019583898 0.01981778 0.016877774 0.022655208 -0.0053597614 -0.028731268 0.028200176 -0.024642438
0.014566075 -0.0046783127 0.010017622 0.03881697 -0.026738197 -0.028033115 0.00772484 -0.012306146
-0.030442987 -0.042624652 -0.025666744 -0.024484653 -0.013470454 0.035204027 0.019936886 -0.013569541
-0.012270834 -0.010949284 0.040291246 0.0121102 -0.0011772737 -0.017770482 -0.027425937 0.0125302635
0.015855994 0.040341277 -0.037380636 0.015196834 0.032340053 -0.028650094 0.0015528835 0.03502163
-0.025104936 -0.029448953 -0.015742734 0.042672154 -0.0059705935 -0.017407054 -0.0131121855 0.014338285
-1.79708e-05 -0.022877276 0.032612514 0.0054317266 -0.01756614 -0.010056637 -0.017508375 0.037006024
0.040360097 0.011400603 -0.039417718 -0.0024238713 0.0063657463 -0.04080531 0.04215124 0.033657853
0.030247059 0.011880249 0.032634888 -0.035201754 -0.010643709 -0.008495212 0.0069163516 0.020176876
-0.03148398 0.03435428 0.037487026 -0.00906907 -0.005457025 0.002767317 0.023614291 -0.0025145598
0.03796703 -0.025355656 0.040861595 0.006055489 -0.017215762 0.04305515 -0.008677628 0.0077193826
-0.03744146 0.013763063 -0.026671225 -0.04123091 0.026210997 -0.030833531 -0.011825677 0.01501381
0.031991307 0.03708062 0.035995577 0.03940027 -0.040618625 -0.01833498 0.008844752 0.021192845
0.035472017 -0.02609159 0.038935978 -0.03692797 0.024373915 0.006486874 -0.040815298 -0.012837565
0.027319673 -0.041438807 -0.013026146 0.04142395 -0.008484691 0.03379673 -0.035274446 -0.03749399
-0.03448242 0.027997483 0.0061472505 -0.03471972 0.004374247 -0.005885549 0.008987475 0.0019377768
-0.0016888529 -0.02190532 -0.019583894 -0.015564868 0.022679348 0.04077291 -0.0377201 -0.03479069
0.007832222 0.03433558 0.03978203 -0.030879294 -0.011229239 0.00036796182 0.033126306 -0.00047396496
0.020494375 0.011983968 0.030493762 0.017094884 -0.03663075 -0.030214371 -0.037364334 0.027116839

fc1.bias f4 [320]
00000000: 9126 2abd 2001 99ba 0085 3b3a 7456 f5bc
00000010: a5b2 2a3d 7a95 09bd e8c6 1abd 8be8 143d
00000020: 01ad 133d 24f8 64bc d2f9 f73c 1021 1e3c
00000030: 1443 7a3c c853 edbb 0e16 8fbc 6e24 6cbc
00000040: d705 8ebc f5ab e7bc 651b 84bc 7ced 48bc
00000050: f694 c63c 8a75 fb3c 75b5 31bd fcb8 763c
00000060: 1c7f 12bc 9843 2abc ef97 173d f064 283c
00000070: a0e1 013b 1807 06bc cacc cabc 42dd b23c
00000080: 235c debc 847f 83bc 975f d8bc 6803 79bc
00000090: 0235 973c 90cf e23b 04f3 33bd f682 f53c
000000a0: 8c31 61bc 8b20 1f3d fa47 fd3c 348f 533c
000000b0: 0627 a5bc a03a 2cbb f0d0 11bc 9454 7e3c
000000c0: 947f 6d3c 2f5e 263d f629 8a3c 79d2 98bc
000000d0: 16bb f1bc 4e72 2cbd 2229 e53c 008c 00bd
000000e0: 302c 1c3c 347d 07bd 139f 17bd 7e9e a03c
000000f0: 819a 26bd 7e5f fb3c 350d c6bc 3066 573c
00000100: 4d1a 253d 5b68 d1bc 8ef1 e23c b843 21bd
00000110: 2151 063d fa54 1ebd 4054 7aba 881d 7c3c
00000120: 3aec a1bc d68d e13c 9da1 2a3d c667 9ebc
00000130: 8550 263d 0693 1fbd ee91 e43c 6a71 ae3c
00000140: 1e62 db3c b85d 08bc 1001 b0bc 090e 1d3d
00000150: 24c3 2abc 407b 04bc 9cc2 03bd 7e9a 9d3c
00000160: e01e 963a e014 903b faff 9abc 008c a4bb
00000170: 851c 093d 708d e0bb a303 a2bc a8f9 9cbb
00000180: d98a 2abd 5adf e03c 2c2e 04bc 7cfb 86bc
00000190: abe2 113d b93f 093d e2f9 ee3c 1a69 f9bc
000001a0: ca68 c13c d54b 03bd 418a 2abd f0ee f1bc
000001b0: 8048 24ba d38c 2b3d 5c19 23bc 0a11 08bd
000001c0: e0dd 7fbb 02dc cf3c f7d2 173d 40e7 a63a
000001d0: 68e0 06bd 4033 6dbb e02a edba 9630 0ebd
000001e0: b9be 073d 4517 27bd 6e4c c2bc 006c 7fba
000001f0: f9cf 123d e807 a7bb aaff 61bc 261b d63c
00000200: 7d7d c8bc 2ee5 eb3c aec2 15bd 3eca 05bd
00000210: 166b 9b3c f6d9 ae3c 1d85 99bc 71b3 03bd
00000220: a299 88bc 72b3 f13c e241 aa3c 6868 e6bb
00000230: 6adb e63c b255 aebc 1e87 9b3c c3d2 d9bc
00000240: ed52 1f3d e065 3dbb 9287 9b3c faf1 e43c
00000250: 6f60 b7bc 9427 d5bc a0d1 233b 2ca5 bcbc
00000260: 1c33 863c a0c9 923a 8ade 803c 8216 b33c
00000270: 2f98 85bc 29f4 293d e8ff a43b 736e 223d
00000280: 39ba 1d3d eee6 24bd 5024 d2bb e49e 32bc
00000290: 9180 1a3d 04a2 0fbd 4ce0 02bc 1272 b73c
000002a0: 628b 76bc 9b73 2ebd f077 f83b 0895 ddbb
000002b0: c175 20bd 4e87 d53c 76f1 d03c 6aa4 20bd
000002c0: 0e33 f53c b460 09bc cae5 9f3c 9392 b8bc
000002d0: 1656 e13c 38d3 62bc 3a8c 53bc 5e00 2cbd
000002e0: 549f 2c3c c009 5dba 2129 0c3d 5ff1 adbc
000002f0: 805b c43b 32dc cf3c 7a21 12bd f7cd 283d
00000300: aa86 c63c 60ea babb b8a8 f5bc 5f27 0bbd
00000310: 804e 7bbb 52fe aabc 78e1 443c 280a f03b
00000320: 62a1 32bd 08f0 afbc 7c68 51bc 2ee8 b5bc
00000330: 7029 f6bc 2dbe 2d3d 2163 debc 1267 d23c
00000340: 15a1 b5bc 8138 1a3d cc6a 49bc 4f01 263d
00000350: e6d2 2bbd 9d77 2bbd 8050 9dba 0910 a0bc
00000360: 7e8c 64bc 4ac6 9d3c 3ee6 a43c 1637 df3c
00000370: ed5f 083d 60eb fc3a 5608 c13c d0dd 5cbc
00000380: b2ee bfbc b6dd 2fbd ce74 d63c 934e bfbc
00000390: bf37 093d 1631 ef3c 3a79 a23c 6009 11bb
000003a0: c2b9 d4bc d937 343d 00a9 4d3c 9bcd 0abd
000003b0: 36db 993c 9c67 53bc 106a 0dbb 81f2 1c3d
000003c0: 7030 e43b fbd8 99bc 72b2 d83c 9ac2 05bd
000003d0: e006 88ba fcf7 12bc 80d2 733a f696 a0bc
000003e0: 14b4 1ebd 5a92 c13c 3a04 2bbd 5bb6 a1bc
000003f0: b4e6 ecbc 32f7 ca3c 5364 013d e39d 233d
-0.041540686 -0.0011673309 0.00071533024 -0.02994845 0.041674275 -0.033589818 -0.037787348 0.036354583
0.03605366 -0.013975177 0.03027049 0.009651437 0.015274782 -0.0072426535 -0.017466571 -0.014412982
-0.017336769 -0.028280238 -0.016126344 -0.012263652 0.024240952 0.030695695 -0.04338594 0.015058752
-0.008941438 -0.010392092 0.03701013 0.010277972 0.001981832 -0.008180402 -0.024755854 0.02183402
-0.027143544 -0.016052015 -0.026412768 -0.015198566 0.018457893 0.006921716 -0.04393293 0.029969674
-0.013744723 0.038849395 0.03091811 0.01291256 -0.02016021 -0.002628006 -0.008899912 0.015523095
0.014495749 0.040617164 0.016865712 -0.018655049 -0.029508155 -0.042101197 0.027973715 -0.031383514
0.0095320195 -0.033078387 -0.03701694 0.019606825 -0.04067469 0.030685183 -0.02417622 0.013146922
0.040308286 -0.025562456 0.027703073 -0.039371222 0.032792214 -0.03865526 -0.00095492974 0.0153879
-0.019765962 0.027533453 0.041658033 -0.019336592 0.040604133 -0.03895857 0.027901616 0.021294314
0.026780184 -0.008323126 -0.021484882 0.038343463 -0.010422502 -0.008086026 -0.032168016 0.019238707
0.0011453293 0.0043970197 -0.018920887 -0.005021572 0.033474464 -0.006852798 -0.019777125 -0.0047905035
-0.04163632 0.027450252 -0.008067649 -0.016477339 0.035616558 0.033508036 0.029171888 -0.030445624
0.023609538 -0.03205474 -0.041635755 -0.02953288 -0.0006266907 0.041882347 -0.009954777 -0.033219375
-0.003904216 0.025373463 0.037066426 0.0012733713 -0.032928854 -0.0036193877 -0.0018094443 -0.034714304
0.03314087 -0.040793676 -0.023718085 -0.0009743571 0.03584287 -0.005097378 -0.013793865 0.026135992
-0.0244739 0.028795805 -0.036562614 -0.032663576 0.018971961 0.021344166 -0.018740231 -0.03215355
-0.01667482 0.029504512 0.020783368 -0.007031489 0.028180797 -0.021281097 0.018985327 -0.026589757
0.038897444 -0.0028899834 0.018985543 0.027947415 -0.02238485 -0.026019849 0.0024996772 -0.023027979
0.016381793 0.0011199005 0.015731115 0.021861318 -0.016307918 0.041492615 0.005035389 0.039656114
0.038507674 -0.040259294 -0.00641302 -0.01090214 0.037720267 -0.03506662 -0.007988047 0.02239326
-0.01504788 -0.04259072 0.007582657 -0.0067621507 -0.0391748 0.026065495 0.025505763 -0.039219297
0.029931571 -0.008384872 0.019518752 -0.02253083 0.02750687 -0.013844304 -0.012911851 -0.041992538
0.010536034 -0.0008431934 0.03421891 -0.021233259 0.005992353 0.025373552 -0.035676457 0.04121205
0.024234135 -0.005704209 -0.029987678 -0.033973094 -0.003834635 -0.020873223 0.012016647 0.0073254295
-0.043610938 -0.02147676 -0.012781259 -0.022205438 -0.030049056 0.042417694 -0.027146878 0.025683913
-0.022171536 0.037651543 -0.012293529 0.04052859 -0.041949175 -0.04186212 -0.001200214 -0.019538896
-0.013949512 0.01925959 0.02012932 0.027247947 0.033294607 0.0019296221 0.023563545 -0.013480619
-0.023429248 -0.04293605 0.026178744 -0.023352897 0.03350043 0.02919821 0.019833196 -0.0022130832
-0.025967482 0.043998573 0.0125525 -0.033887487 0.018781286 -0.01290312 -0.002157811 0.038317207
0.006963782 -0.018780222 0.026452277 -0.03265629 -0.0010378025 -0.008970257 0.00093010813 -0.019603234
-0.038745955 0.023629356 -0.041752078 -0.019740274 -0.028918602 0.024776075 0.031589817 0.039945494

fc2.weight f4 [64, 320]
00000000: 1ccc 59bc 3873 18bd f4d9 2b3d a3c5 54bd
00000010: cc8f 7dbc 5700 2fbd 90c0 163c 64d0 61bc
00000020: dbec edbc 78e0 28bc b4bc 0dbd 206a aabb
00000030: a07a 513d 6451 fabc f406 b73c 19e2 e0bc
00000040: e0a4 ac3b 0008 053b 1830 dc3c e49b 3bbd
00000050: fefc 2e3d 0849 273d c4ef 823c 602e ae3c
00000060: 8821 0dbd d448 103d 78a3 da3c d8bb a8bc
00000070: e43b 00bd 172e 18bd c0b8 0dbb 807e bdbb
00000080: dc95 523d 1ac3 593d 05ad 5fbd 058b 49bd
00000090: 5223 2bbd ac47 8f3c da9e 1dbd 2021 173b
000000a0: f4e7 40bc 964c 4abd e8f6 90bb 1ce4 c63c
000000b0: 0ec0 553d 10ce 063c 2085 40bc 4a1f 503d
000000c0: 00ec 00ba cf50 e6bc feec 593d c51e 4fbd
000000d0: d0d0 e73b 6c51 143d 88ae 61bd 0c9f b73c
000000e0: ee54 00bd d61a 263d 8b9c 51bd ae37 383d
000000f0: 40ab ee3c eb82 1abd f68e e2bc 1666 b5bc
00000100: 28c3 893c 7c0c 20bd 805c e9b9 909c 283c
00000110: 9111 46bd 49d5 47bd 909a 5cbb 7996 56bd
00000120: 0a3c c1bc 5889 0e3d 4886 2ebc 4a66 9abc
00000130: cc2a e33c 5896 133c aae6 1f3d 8039 45bd
00000140: ebb1 dbbc b6ac 283d 443e 1d3d 60be 6c3b
00000150: f09a b43c 00bc ba3b 5aaa 58bd f8a8 b33c
00000160: 8d66 01bd 0cf9 9c3c 68ee 33bc f0aa 283c
00000170: a421 113d c40c 5d3d f296 113d 5850 af3b
00000180: e8cd 923c 52d4 1d3d 782c d73b 3a1a c2bc
00000190: 9883 4abc 6c23 503d c866 e0bc c89e 4ebd
000001a0: 9620 26bd 8c4a 803c 0cef c33c 2426 2ebc
000001b0: c05d e63b 08d4 aebb 6a9c 173d 1c11 583d
000001c0: 00dd 5a3c c84e 2dbd 50d4 2c3b 7a4e 1fbd
000001d0: 9c42 583d 4843 63bd c0d1 28ba 5a57 5f3d
000001e0: bce8 103d b28d 4a3d 1877 8dbc 12a0 3ebd
000001f0: 2057 1f3d e8b6 f93c db38 58bd ddc7 3bbd
00000200: 90e8 a73b 0815 d03c 50a8 72bc a059 113b
00000210: 38f6 503d b8c4 023d d44d f33c 1384 5ebd
00000220: 2f8b 62bd 022c 3e3d e4c6 c93c 9802 1a3c
00000230: 7826 19bd e075 543d 884b 46bd 4cc2 23bd
00000240: e446 8fbc d4dc e33c 006b 343a ee98 ecbc
00000250: 75c3 49bd 2016 4e3d 6869 3ebd fcbf e33c
00000260: 64a2 8b3c b2a2 43bd f895 be3c c8a5 aabb
00000270: 0068 e93a 9a02 13bd aabb 41bd b258 61bd
00000280: 5034 663c 80b4 683c 086d 97bb c40e 233d
00000290: 12bc 1ebd f69a 09bd 807a 453d 9c1f 46bd
000002a0: 3856 f1bb ba99 623d cc95 1c3d 584f a9bc
000002b0: 0047 8b3c 8c14 a63c 3214 5e3d 8dd5 d2bc
000002c0: 44b3 533d c08d 7c3b 307d fc3c aee8 393d
000002d0: 12d9 1f3d 7c4d c73c c4b7 873c a2d5 5b3d
000002e0: 9ac7 413d c8c5 4d3d ac38 14bc 74bf e53c
000002f0: a023 8dbb 4052 773a eae7 2f3d 92a5 4f3d
00000300: 1457 da3c 0ca4 7abc d69e 0abd 4cf1 283d
00000310: dc41 b5bc 063f 573d e85e fa3c 3cd5 a03c
00000320: 006a 0839 04b0 833c b41b a63c 5cf4 6ebc
00000330: 80d9 3f3d d036 5f3d 3c61 943c 98dc 51bd
00000340: f84c cd3c 4422 a9bc 58f0 8c3b 00d4 fd3c
00000350: 22d5 18bd 0440 e23c e124 e4bc d1b2 3bbd
00000360: 5cf7 0c3d 5026 3ebb 4be4 58bd 7057 d23b
00000370: e41b e33c 48f6 9f3b f45b 1abd 0047 573a
00000380: 4a51 2c3d b6c3 173d 6073 643b 7678 1bbd
00000390: 432b 3bbd b0e5 c83b fa0a 1c3d e226 373d
000003a0: ca9b c3bc 9ca9 77bc a092 72bb 0099 5c3c
000003b0: 0209 86bc 803e f139 d82e c93c fe3a 38bd
000003c0: 6ce4 0bbc b435 4fbc f878 f0bb de6b 5c3d
000003d0: 506b 7ebb e8fc 603d 9fa8 d3bc 68d2 853b
000003e0: 70f1 5c3d 3018 afbc c0b4 b5ba bc92 db3c
000003f0: b066 46bb 7b78 37bd d8a0 bf3c 2071 4cbd
-0.013293292 -0.037219256 0.041955903 -0.051946294 -0.015476178 -0.042724933 0.009201184 -0.013782594
-0.029043606 -0.010307424 -0.03460379 -0.0052006394 0.051142335 -0.030556388 0.022342183 -0.027451562
0.005268678 0.0020298958 0.026878402 -0.045802966 0.04272174 0.040841132 0.01598347 0.021262348
-0.034455806 0.035225704 0.026689276 -0.020597383 -0.031307116 -0.03715333 -0.0021625012 -0.0057829022
0.05141245 0.05316458 -0.054608364 -0.049204845 -0.04178173 0.01749023 -0.03848157 0.0023060516
-0.011774052 -0.049389444 -0.004423965 0.024278693 0.05218511 0.00822784 -0.0117504895 0.05081109
-0.0004917979 -0.028114704 0.05320453 -0.050566453 0.007074453 0.036210462 -0.055098087 0.022414707
-0.031330995 0.040552936 -0.05117468 0.044974975 0.029134393 -0.03772251 -0.02765606 -0.022143405
0.01681669 -0.039074406 -0.0004451014 0.010291234 -0.048356596 -0.04878739 -0.0033661462 -0.052389596
-0.0235882 0.03479895 -0.010652132 -0.018847603 0.027730368 0.009008013 0.039038338 -0.04815054
-0.026818236 0.041180335 0.03838946 0.0036124215 0.022046536 0.005698681 -0.052896835 0.021931157
-0.03159194 0.019161724 -0.010982133 0.010294661 0.035432473 0.053967252 0.035544343 0.005350154
0.01792045 0.038532563 0.0065665804 -0.023694146 -0.012360476 0.05081503 -0.02739276 -0.050444394
-0.04055842 0.015660547 0.023917697 -0.010629211 0.007030219 -0.0053353347 0.037014402 0.05275069
0.013358355 -0.04231146 0.0026371665 -0.0388932 0.0527979 -0.055484086 -0.00064399466 0.054526664
0.035378203 0.049451537 -0.017268702 -0.046539374 0.03890145 0.030482724 -0.052788597 -0.0458449
0.005124159 0.025400653 -0.014810637 0.0022178665 0.051016062 0.031925887 0.029700197 -0.054325175
-0.055308517 0.046428688 0.024630971 0.009400032 -0.037390202 0.051870227 -0.048411876 -0.039980218
-0.017489858 0.02781526 0.00068823993 -0.028881516 -0.049258668 0.05031407 -0.046487242 0.027801506
0.017045207 -0.04776258 0.02326487 -0.005207751 0.0017807484 -0.035891153 -0.04729811 -0.055016227
0.014050558 0.014203191 -0.004621152 0.039809003 -0.038753577 -0.033595048 0.04821253 -0.04836999
-0.0073650144 0.055322386 0.038228795 -0.020667717 0.017001629 0.02027347 0.05421848 -0.025736595
0.051684633 0.0038536638 0.030821413 0.045387916 0.039025374 0.02432894 0.016567118 0.053670533
0.047309496 0.050237447 -0.009046715 0.028045394 -0.0043072253 0.00094345585 0.04294578 0.05069501
0.02665285 -0.015297901 -0.033842884 0.041245744 -0.02212613 0.05255034 0.030562833 0.019632928
0.00013009459 0.016075142 0.020276882 -0.014584627 0.046838284 0.054495633 0.018112771 -0.051235765
0.025061116 -0.020646222 0.004301112 0.030984879 -0.037312634 0.027618416 -0.027849616 -0.04582483
0.034415588 -0.0029014535 -0.052952092 0.006419115 0.02772326 0.004881654 -0.03768535 0.0008212179
0.04206971 0.03705188 0.0034858808 -0.037956677 -0.045695554 0.0061308965 0.038096406 0.044714816
-0.023877997 -0.015116122 -0.0037013665 0.013464212 -0.016361717 0.00046013668 0.02455847 -0.044978134
-0.008538347 -0.012647081 -0.0073386393 0.053813808 -0.0038821287 0.05492869 -0.02583724 0.0040839203
0.05394119 -0.021373838 -0.0013863072 0.026803367 -0.003027361 -0.044792634 0.023392126 -0.049912572

fc2.bias f4 [64]
00000000: 12bd 22bd 5ca6 8a3c 7841 5c3c 248c c63c
00000010: 3c5f 02bd dadb 033d 3d73 36bd 0896 ef3c
00000020: f8f6 d33c cf91 f7bc 5887 2fbd e033 bdba
00000030: 0e9e 1a3d b8fd d83c 109b d8bc 3486 6abc
00000040: f4de 17bc d810 70bc 2055 083d d607 463d
00000050: f490 b0bc a064 703b c64c 60bd 9038 68bb
00000060: 9a03 5e3d 34b3 64bd 12cb 24bd ec67 90bc
00000070: 2854 ef3c 62c9 07bd 081b 1c3d 78f0 a4bc
00000080: 58f9 1b3c 2049 84bc e899 1fbd 43a5 50bd
00000090: 4409 1dbc 1808 f5bc 5887 c03b dcef 4ebc
000000a0: d780 56bd b242 2f3d 2881 a0bc 30f1 34bd
000000b0: f094 3d3c 3733 d3bc 3710 eebc 4cde 5f3d
000000c0: fcfa 3dbc 68f3 463c b831 d03c 189e 083d
000000d0: 40fb 683c c050 8cbb ecfd 82bc 5b4c f8bc
000000e0: 322f 083d ac60 15bc 1e22 5b3d c402 993c
000000f0: 46e6 97bc d20b 523d 7419 543d 6004 8aba
-0.039731093 0.01692503 0.013443343 0.024236746 -0.031829104 0.03219209 -0.044543494 0.029246345
0.0258746 -0.030220894 -0.042853683 -0.0014435016 0.03774839 0.02648817 -0.026441127 -0.014314223
-0.009269465 -0.014652453 0.033284307 0.048347317 -0.021553494 0.003668107 -0.054760717 -0.0035434105
0.054202653 -0.055834964 -0.040232725 -0.017627679 0.029214934 -0.033151038 0.038111717 -0.020134196
0.009519897 -0.01614815 -0.038965136 -0.050938856 -0.009584729 -0.029911086 0.005875509 -0.012630429
-0.052368965 0.042788215 -0.019592836 -0.044175327 0.011571154 -0.025781257 -0.029060466 0.05465536
-0.011595484 0.0121429935 0.025414333 0.033353895 0.014220059 -0.004282087 -0.01599022 -0.030309847
0.033248134 -0.009117287 0.053499334 0.018678077 -0.01854242 0.051280804 0.051782086 -0.0010529868

fc3.weight f4 [8, 64]
00000000: 68b8 a63c 6071 2e3d 10a6 60bd 84fc 973d
00000010: 7449 f13d 32af efbd b404 e23d 04c3 78bd
00000020: 202b 85bb d0d7 e13d 2002 9ebc 3292 c4bd
00000030: 2881 cebc 208c 433c 3471 f23d 9045 c2bd
00000040: 2c94 3b3d 4446 e73d 9cb4 273d 1076 813c
00000050: 8892 c7bc 7a4d b3bd a4b9 48bd 40fc 523d
00000060: f610 b9bd 5ed3 953d 382e 09bd 102c 12bc
00000070: 74a5 29bd 70f8 e93d 988a c03d f0c1 ed3c
00000080: eef9 883d a079 7abc 9896 873c c84c f9bc
00000090: 0844 b63c 60f4 d3bb d822 edbd 8474 4e3d
000000a0: fa7e 97bd a0b5 8bbb 2cee 18bd 4473 d6bd
000000b0: 5c07 cf3d 80d5 18bd 603e e1bb 3896 c93c
000000c0: 20d3 c1bc d861 7e3d f62e 963d 58e4 9fbc
000000d0: b047 1e3c 0c3e 913d 5847 513d f09a 563c
000000e0: 56e3 a23d f886 febc 1041 883c 00f8 64ba
000000f0: a4e3 2e3d a02b 81bc 0e1a 83bd 1899 af3d
00000100: 549d e0bd d420 86bd 8887 f3bd 104b 31bd
00000110: 7a89 87bd a824 6d3d 80cc 04bc 780d 9d3c
00000120: a4da dbbd 70b4 133c ee17 8d3d f6b6 91bd
00000130: d87b eabc e079 8abc 3490 793d 1863 a73d
00000140: b093 7a3c 3a6b df3d d49f 5c3d dac2 e53d
00000150: a640 d5bd 180a cb3c 1cdf c5bd 606a 623d
00000160: 0c7e 19bd 868b a3bd ea17 e3bd 383f 9e3c
00000170: 1a0c cbbd 100f 6cbc 58b9 cbbc a888 aabc
00000180: ac6a c5bd dcf5 823d 8c88 b8bd 0ef1 bebd
00000190: a492 033d 6875 bebc 00b2 cfbc e619 b73d
000001a0: b8b5 793d 10e0 e93d c06d d2bb d886 77bd
000001b0: 28a1 fdbc 2469 c83d 305d 43bd 2e04 9bbd
000001c0: 7813 ad3d ec24 92bd 4c00 d83d 48e0 08bd
000001d0: a4dc b43d 0e51 c0bd 3e99 bb3d 4297 cbbd
000001e0: 7ca0 d03d 101f cf3d 78b3 d33c 76f8 e53d
000001f0: 166b adbd dcf1 ac3d 04ae 1e3d 46fd bb3d
00000200: 649a f93d 7c96 b1bd 0032 f53b c82a d03c
00000210: 1e66 9ebd 10c1 efbd 5c72 57bd fc96 013d
00000220: ec75 71bd 4a47 d53d ac3a 443d ce86 f73d
00000230: e0e0 3ebd 7084 e53d b667 fc3d 1e33 d2bd
00000240: 6ef9 e5bd 4075 b5bb b4e6 373d 0483 da3d
00000250: 325e b6bd 84a9 3c3d 40b3 6f3b b0b5 45bc
00000260: d8d5 14bd 62f4 e3bd bc33 6abd 8c05 eabd
00000270: ce46 8b3d aea6 f2bd 480e 3fbd ea1c ba3d
00000280: 80a0 9f3d 009f e53d 2659 87bd c479 f53d
00000290: ec25 6b3d c83d e03c 9093 aabc c842 13bd
000002a0: a0d7 06bd 3ec7 8fbd 749e f1bd 0af9 aebd
000002b0: a0d0 89bc 8095 853b 681f 66bd 8c11 09bd
000002c0: c031 88bd 000e 103b 2c02 57bd 7ac4 84bd
000002d0: a830 9abc 1e15 d33d 5641 aabd 005e f23d
000002e0: dc06 ddbd 60be f7bd f04c 00bd f84e cfbc
000002f0: ac11 8dbd d45d b63d 0299 f5bd 8070 ccbb
00000300: 2239 a73d 0040 0f3c a84e b1bd b099 5e3c
00000310: c0aa 233c 72eb 8fbd 980a dfbd 1aef c5bd
00000320: a8a0 003d 50d2 693c 9ceb 37bd cc88 533d
00000330: 6a42 99bd 487a adbc 920d 84bd 401f 64bd
00000340: 9023 5b3c b290 d1bd b07f d33d 5064 f13d
00000350: b0ea 343d 008d ae3c b808 6d3d 90a0 913d
00000360: 30a6 753d 801b 113d 289d 71bd da26 80bd
00000370: 6095 833c 4080 883b 6c09 edbd 10dc f43d
00000380: ee3c 9cbd a8db dbbc b42e 713d c805 ab3d
00000390: 5495 14bd bce1 dd3d e840 8cbd 549e 44bd
000003a0: 98dc 313d 125d a3bd 40bc 353b e85a 6e3d
000003b0: 60a8 fabd 24aa 9f3d 7828 a93c 687f b53d
000003c0: 1c95 42bd a069 a23c 409b 683d 3ce5 c2bd
000003d0: 808a 433d 682e c23d f0fd b9bd bed1 f63d
000003e0: 5249 c3bd 2c94 89bd 0058 543d 00c1 00ba
000003f0: 6245 a0bd 54ca 733d 6055 2b3d 1ef8 dabd
0.020351604 0.04258859 -0.05484587 0.074212104 0.11781588 -0.11703338 0.11036053 -0.060732856
-0.004063979 0.11027491 -0.019288123 -0.09598197 -0.02520807 0.011935264 0.11837998 -0.09485924
0.045795605 0.11292699 0.040943727 0.015803367 -0.024361864 -0.08755012 -0.049005166 0.051510096
-0.09036438 0.07315706 -0.033491343 -0.008921638 -0.041417554 0.11424339 0.09401435 0.02902314
0.06688295 -0.015287787 0.0165513 -0.03043212 0.022249237 -0.0064683408 -0.115789115 0.050404087
-0.07397266 -0.0042635947 -0.037336513 -0.10471204 0.101088256 -0.037312984 -0.0068738908 0.024607763
-0.023660243 0.06210503 0.07333176 -0.019518062 0.009660646 0.070919126 0.05109343 0.013098463
0.07953517 -0.031070217 0.016632587 -0.00087344646 0.042697564 -0.015767872 -0.06401454 0.08574122
-0.10967508 -0.0654923 -0.11891085 -0.043284476 -0.066180184 0.057896286 -0.008105397 0.019171461
-0.10735062 0.009015188 0.0688933 -0.07114975 -0.028623506 -0.016903818 0.06092854 0.081731975
0.0152940005 0.10909124 0.05386336 0.112188056 -0.10412721 0.024785087 -0.09661695 0.05527723
-0.037473723 -0.07985596 -0.110885456 0.019317254 -0.099144176 -0.014407888 -0.024868652 -0.020817116
-0.09639487 0.0639455 -0.09010419 -0.09323321 0.03212227 -0.023249343 -0.025353432 0.089404866
0.060964316 0.1141969 -0.0064217746 -0.06043133 -0.030960634 0.09785679 -0.047696292 -0.075691566
0.08450979 -0.071359485 0.105469316 -0.033417016 0.08831146 -0.0939046 0.09160088 -0.099409595
0.1018686 0.101133466 0.025842413 0.11229031 -0.08467691 0.084445685 0.038740173 0.091791674
0.12187651 -0.08671281 0.007482767 0.025411025 -0.07734321 -0.117067456 -0.052599296 0.03163813
-0.05895035 0.10413988 0.047907516 0.12086259 -0.046601176 0.11206901 0.12324469 -0.10263656
-0.112292156 -0.005537659 0.04489775 0.106695205 -0.08904685 0.0460601 0.0036575347 -0.012067243
-0.03633675 -0.11130597 -0.057178244 -0.11426839 0.06800614 -0.11848198 -0.04664448 0.09087546
0.07794285 0.112119675 -0.066088006 0.119861156 0.057409212 0.02737321 -0.020822316 -0.03595236
-0.03292048 -0.07020424 -0.11797801 -0.08543594 -0.016823113 0.0040766597 -0.056182295 -0.033464
-0.06650114 0.0021981 -0.052492306 -0.064827874 -0.01882203 0.10306762 -0.08313243 0.11834335
-0.10792324 -0.12096858 -0.031323373 -0.02530621 -0.06888136 0.08904615 -0.119920745 -0.006238997
0.08165194 0.008743286 -0.086575806 0.013586447 0.00998944 -0.070273295 -0.108906925 -0.09664746
0.031403214 0.014271334 -0.04490243 0.05164413 -0.074833706 -0.021176472 -0.06447901 -0.055693865
0.013375178 -0.102326766 0.10327089 0.11786711 0.044169128 0.021307468 0.057869643 0.07110703
0.059972942 0.035426617 -0.058987767 -0.0625741 0.016062438 0.004165679 -0.11574063 0.11956036
-0.07628809 -0.026838139 0.05888243 0.08350712 -0.036275223 0.10834071 -0.068483174 -0.048002556
0.043423265 -0.07976736 0.0027730614 0.058192164 -0.12239146 0.077961236 0.02064918 0.088621914
-0.047505483 0.019825757 0.056788683 -0.09516379 0.047739506 0.094815075 -0.09081638 0.12051724
-0.09535469 -0.06717715 0.051841736 -0.0004911572 -0.07825734 0.059519127 0.041829467 -0.10691856

fc3.bias f4 [8]
00000000: 2a49 cf3d d031 4fbc c0a1 f2bc c084 81bb
00000010: 28dc d13c 6468 d5bd 3c50 01bd c407 c63d
0.10121377 -0.012646154 -0.029618144 -0.0039525926 0.025617674 -0.104203016 -0.031570658 0.0966945

fc4.weight f4 [4, 8]
00000000: be17 113e 75cd 33be 9837 663d b8c3 63bd
00000010: 00c7 223c 5124 b03e 0f8d a23e 4800 47be
00000020: b26f 7d3e 9985 5fbe 18bd 9ebd b864 d33d
00000030: 5035 923c ba17 743e 5748 5abe c016 70bd
00000040: 00c3 3bbc a875 48be 2370 89be 2045 65bd
00000050: b08b bbbc 4c07 58be cff4 96be e970 5abe
00000060: 2e0b 143e 8c2c df3d a3f9 ac3e 2019 363d
00000070: e03a 07be 009e 763c d275 dfbd f03c 8fbd
0.14169213 -0.17558844 0.056205362 -0.055606574 0.009935141 0.34402707 0.31748244 -0.19433701
0.2474964 -0.21828307 -0.077509105 0.10321945 0.017847687 0.23837176 -0.21316658 -0.058615446
-0.011460066 -0.19576132 -0.26843366 -0.055974126 -0.022893757 -0.21096534 -0.2948365 -0.21332134
0.1445739 0.108971685 0.33784208 0.044457555 -0.13206053 0.015052319 -0.10911144 -0.06994045

fc4.bias f4 [4]
00000000: 5a90 793e ddf8 8e3e 0080 35bb c080 2b3d
0.24371472 0.27924243 -0.0027694702 0.041870832
