model/bob_2022_02_16.pth (torch_old, 846504 bytes, 12 tensors)

cov1.weight f4 [64, 1, 3]
000000 3a f0 b8 be 70 c3 6e be 02 ee 04 3f 24 ec 67 3e
       -0.36120778 -0.23316741 0.5192567 0.22648674
000010 99 2b 87 be 9c a3 7e 3e 59 6f d7 be b0 78 5b bd
       -0.2640045 0.248671 -0.4207714 -0.053581893
000020 2c d7 e0 3e 63 ed 92 be 00 b1 43 bd e0 fa a5 bc
       0.43914163 -0.28696737 -0.047776222 -0.020261228
000030 bd 78 8c be 26 85 ed be ae 5f 0a 3f e4 ee 45 be
       -0.27435866 -0.46390647 0.54052246 -0.19329411
000040 10 6d 11 3d 34 8d 87 be 6c f0 c1 3e 01 0d 11 bf
       0.0355044 -0.26474917 0.3787874 -0.5666047
000050 30 5f d1 3d 85 2a b6 be 7a d7 14 be 00 30 b0 3e
       0.10223234 -0.35579315 -0.14535323 0.3441162
000060 30 a3 62 be 70 45 35 3d 70 08 22 bd 7e 2a 11 3f
       -0.22132564 0.044255674 -0.039558828 0.5670546
000070 b0 00 f9 3e d0 22 20 3e 78 c6 0c bf b0 38 24 bd
       0.48633337 0.1563828 -0.5499034 -0.040093124
000080 48 11 ac be a0 7d e9 3c bc 3c ed bd 68 5d dc 3e
       -0.33606935 0.028502285 -0.1158385 0.43040013
000090 1a 85 ae be 2e 95 de be c0 74 a2 be c0 a5 6d 3e
       -0.34085923 -0.4347319 -0.31729698 0.2320776
0000a0 60 a1 10 3e 3c 9f 07 3f da 3f a8 be 20 34 d5 bd
       0.1412406 0.5297735 -0.32861215 -0.10410333
0000b0 44 4f a5 3e 15 0a 07 bf 7b d5 94 be 95 22 f6 be
       0.32287037 -0.5274976 -0.29069123 -0.4807326
0000c0 40 bd 35 3c 10 93 ca 3e bc 35 b9 bd dc f3 63 be
       0.011092484 0.39565325 -0.09043452 -0.22260994
0000d0 bc d7 9d be fe 0e 45 be 7d a4 92 be c0 63 aa bd
       -0.30828655 -0.19244 -0.2864112 -0.08319807
0000e0 06 b6 aa be 0a b5 10 bf ec 13 1e be 00 a5 61 bd
       -0.33341998 -0.56526244 -0.15437287 -0.055088997
0000f0 fc 2b 62 3e 40 39 71 3d 6e b1 8e be 00 1b 39 bb
       0.22087091 0.05889249 -0.27869743 -0.0028244853
000100 36 5e c5 3e 8a a5 67 be d0 95 c0 bd 30 b5 f9 3d
       0.3854844 -0.22621742 -0.094035745 0.12192762
000110 70 25 7f 3d 64 ef ee 3e 5a 18 01 bf 10 7d 92 3d
       0.062291563 0.46667016 -0.5042778 0.0715276
000120 58 dc d8 3d e4 80 06 bf 2a 4a 78 be 10 85 50 3d
       0.10588902 -0.5254042 -0.24247041 0.05090815
000130 d4 e7 82 3e 18 98 ae be 44 c9 18 3e c2 07 c7 be
       0.25567496 -0.34100413 0.14920527 -0.38873106
000140 3c ce 5e 3e 00 28 be b9 c6 61 4e be e2 52 ca be
       0.2175836 -0.00036269426 -0.20154485 -0.3951636
000150 e4 4b 9f be 8e 13 09 3f f6 85 86 be fd 74 02 bf
       -0.31112587 0.53545463 -0.2627408 -0.5095976
000160 84 f5 68 3e 04 b8 dc be d0 fc a2 3e 1a d7 f4 be
       0.22749907 -0.43109143 0.31833506 -0.4782036
000170 2e 28 d8 be 4a 5f b0 be 02 f8 99 be 70 ae f5 3d
       -0.42218155 -0.344477 -0.30072027 0.11996162
000180 cc 91 e7 3e ca 99 af 3e 30 bc 6a be 54 c0 0b 3f
       0.45228422 0.3429702 -0.2292335 0.54590344
000190 10 01 e0 bd f0 ca 55 bd 7a 19 be 3e d0 67 79 3d
       -0.10937703 -0.05219549 0.37128812 0.06089002
0001a0 2c 48 d2 3e bc 77 1a 3e 88 55 07 3e 6d 69 06 bf
       0.41070688 0.15084738 0.13216221 -0.52504617
0001b0 78 56 13 bf 44 e7 fb 3e e0 09 8f 3c 3e 25 0d 3f
       -0.57553816 0.4919988 0.017460763 0.5513495
0001c0 00 1c 69 bb d2 6f 05 3f fc 65 b1 3e 38 2a 55 3e
       -0.0035569668 0.5212375 0.3464812 0.20816886
0001d0 52 9f 85 3e 72 67 03 bf 2c 9b 0f 3f 7c 30 73 3e
       0.26098114 -0.5132972 0.5609615 0.23748964
0001e0 88 70 e1 3e 0c 75 0d 3f 08 8a 57 3e 40 3c 5b 3e
       0.44031167 0.55256724 0.21048748 0.21409702
0001f0 df 56 13 bf 56 43 d0 3e cc 8f fd be 40 9b 38 3c
       -0.5755443 0.40676373 -0.4952377 0.011267483
000200 76 34 9c be c4 b8 27 3e 38 53 6d 3e 73 e4 0f bf
       -0.30508775 0.16379076 0.23176277 -0.5620796
000210 fc 6f 3f 3e f1 31 fe be e7 8e f0 be a0 17 08 be
       0.18695062 -0.49647477 -0.46984026 -0.13290262
000220 84 aa 4e be 50 0e 02 3f 20 50 e3 bc f4 e7 00 3f
       -0.20182234 0.5080309 -0.027748168 0.5035393
000230 7a 78 c2 3e fc 4d 06 3e a0 56 d1 3c cd 32 04 bf
       0.3798254 0.13115686 0.025554001 -0.51640016
000240 b5 47 04 bf 58 3f b6 3e 00 af d5 3e 48 39 e2 bd
       -0.51671916 0.35595202 0.41735077 -0.11046082
000250 74 a6 7b 3e c0 9a 99 3d e0 82 7b 3d 18 d7 42 3e
       0.24575216 0.07500219 0.06140411 0.19027364
000260 24 c5 ff be cd e8 9c be cc c6 f4 3e 1e db a1 3e
       -0.49955094 -0.30646363 0.4780792 0.31612486
000270 f0 e4 04 bd 81 9d de be 40 1c 98 3d 80 5e c7 3e
       -0.032444894 -0.4347954 0.07427263 0.38939285
000280 0e de d0 3e bc 15 30 3e 98 ad d5 3e f8 fd 97 3e
       0.40794414 0.17195791 0.41734004 0.2968595
000290 3c 35 f8 3e 64 bd 91 3e 29 68 db be 40 b7 91 bd
       0.48478115 0.28464806 -0.42852905 -0.0711503
0002a0 5e 82 8b 3e 22 80 df be 42 b4 d7 3e 1c 5a ca be
       0.272479 -0.43652445 0.42129713 -0.39521873
0002b0 d0 80 db 3e 00 89 6c 3c 22 15 90 3e b2 18 0f bf
       0.42871714 0.01443696 0.28141123 -0.5589706
0002c0 80 d3 31 3c 0e 5f 12 bf 60 97 b3 3c 52 4f d3 3e
       0.010853648 -0.5717629 0.021922767 0.41271454
0002d0 de a5 cf be 32 59 09 3f 09 1e 06 bf 30 f2 18 bd
       -0.40556234 0.53651726 -0.5238958 -0.037340343
0002e0 3b ad 88 be a0 5e a0 3e 78 e5 b4 3e d8 6d 68 be
       -0.26694664 0.31322193 0.3533132 -0.22698152
0002f0 f0 5f a3 3e 54 b4 a0 3e 14 4f cf bd c6 93 59 be
       0.31909132 0.3138758 -0.10122505 -0.21247777

cov1.bias f4 [64]
000000 5c be 31 be 2c e5 b0 3e 70 3b 2d bd f8 32 66 3e
       -0.17357773 0.34549844 -0.042293012 0.2248038
000010 34 63 0b be 4c 8c 2d 3e 99 e0 0c bf 6c f7 b3 be
       -0.13612062 0.1694805 -0.5503021 -0.35149705
000020 39 22 ac be c5 48 de be 00 ea a2 3c 70 fa 02 3f
       -0.3361986 -0.43414894 0.01988697 0.5116339
000030 c0 d8 7a 3c 7f 75 b8 be 00 8e bd 3e 50 e6 b4 be
       0.015310466 -0.36027142 0.370224 -0.35331964
000040 cc 94 f3 be 0f 30 8f be 68 a7 cb bd c0 da c6 3d
       -0.4757446 -0.27966353 -0.099440396 0.09709692
000050 80 05 f9 bb 6e 0b d5 be 2c ef 08 be c6 c2 11 3f
       -0.0075995326 -0.41610283 -0.13372487 0.56937826
000060 3b 95 84 be a8 f2 a3 3e ba 50 f9 be 0c 51 eb 3e
       -0.25895104 0.3202107 -0.48694402 0.4596027
000070 c2 f0 f7 be 5c 2f b3 be c0 0d f5 3e f2 e4 72 be
       -0.4842587 -0.3499707 0.47862053 -0.23720148
000080 ef 98 0e bf ba 25 a4 be 68 2c 1e be 92 05 86 3e
       -0.5570211 -0.32060033 -0.15446627 0.26176125
000090 a0 76 f3 3d a0 96 de bd e4 7b 5f 3e 30 b1 3f bd
       0.1188786 -0.10868573 0.21824604 -0.04679984
0000a0 b2 36 e3 be a0 62 d6 3d e8 d4 e1 3d 10 1a 75 3d
       -0.44377667 0.1046803 0.11026937 0.05983931
0000b0 16 75 fe be b2 b3 07 3f 7e 17 b8 3e ca 54 0d bf
       -0.49698704 0.5300857 0.35955423 -0.552075
0000c0 fa 3d c8 3e 88 0a 97 bd cc 64 5b 3e d0 ff 7f 3d
       0.39109784 -0.073750556 0.2142517 0.06249982
0000d0 fe 41 d3 3e 30 95 e2 3e ee c9 9b be cc 94 b2 bd
       0.41261286 0.44254446 -0.30427498 -0.08719787
0000e0 48 09 c0 3d e6 3b f0 be ee d6 56 be b8 40 0b 3f
       0.0937677 -0.469207 -0.20980427 0.5439563
0000f0 c0 ed 8c 3e d0 8b 0d 3d c0 67 b6 bc 80 dc f6 3c
       0.2752514 0.034557164 -0.022266269 0.03013444

cov2.weight f4 [128, 64, 3]
000000 ff a9 35 bd ac 5f bc 3c 88 85 8b 3d b8 cb 75 3c
       -0.044351574 0.022994839 0.068125784 0.015002184
000010 1c 6b 85 3d 4e 45 0e 3d cc c0 2d bc b4 e3 d8 3c
       0.0651457 0.034734063 -0.010605048 0.026475765
000020 c0 a3 28 3c 56 9f bd bc 96 80 83 3d 7d e4 74 bd
       0.010292947 -0.023147266 0.0642101 -0.059788216
000030 d0 36 26 bd 2c bc 77 3d 81 96 84 bd 68 7b 23 3c
       -0.040579617 0.06048219 -0.06474019 0.009978153
000040 dc 96 d7 3c 50 51 38 3d f8 8b 3c bc f2 05 56 3d
       0.026317053 0.04499942 -0.0115079805 0.052251764
000050 00 52 c1 3a b6 8f 38 3d 6c ff 6c bd 63 7d 7f bd
       0.0014749169 0.04505893 -0.057860777 -0.062375437
000060 24 af 4e 3d e4 c8 5a bd 16 4f 6b bd e0 d7 34 3c
       0.050459996 -0.05341424 -0.05744847 0.011037797
000070 c8 1e b1 3c 92 d9 8c bd a8 54 61 3c 38 04 41 3d
       0.021621123 -0.06877436 0.013753094 0.047123164
000080 3e d2 37 bd 1c ef e9 3c f1 d6 10 bd c0 be 3f 3c
       -0.044878237 0.028556399 -0.035361234 0.011703193
000090 b4 a5 2c 3d 00 fc fb 3c 89 9f 08 bd 8e 65 27 3d
       0.042150214 0.030759811 -0.03335527 0.040868334
0000a0 ab bc 93 bd 80 4d 4e bd ec 11 5b 3d 16 0a 39 3d
       -0.0721372 -0.05036688 0.05348389 0.045175634
0000b0 7c f3 82 bd f9 1a 6e bd 8f e4 18 bd ba 16 bf bc
       -0.06394097 -0.058131192 -0.037327345 -0.023326267
0000c0 7c 7d 9e bc ca da 72 bd 34 ef cf bc b6 ba 18 3d
       -0.019346945 -0.059290685 -0.025382616 0.037287436
0000d0 84 80 31 bd d8 3e 66 3c ae 85 82 3d 70 0a a3 bc
       -0.043335453 0.014053069 0.063731536 -0.019902438
0000e0 00 59 25 3b 72 95 48 3d b4 fb 85 3d dc 9c c1 3c
       0.002523005 0.048970647 0.06542149 0.023634367
0000f0 28 4f 16 3c 40 5b dc 3a 6c 22 c1 3c 56 5f 2b 3d
       0.009174146 0.0016811863 0.023575984 0.041838966
000100 1e 79 e3 bc aa 29 83 bd cc d0 ae bc 62 cd 4a 3d
       -0.027767714 -0.06404431 -0.021339796 0.049512275
000110 00 5d 5e bc 7d f5 8c bd 84 c0 ef 3c be 3e 4f bd
       -0.013571978 -0.06882761 0.029266603 -0.050596945
000120 02 65 d5 bc c0 83 62 bd 82 05 15 3d 88 97 45 bd
       -0.02604914 -0.055301428 0.036382206 -0.048240215
000130 3c 93 b9 3c 76 16 0c 3d 5c 02 62 3d 34 1a 68 3d
       0.022653215 0.034201108 0.05517803 0.056665614
000140 08 6e 73 bc 83 10 4f bd bc 0e 10 3d 70 82 5b bc
       -0.014857776 -0.050552856 0.0351703 -0.013397798
000150 b4 f2 23 3d 38 83 7e 3d d8 ad 6c bd 9a 08 8e bc
       0.04002638 0.06213686 -0.057782978 -0.017338086
000160 20 db 65 bd d4 63 a0 3c 96 4d ea bc b9 c9 0f bd
       -0.056117177 0.019578852 -0.028601449 -0.035104487
000170 ce 8a 83 bd b8 78 68 3c ec 2f 52 3d 28 a6 c8 3c
       -0.06422959 0.014188938 0.051315233 0.024493292
000180 bc 1e 59 3d 4c 57 6e bd c0 42 f7 3a 0c 96 7e 3d
       0.053007826 -0.05818872 0.0018864498 0.062154815
000190 1c 73 4b 3d 9f c9 83 bd 04 c9 45 3d 4a e6 56 bd
       0.049670324 -0.064349405 0.048287407 -0.052465715
0001a0 1c 56 5e bd 8d c5 53 bd 5f a2 4b bd 16 e2 83 bd
       -0.05428134 -0.05170207 -0.049715396 -0.06439607
0001b0 40 ea 40 bb 50 45 06 bc 82 d0 f4 bc 20 9e 61 3d
       -0.00294365 -0.008195236 -0.02988458 0.05508244
0001c0 e6 c3 e0 bc 4a d8 56 3d 02 45 44 bd 38 71 74 bc
       -0.027437162 0.052452363 -0.047917373 -0.014919572
0001d0 94 01 68 3d f0 35 03 3c d8 bb 2d bd 88 8f 9c 3c
       0.05664213 0.008008465 -0.04241547 0.01911141
0001e0 90 2f 87 3d 44 82 99 3c b8 20 00 bc 9e cc 1c 3d
       0.06600869 0.018738873 -0.007820301 0.038281076
0001f0 00 32 f6 b9 43 96 05 bd d8 8e 95 3c 14 82 46 3d
       -0.0004695803 -0.032614004 0.01825659 0.048463896
000200 c4 11 66 bd 7f 4d 79 bd 28 28 1a bd 3e 53 77 bd
       -0.056169286 -0.06086492 -0.037635952 -0.06038212
000210 e4 b8 92 bd cc b1 2c 3d e8 56 f9 3c b0 c9 e2 3b
       -0.07164171 0.042161748 0.030436948 0.0069210157
000220 24 13 24 bd 48 5e b7 3c 60 22 bb bc 88 4f 0b 3d
       -0.040057316 0.022383824 -0.02284354 0.034011394
000230 a0 b5 7e 3d b4 07 2f 3d b8 90 76 3d b4 0b 8b 3d
       0.06218493 0.042731956 0.06019661 0.067893416
000240 e0 85 cf 3b bc 59 42 bc 2f a9 34 bd 13 1a 1e bd
       0.006333098 -0.011862215 -0.04410666 -0.038599085
000250 24 5f 80 3d 20 94 f5 bb 00 56 06 3c 00 e9 07 bb
       0.06268147 -0.0074944645 0.008199215 -0.0020738244
000260 5e d0 f6 bc 74 9b 7d 3d 07 c2 83 bd 48 71 99 3c
       -0.030128654 0.06191583 -0.06433492 0.018730775
000270 e4 91 00 3d ae c4 27 bd 7c af 67 bc 72 b7 c4 bc
       0.031389132 -0.040959053 -0.01414096 -0.024013255
000280 e0 99 2c 3d ec b2 e3 3c 20 48 fe bb dc 33 7c 3d
       0.042138934 0.027795278 -0.007760063 0.061572894
000290 58 c9 88 3d e0 0d f2 3b 8e c8 55 3d bc 5c 45 bd
       0.06679028 0.007386908 0.052193217 -0.04818414
0002a0 20 e2 c1 3b 20 d1 a1 3b 54 3d c9 3c 23 d5 44 bd
       0.005916849 0.0049382597 0.024565376 -0.048054826
0002b0 84 c0 d5 3c 94 22 0b 3d cc f6 e2 3c 37 61 1a bd
       0.026092775 0.033968523 0.027705573 -0.037690368
0002c0 60 7c a7 bc 58 8e 41 3c e4 33 ee 3c c0 d5 1f bc
       -0.020445049 0.011813723 0.029077478 -0.009755552
0002d0 ac 10 87 3c b4 8f 92 bd ee 9e 80 bd ba 4a 3f 3d
       0.016487442 -0.071563154 -0.062803134 0.046702124
0002e0 44 42 79 bd c0 9a e2 ba e0 eb 6b 3c a8 ff 56 bd
       -0.06085421 -0.0017288551 0.014399499 -0.052489907
0002f0 84 3b 88 3d 5a 85 8d bd 70 64 37 3c 8c 3f 65 3d
       0.06651977 -0.069102004 0.01119338 0.055968806
000300 5c 13 cf bc 08 c5 19 3c 80 d7 3c 3c b0 93 ea bb
       -0.025277786 0.009385355 0.011525989 -0.007158719
000310 06 83 48 bd 95 98 7a bd 22 d1 85 bc 6d 21 93 bd
       -0.04895308 -0.06118067 -0.016335074 -0.0718411
000320 f0 20 5b bc 10 80 37 3c b9 87 91 bd 8c ff cc 3c
       -0.013374552 0.011199966 -0.07105965 0.025024198
000330 44 05 a5 3c 50 dd da bb 98 b8 1c 3d 20 3f 90 bb
       0.020144112 -0.0066792145 0.03826198 -0.0044020563
000340 c1 f3 51 bd f6 1f 8f 3d 2c f1 70 3d d4 5b b2 3c
       -0.051257852 0.06988518 0.05882375 0.021772303
000350 40 de 5b 3d 0e f5 87 bc e8 2b 60 3d 4b e8 8b bd
       0.05367875 -0.016596343 0.054729372 -0.06831416
000360 ea 19 55 bd 0a 8d 39 bd 30 d2 cf 3c 26 a7 09 3d
       -0.052026667 -0.04530052 0.02536878 0.03360667
000370 b8 e2 64 bd 20 bb 92 3c 92 ff 0d bd 48 53 59 bc
       -0.05588028 0.017911494 -0.03466756 -0.013264485
000380 8b 3e 82 bd 60 1e ae 3b 56 84 76 bd 66 14 8f 3d
       -0.063595854 0.0053136796 -0.0601848 0.069863126
000390 30 df 56 3d 4c 1c bb 3c 54 ab 31 3d 5e 78 88 3d
       0.052458942 0.022840641 0.04337628 0.06663583
0003a0 f0 4c bb 3c d6 90 50 bd d8 ed 3a 3c eb aa 20 bd
       0.022863835 -0.050919376 0.011409245 -0.0392255
0003b0 38 38 39 3d a2 f9 35 3d de 8b 9f bc b0 14 8a 3c
       0.04521963 0.04442752 -0.019475874 0.016855568
0003c0 c6 e2 2a bd 70 d4 47 bd 36 ae 1e 3d 2c 88 d5 3c
       -0.041720174 -0.04878658 0.03874036 0.026065908
0003d0 10 85 97 3c 64 49 4f 3d 88 2c 46 3d 48 6f 8b bd
       0.018496066 0.0506071 0.048382312 -0.068083346
0003e0 60 ad 0b bb b6 a2 bf bc d0 b6 fb bb 20 d4 9a 3b
       -0.0021313056 -0.023393016 -0.007681705 0.0047249943
0003f0 00 80 78 b7 c0 a0 4b bd a4 6e 7e bc 60 bb 6d 3b
       -1.4811754e-05 -0.04971385 -0.0155293085 0.0036275014

cov2.bias f4 [128]
000000 d4 f8 78 3d c4 b3 19 bd 36 91 3f bd d4 ff 93 3c
       0.060784176 -0.037524953 -0.046769343 0.018066324
000010 7b 73 81 bd 12 99 f9 bc d4 eb fe 3c 7c 95 eb bc
       -0.06320854 -0.030468497 0.031118311 -0.028757803
000020 3a b2 36 bd 5a 0c 28 bd 60 93 b3 bb f2 ec 57 bd
       -0.044603564 -0.041027404 -0.005480215 -0.052716203
000030 c6 c2 64 bd e0 6c 7c 3d 7c a9 e3 bc 43 62 1e bd
       -0.055849813 0.06162727 -0.027790777 -0.03866793
000040 ab cf 04 bd d4 96 2a 3d 92 97 3a bd ad af 8e bd
       -0.03242461 0.041647747 -0.045554705 -0.06967101
000050 7c 66 80 bc af 2a 06 bd 90 59 82 bb 52 78 22 3d
       -0.015673868 -0.03275555 -0.003977962 0.039665528
000060 a4 d1 a5 3c f4 ba 7d bd a0 30 83 3c ce c9 5d bd
       0.020241566 -0.06194587 0.016014397 -0.054147534
000070 3e af c3 bc 40 ec f8 ba f8 a1 64 3c 12 d7 00 3d
       -0.023887273 -0.0018991306 0.013954632 0.031455107
000080 74 96 e1 3c f0 ee 3c bc 78 02 34 bc ce a0 41 bd
       0.027537562 -0.0115315765 -0.010986917 -0.047272496
000090 f1 55 79 bd 00 2e 99 b9 bc 72 fe bc ba b0 13 3d
       -0.060872976 -0.00029216707 -0.031060569 0.03605721
0000a0 da 6f 6e bd e4 96 6e 3d 20 43 4b 3c 10 b2 ed 3c
       -0.05821214 0.05824937 0.012406141 0.02901557
0000b0 74 f7 4d bd 10 f9 76 3d c0 9a 6a bd 95 64 20 bd
       -0.050284818 0.06029612 -0.057276487 -0.039158422
0000c0 80 06 47 3c 54 61 03 3d b0 6f 5b 3d d3 9d 85 bd
       0.012147546 0.03207524 0.05357331 -0.06524243
0000d0 4e c1 35 3d 4c f1 5e 3d af 37 11 bd 40 30 ff bc
       0.044373803 0.054429337 -0.035453495 -0.031150937
0000e0 8a 67 fb bc 7c 5e 84 3c 2a f9 80 bc f8 d0 ed 3c
       -0.03068902 0.016158335 -0.01574381 0.029030308
0000f0 01 ab 3e bd 06 60 3f bd 9b 99 74 bd de d8 16 3d
       -0.0465498 -0.046722434 -0.059716802 0.036827914
000100 08 ef 7d bd 20 aa 52 3d 98 f3 18 3c ce 15 11 3d
       -0.061995536 0.051431775 0.009335421 0.035421185
000110 70 db 35 3c 70 e8 f4 bb 8c 8a 2e bc dc d9 b6 3c
       0.011099681 -0.007473998 -0.010653149 0.02232068
000120 c2 0e e5 bc 10 26 c3 bb 20 2f 61 3d 80 1b a5 3a
       -0.027961139 -0.005955465 0.054976583 0.0012596697
000130 d0 a6 bc 3c 04 3e 98 3c d8 9e 66 bd 68 73 a7 3c
       0.023028761 0.018584259 -0.05630383 0.020440772
000140 e8 93 31 bc b8 2c 75 bc 62 37 3d bd d0 4b c3 3c
       -0.010838486 -0.014964275 -0.046195395 0.023839861
000150 c4 4c 10 bd 38 9f 15 3c a6 4b fa bc e1 af 0e bd
       -0.03522946 0.009132199 -0.03055365 -0.0348357
000160 14 40 68 bc d1 5a 25 bd 80 67 8a 3d 3a fa 92 bd
       -0.014175434 -0.040369812 0.06758022 -0.07176633
000170 00 d6 64 3d 24 c1 e1 3c f4 56 72 bc 58 c7 45 3d
       0.05586815 0.027557917 -0.014791239 0.048285812
000180 f8 c2 82 3d e8 55 80 3d 04 a8 76 3d 34 ca b4 bc
       0.063848436 0.06266385 0.060218826 -0.022069074
000190 48 4b 31 3c 38 d8 52 3c 90 3e a6 3c 78 cd 2c 3c
       0.010821171 0.012868933 0.020293504 0.010547034
0001a0 41 3a 81 bd 78 36 02 3d e6 65 90 3d b8 53 fa 3c
       -0.06309939 0.031790227 0.070506856 0.030557498
0001b0 94 68 77 3d da fe ce bc 90 f9 c4 3c b8 28 55 3d
       0.060402468 -0.025268007 0.024044782 0.052040786
0001c0 a0 a3 77 3b 0c 80 4d bd b4 5e 4b bc 58 ca 12 3c
       0.0037786737 -0.050170943 -0.012412716 0.008959375
0001d0 0a 66 43 bd b4 f9 2d bc 94 45 68 3d b0 03 bf bb
       -0.047704734 -0.010618616 0.05670698 -0.005829297
0001e0 b8 42 59 bc 88 92 3e bc de f0 81 bd f0 25 d0 bb
       -0.013260536 -0.011631615 -0.0634477 -0.0063521788
0001f0 40 cc 95 3a 86 ba e3 bc 80 4e 2c 3a 31 a5 2e bd
       0.0011428669 -0.027798902 0.00065729767 -0.042638008

fc1.weight f4 [320, 515]
000000 a8 80 d1 3b 79 c7 02 3d 2f fc 00 3d 1f 6d 31 3d
       0.006393511 0.031928513 0.0314905 0.043316957
000010 ce 46 fe 3c 6d 75 91 bc 61 cb af bc 78 c0 a0 bb
       0.031039622 -0.017756188 -0.021459283 -0.0049057566
000020 ba c0 d7 3c 6d 3b 03 3d a0 49 02 bd a6 e7 0e bd
       0.026337016 0.032039095 -0.031808496 -0.034888886
000030 10 33 0f bd fe b3 b4 3c 3f cb 12 bd c5 7d 27 bd
       -0.034960806 0.022058483 -0.03583836 -0.040891428
000040 50 56 f5 bb be ad a5 bc 85 84 2c bd 52 19 5f bc
       -0.007487096 -0.020224448 -0.042118568 -0.013616877
000050 58 a3 52 bc 06 fc 71 bc af 8f 08 bd 21 f4 d5 bc
       -0.012856327 -0.01476956 -0.033340152 -0.026117386
000060 6f 78 0f 3d bd 39 2b 3d 9b fe 30 3d fb 4e 0b bd
       0.035026964 0.04180311 0.04321156 -0.03401087
000070 db 58 14 3d d8 a7 eb 3b d2 f6 d2 3c ec 22 6e 3c
       0.03621755 0.0071916394 0.025752459 0.014534693
000080 dc 64 2e bd d6 65 9f 3c 0c 22 91 3c bd d7 12 3d
       -0.042576656 0.019457739 0.01771643 0.035850275
000090 b6 3d ad 3c 4a 38 bb 3c 5c 02 18 bd 5d 38 07 3d
       0.02114759 0.02285399 -0.037111625 0.033012737
0000a0 b2 09 f6 bc bb 9b df bc f8 b1 ac bb a8 a2 f6 bc
       -0.03003392 -0.027295938 -0.005270239 -0.030106857
0000b0 7e 81 6e bc 1d 4a 33 3d d5 26 b6 bc db 73 17 3d
       -0.0145572405 0.04377185 -0.022235313 0.036975723
0000c0 0f 4c b5 bc 50 6f 42 3b da b6 92 bc f4 c9 26 bd
       -0.022130994 0.0029668398 -0.017909456 -0.04071994
0000d0 7d e7 db bc 20 05 3f 3c 7e 31 03 bd 5c c0 32 bc
       -0.02684378 0.011658937 -0.03202962 -0.01091012
0000e0 41 8a ff bc 0e 46 25 bd 69 fe 10 3d 70 98 1e bb
       -0.031193854 -0.040350012 0.035398874 -0.0024199747
0000f0 a1 32 1e 3d 80 6d 16 3a 83 65 2c 3d 48 6c 6c 3c
       0.038622502 0.00057383627 0.042088997 0.014430113
000100 f8 51 fd bb 9a bf a5 3c 2a 50 d5 bc 21 3a 03 3d
       -0.0077307187 0.020232964 -0.026039202 0.032037858
000110 53 f9 21 bd 8f 30 31 3d 02 13 ea 3c 02 b2 cb bc
       -0.039544415 0.0432592 0.028573517 -0.024865154
000120 60 6a 4f 3c 6a dc ca 3c 7e 9d fa 3c 64 bb c4 bc
       0.012659639 0.024763305 0.030592676 -0.024015136
000130 e3 0c 2d 3d b4 eb 21 3c 4c 96 07 bd 85 15 82 bc
       0.042248618 0.009882856 -0.03310232 -0.015879402
000140 9c 96 5a 3c 50 7c 87 3b 42 2b b2 3c 05 70 00 3d
       0.013341572 0.0041346923 0.021749143 0.03135683
000150 b6 de 6e bc 26 cc d4 3c c3 d6 19 3d 35 ba 10 3d
       -0.014579466 0.025976252 0.03755833 0.03533383
000160 3c 05 15 bc f6 58 f6 3c 0e cd 95 3c 7c 74 0d bd
       -0.009095486 0.030071717 0.018286254 -0.034534916
000170 70 a6 11 bc 0a 6f 9b 3c 40 2c e1 3b 20 58 94 bc
       -0.008889779 0.018973846 0.00687173 -0.018108428
000180 7f a2 28 bd b2 71 d2 bc 06 16 02 bd 42 8e cb 3c
       -0.041170593 -0.02568898 -0.031759284 0.024848107
000190 a0 ee 0e bd 77 da 0e 3d 52 42 1d bd 62 7d 0f bd
       -0.03489554 0.034876313 -0.038393326 -0.035031684
0001a0 56 d5 b7 bc c4 f6 76 3c 98 81 28 bc c1 aa 18 3d
       -0.022440594 0.015073482 -0.010284804 0.03727222
0001b0 1a 09 a3 3c c8 45 6c 3c 0c 4f 4c 3c a0 2d 5f bb
       0.0199018 0.014420934 0.012470018 -0.0034054294
0001c0 6a 7e fe 3c b7 14 1e 3d 2a 27 f6 3c fe ff 8c 3c
       0.031066138 0.038593974 0.030047972 0.01721191
0001d0 ea 6a d4 bc a7 d9 24 3d 7c 84 24 bc d5 36 2f 3d
       -0.025929887 0.040246632 -0.010041352 0.0427769
0001e0 9f c1 09 3d 94 7c c3 bc 38 4d 77 3c f0 55 01 bb
       0.033631917 -0.023863114 0.015094094 -0.001973506
0001f0 0e 23 b9 3c f0 81 0d 3b 00 0d d5 b9 70 6d 24 3b
       0.022599723 0.0021592341 -0.00040636212 0.0025089644
000200 58 54 19 bd aa cc ce 3c 2d eb 2f 3d cd 9f 0a 3d
       -0.037433952 0.025244076 0.04294889 0.033843804
000210 40 8f 9a ba c4 d0 12 bc d5 d6 bc bc 44 ad fa bc
       -0.0011791959 -0.008960906 -0.023051659 -0.030600198
000220 50 d3 2a bc f6 d8 df 3c 9c 0e 08 bc 00 b6 e1 b8
       -0.010426357 0.027325135 -0.008304264 -0.00010762736
000230 40 ae 1c bc ae d5 65 bc 00 ef 15 b9 83 61 14 bd
       -0.009563029 -0.014027996 -0.00014298782 -0.036225807
000240 d8 c3 e6 3b 6b b0 1f 3d a2 d9 b8 3c 38 2b 5e 3c
       0.0070423894 0.038986605 0.022564713 0.013560109
000250 7a b3 06 bd 5f d3 2d bd 40 04 bd bb cf 74 b5 bc
       -0.032886006 -0.042437907 -0.005768329 -0.022150425
000260 e7 ba 13 bd 1c 57 5d 3c e9 82 33 3d 00 95 ef b9
       -0.036066916 0.013509538 0.043826018 -0.00045696646
000270 6b cf 04 3d d3 a7 24 bd 6c cc 3f bc f5 ce a0 bc
       0.03242437 -0.040199112 -0.011706453 -0.019629935
000280 20 9d f6 3b 31 cb 94 bc 63 c4 18 3d f3 06 2f 3d
       0.007526055 -0.018163295 0.037296664 0.042731237
000290 08 63 d9 3b 7a 11 6f bc 28 d5 86 bc c3 12 04 3d
       0.00663412 -0.014591569 -0.016459063 0.032244455
0002a0 fe 90 c3 3c b6 85 2d bd 30 4d 33 3b 02 12 dd 3c
       0.023872849 -0.042363845 0.002735924 0.026986126
0002b0 56 c7 af bc 76 04 1d bd ff 33 b6 bc c6 2d 53 bc
       -0.021457355 -0.038334332 -0.02224159 -0.012889331
0002c0 60 7e 85 3b f8 77 59 3c 40 f2 1c 3b 7e 66 c1 3c
       0.004073903 0.013273232 0.0023948103 0.023608442
0002d0 08 eb f5 bb db 18 cb bc 9b b2 14 3d 80 31 a4 3a
       -0.0075048245 -0.024792125 0.036303144 0.0012526959
0002e0 10 6e 5f 3b 9b 9b 2f bd 74 d2 ba bc ed 2f 20 3d
       0.0034092702 -0.042873006 -0.02280543 0.039108206
0002f0 4f c5 18 bd 78 b2 0f 3c 4e ee 99 3c 1c 68 02 bc
       -0.037297543 0.008770578 0.01879039 -0.007959392
000300 f0 66 81 bb 4a 15 b7 3c c8 65 0f bd 20 c7 f6 bc
       -0.0039490387 0.022349019 -0.035009176 -0.030124247
000310 a3 92 22 3d 70 1c 1c bd fe a1 eb 3c cd 32 2a bd
       0.039690625 -0.038113058 0.028763767 -0.041552354
000320 27 5d 0b 3d e6 6a ef 3c fa 41 ff 3c 20 c9 b9 bb
       0.034024384 0.029225778 0.03115939 -0.005669728
000330 32 86 eb 3c 56 dd 61 bc ca 3d e0 3c b0 e9 dd bb
       0.028750513 -0.013785681 0.027373213 -0.0067722425
000340 02 5e 9a 3c aa f7 e3 3c ce fd 2a bd f6 14 ff 3c
       0.018843655 0.027828056 -0.041745953 0.031137925
000350 78 96 84 bb 60 32 37 bb 03 94 03 3d e0 0a 0e bd
       -0.0040462576 -0.002795361 0.032123577 -0.03467834
000360 60 5a 64 bb 60 f6 86 3c d0 4a 88 3c c0 08 b0 bc
       -0.0034843907 0.016474903 0.016637236 -0.021488547
000370 e0 52 07 bb 5a 3f ff 3c 7c 1e 24 bd b6 61 ce bc
       -0.0020648763 0.031158138 -0.040068135 -0.025193077
000380 68 fc 00 bd 16 b1 de 3c 53 4e 03 3d 80 fe 05 3c
       -0.031490713 0.02718405 0.032057118 0.008178353
000390 f8 ee 4a bc 79 75 0e 3d 62 46 f7 3c bd 55 dc bc
       -0.012386076 0.03478 0.030184928 -0.026896352
0003a0 80 ec 57 3b 61 27 06 3d c2 0c e9 3c b6 0d f5 3c
       0.0032947361 0.0327524 0.028448466 0.029913764
0003b0 f6 3e 0e bd 9f 52 11 bd db 4a 16 3d 08 38 cc bb
       -0.034728013 -0.035479184 0.03669248 -0.0062322654
0003c0 a0 ec c1 3b 1d 49 22 3d c0 eb 89 ba 2c 67 6b bc
       0.0059181005 0.039620508 -0.001052253 -0.01436786
0003d0 de bd c5 bc 56 71 e8 bc 56 6a b5 3c 40 e8 90 bb
       -0.024138387 -0.028374355 0.022145431 -0.0044222176
0003e0 cb ef df bc dc 56 21 3c 04 80 18 3c 5a da e9 bc
       -0.027336022 0.009847369 0.009307865 -0.028546501
0003f0 90 a9 25 3c 30 df 2c 3b a8 2d bf 3b 0d 1d 8f bc
       0.010111228 0.0026378147 0.0058343 -0.017469907

fc1.bias f4 [320]
000000 50 84 c7 3b c4 a7 56 3c eb f2 01 3d 65 87 2b 3d
       0.006088771 0.013101522 0.031725805 0.04187717
000010 e8 89 b0 bb c6 2b b9 3c 61 63 0a 3d cc fd b1 bc
       -0.0053875335 0.02260388 0.03378618 -0.021727465
000020 a0 3b 45 bc 50 bd 6a 3b 00 ac df b9 56 48 85 3c
       -0.0120381415 0.0035818405 -0.00042662024 0.016269844
000030 6e 81 ba 3c 78 df 0d bc 15 8b f7 bc 60 7b 4d bc
       0.022766795 -0.008659236 -0.030217687 -0.012541622
000040 43 3e 00 3d fe 44 21 bd a5 b3 92 bc e9 ab e3 bc
       0.031309377 -0.039372437 -0.017907927 -0.027791934
000050 3d 0e 0f bd 40 8d 3b 3b 46 45 6d bc 16 d1 a7 bc
       -0.034925688 0.0028618127 -0.014481848 -0.020485442
000060 b3 eb 33 3d 0a 15 e8 bc 80 7f 7c 3b 88 2e 75 3c
       0.043925952 -0.028330345 0.0038528144 0.014964707
000070 1a 1f bf 3c a8 25 2b bc 05 62 e5 bc c0 fa 4a ba
       0.02333026 -0.01044599 -0.02800084 -0.0007743053
000080 2c 78 3e 3c 49 a4 1b 3d 22 dd fe 3c 75 5a 03 bd
       0.011625331 0.03799847 0.031111304 -0.03206869
000090 64 1d 0b bd 40 48 cb bc 60 47 30 bd e4 5c e7 bc
       -0.033963576 -0.024814725 -0.04303682 -0.028242536
0000a0 a8 52 ca bb 98 46 1a 3c cc 2d 8d 3c 23 27 25 3d
       -0.006174404 0.009416245 0.017233752 0.040320527
0000b0 7e d4 d6 3c 58 94 58 bc c8 d5 06 3c 58 b9 0f bc
       0.026224371 -0.013218962 0.00822968 -0.008772217
0000c0 3f 75 29 3d 5e 57 df 3c 8b 0c 2c bd d8 ff a7 3b
       0.04137158 0.02726334 -0.04200415 0.0051269345
0000d0 88 8e d3 bb ce ef 22 bd b4 20 26 bd f0 81 3a bb
       -0.0064562 -0.039779477 -0.040558532 -0.0028458796
0000e0 40 cd 14 3a 22 29 a8 3c 59 1c 24 3d e8 21 71 bc
       0.00056763366 0.020527426 0.040066097 -0.014717557
0000f0 52 88 f6 3c 61 dc 88 bc 40 b7 cb 3a 8c fd 25 bd
       0.0300943 -0.016706647 0.0015542284 -0.040525004
000100 6a 99 f1 3c e0 8d 53 3b db 87 fa bc d2 98 d8 3c
       0.029492099 0.003228061 -0.030582359 0.026440058
000110 68 62 2d bd 8a 51 e6 3c 8f 93 2c bd 21 80 9f bc
       -0.042330176 0.028115053 -0.04213291 -0.019470276
000120 60 ac 18 bd 23 b4 a3 bc 78 1d b2 3b 85 fb 24 3d
       -0.037273765 -0.019983357 0.005435642 0.04027893
000130 80 99 63 3c c0 60 44 3a 78 cf 3c bc 7d 47 19 3d
       0.013891578 0.00074912235 -0.011524074 0.037421692
000140 ac b7 58 3c 92 28 d4 3c 8c 6c 2a bd 68 80 f4 3b
       0.013227385 0.025898252 -0.041607425 0.0074615963
000150 07 f3 25 bd e0 dc 02 bb 48 81 dd bb 86 72 32 bd
       -0.040514972 -0.0019968078 -0.0067597963 -0.04356625
000160 04 df 83 bc 57 b1 23 3d 19 26 28 3d 19 dc 15 3d
       -0.016097553 0.039964046 0.041051958 0.036586855
000170 e2 c2 f5 bc da 12 c5 3c 80 08 8e 39 00 34 ac ba
       -0.030000154 0.02405684 0.00027090684 -0.0013138056
000180 b8 c7 ce bb 1f a3 00 3d b8 1e 0f 3c 2c 3a bf bc
       -0.0063104294 0.031405564 0.008735351 -0.023343168
000190 2e ef 52 bc 95 54 d8 bc 80 8f de bb f3 ab 31 bd
       -0.012874408 -0.02640752 -0.006792009 -0.043376874
0001a0 5a 4e e7 3c 88 1f a7 bb c0 88 f7 3b 70 b6 da bc
       0.028235603 -0.0051001944 0.0075541437 -0.026698321
0001b0 02 2e d8 3c c1 18 06 3d 62 02 ef bc 36 fb fe 3c
       0.026389126 0.03273845 -0.02917594 0.031125646
0001c0 3a ab 2a bd 30 88 1a bb 5b 0a 23 3d b2 c3 dd 3c
       -0.0416672 -0.002357971 0.039804798 0.027070854
0001d0 d2 89 ae 3c d8 bc 82 bb fe 30 e9 3c ef b2 18 bd
       0.021305952 -0.003989797 0.028465744 -0.03728002
0001e0 74 89 91 3c c2 87 8e 3c 6f e7 b1 bc bf 2e 0f 3d
       0.017765738 0.017398719 -0.021716801 0.03495669
0001f0 1c 35 0e bc 40 0e 86 3b ec 71 8b 3c f5 54 12 3d
       -0.008679654 0.004091054 0.017022096 0.035725553
000200 48 1f 16 bc 7b b0 9b bc 3a 10 d5 bc bb 4e 2d bd
       -0.0091627315 -0.01900505 -0.026008714 -0.04231141
000210 00 10 6e b9 03 e1 d7 bc 2f 19 05 bd 63 68 16 bd
       -0.00022703409 -0.026352411 -0.03249472 -0.036720645
000220 ea 39 6b bc 30 53 08 bb 70 e7 bb 3b 96 54 b5 3c
       -0.0143570695 -0.0020801537 0.0057343766 0.02213506
000230 ed 91 18 3d 86 8b a5 bc 2b 3c 02 3d 81 21 a5 bc
       0.03724854 -0.020208132 0.031795662 -0.020157577
000240 2a c9 de bc 10 f0 fd bb 80 27 51 3b 40 15 bc ba
       -0.027195532 -0.007749565 0.0031914413 -0.0014349595
000250 21 01 1a 3d 00 b0 33 3c 2b e2 00 bd 96 38 e9 bc
       0.037598733 0.010967255 -0.03146569 -0.028469365
000260 b8 d7 1c bd 86 cb f1 3c 1c fe 21 bd e0 ee f4 3a
       -0.038291663 0.029515993 -0.03954898 0.0018686913
000270 43 ba 12 bd f6 14 b6 3c 53 34 fc bc 80 66 78 3a
       -0.035822164 0.022226792 -0.030786669 0.0009475723
000280 60 2d 89 3b 7e d5 09 bd ea d2 a0 bc 6e b8 d4 3c
       0.0041863173 -0.033650868 -0.019631822 0.02596685
000290 2a ef e7 3c 30 90 6f 3b 90 d8 26 bc 2e 84 c7 3c
       0.028312284 0.0036554448 -0.010183468 0.02435502
0002a0 0f 0f 1a 3d e8 0e c8 bb c1 03 27 3d fc 23 21 bc
       0.037612017 -0.0061052926 0.040775064 -0.0098352395
0002b0 94 67 7f bc 38 cf 0d 3c 4c 26 48 bc 18 fd f0 bb
       -0.01558866 0.008655362 -0.012216162 -0.00735439
0002c0 5a dd bd bc 00 1d 35 3b 66 b0 d8 3c e8 48 ac bb
       -0.023176838 0.0027635694 0.0264513 -0.0052577145
0002d0 08 0b df 3b 1a 21 02 bd 88 ad 82 bc 30 6c 60 3b
       0.006806735 -0.03176985 -0.015951887 0.0034244172
0002e0 1d 2c 0f bd 36 fa d5 3c 82 fb 14 bd bb 13 e3 bc
       -0.03495418 0.026120286 -0.03637267 -0.02771937
0002f0 7b cf 18 3d a8 fc 1d bc e1 5c 28 3d 60 f9 35 bb
       0.037307244 -0.0096427575 0.0411042 -0.0027767047
000300 9b b5 a9 bc 50 6e 51 3c ca db 21 bd 1a 24 a9 bc
       -0.020716479 0.012782648 -0.039516248 -0.020647097
000310 ac 72 d3 bc 80 4e a3 39 01 fc 94 bc 44 a8 7c 3c
       -0.025811516 0.0003114827 -0.018186571 0.015420977
000320 16 f8 dd bc 20 07 4e bc d4 15 3d bc 62 d4 e6 3c
       -0.027095836 -0.012574941 -0.011540849 0.028177444
000330 3a 6c ba 3c c7 6a 04 3d 8c 8f 1e bc bd ca fd bc
       0.022756685 0.032328393 -0.009677779 -0.030980462
000340 c1 a0 27 3d f2 84 aa bc 20 68 81 bb 30 1d 42 3b
       0.04092479 -0.020815346 -0.0039491802 0.0029619448
000350 95 70 24 3d 16 58 26 bd f0 42 e6 bb 5c 89 08 3c
       0.04014643 -0.04061135 -0.0070270225 0.00833353
000360 35 21 31 3d 57 18 0c 3d 6a 35 c2 bc 37 ea 10 bd
       0.04324456 0.0342029 -0.02370711 -0.035379615
000370 19 9e 1e 3d e8 62 e3 bc 1c 46 04 3c 81 f5 b4 bc
       0.038724992 -0.027757123 0.008073356 -0.022089722
000380 c0 c7 0d 3b 00 ba 6e 3a d8 a5 1f bd 68 3f 05 bc
       0.0021633953 0.00091066957 -0.03897652 -0.008132793
000390 c0 2b 31 bb 80 8b af 39 74 77 5d 3c 60 9b 4a bb
       -0.0027034134 0.00033482537 0.013517249 -0.0030915365
0003a0 ca 51 bc bc 90 46 86 bb aa 5c af bc b6 fb f5 3c
       -0.022988219 -0.004097767 -0.02140649 0.030027252
0003b0 6a e3 bf bc 3a fa f6 3c ee be d2 3c 0f e4 1f bd
       -0.02342387 0.030148614 0.025725808 -0.039035853
0003c0 88 ca 18 bd 50 e9 21 3b 74 82 49 bc 24 23 8c 3c
       -0.037302524 0.0024705715 -0.012299169 0.0171066
0003d0 60 73 91 ba 4f 05 09 3d f9 c3 27 3d 2f 20 21 3d
       -0.0011097006 0.03345233 0.04095838 0.039337333
0003e0 a0 2b 60 bb 8b bb 8f bc fa 85 ce 3c bc d9 1c bd
       -0.003420569 -0.017545482 0.02521037 -0.038293585
0003f0 ee 36 d8 3c c6 28 fc 3c 84 23 67 3c 1c ab 58 3c
       0.02639338 0.030781161 0.014107589 0.013224389

fc2.weight f4 [64, 320]
000000 74 29 96 3c 12 b9 8c bc 56 f3 8f bc a8 8c 4d 3d
       0.018330313 -0.017178092 -0.017572086 0.05018297
000010 b0 e8 37 3d 94 d2 ed 3c 0c 3b 1f bc 70 ab 31 bb
       0.044899642 0.029031076 -0.009718668 -0.0027110241
000020 68 02 49 bd 20 96 b6 3a b2 35 15 3d 08 ef b4 bb
       -0.04907456 0.0013930239 0.03642816 -0.005521659
000030 00 f4 83 38 86 6c 25 3d 80 a4 11 bc 64 92 5e 3d
       6.292015e-05 0.0403867 -0.0088893175 0.054338828
000040 a8 3c b6 bb c2 45 44 3d c8 3b 55 bc 8f b7 49 bd
       -0.00556143 0.04791809 -0.013014741 -0.04924732
000050 f4 df 3c 3d 68 24 01 3c e8 66 4e 3d 00 dc e0 ba
       0.046112016 0.007882215 0.050391108 -0.0017155409
000060 00 fa 55 3c 30 20 20 bb 4c 50 1c 3d 6e ec 23 bd
       0.013060093 -0.0024433248 0.038162515 -0.0400204
000070 00 06 7d 3c f0 b4 af bc 98 06 2b 3c 04 c6 cb 3c
       0.015443325 -0.021448582 0.010438584 0.024874695
000080 ec ce f4 3c 24 9b 7e bc d9 f1 07 bd 90 e8 33 bd
       0.029883824 -0.015539918 -0.03318963 -0.04392296
000090 aa 5a 1d 3d 9a 63 52 3d 70 7b ae 3c 4d 0d 22 bd
       0.038416542 0.05136452 0.021299094 -0.039563466
0000a0 a8 5a 4b bc c0 99 ea 3b b8 01 45 3c f8 48 52 3d
       -0.012411751 0.0071594417 0.012024336 0.05133912
0000b0 70 4f 37 bc 30 b9 29 3d 90 47 ba bc f4 57 1a 3d
       -0.011188373 0.041436374 -0.022739202 0.037681535
0000c0 d8 2e 36 3d 30 29 21 bd c2 f0 64 3d d8 8d 72 bc
       0.044478267 -0.03934592 0.055893667 -0.014804326
0000d0 80 71 ab bc 80 39 b7 3b 00 84 6b 38 80 b4 4c 3d
       -0.020928144 0.0055915713 5.61513e-05 0.049976826
0000e0 42 46 aa bc a3 4e 64 bd fa b9 10 3d 1a 63 51 3d
       -0.020785455 -0.055739056 0.03533361 0.0511199
0000f0 29 e7 da bc 5c 8a a3 bc 26 b2 c1 bc 36 e4 4a bd
       -0.026721554 -0.019963436 -0.023644518 -0.049534045
000100 44 04 8a 3c a2 d9 24 bd a0 71 d8 bc 08 1a 6a bc
       0.016847737 -0.040246613 -0.026421368 -0.014288433
000110 9c 92 f1 bc 6c 4a 53 3d 70 79 35 bd e4 ce 11 3d
       -0.029488854 0.051584646 -0.044305265 0.035597697
000120 18 c4 82 3c 38 8b d1 bb ec 9c 4e bc 70 f1 a0 bb
       0.015962645 -0.00639477 -0.012610655 -0.004911594
000130 f6 68 34 bd bf 6d 1b bd b8 ae 8e bc a4 7f 5f bc
       -0.04404541 -0.03794646 -0.017417297 -0.013641272
000140 a6 e5 4b 3d 94 c6 f4 3c b0 46 b5 3b f1 83 4d bd
       0.049779557 0.029879846 0.0055321082 -0.050174657
000150 70 6f 0f 3c 66 08 a8 bc e8 3e 07 bc 8e ce 0d 3d
       0.008754596 -0.020511817 -0.008254744 0.034620814
000160 ac 6d 46 3d 58 dc 4f bd a0 4a a9 bb 20 a9 9b bb
       0.048444435 -0.050747246 -0.0051663667 -0.004750386
000170 60 1e 23 bd 50 33 8f 3c 00 fc 90 bc 58 60 49 bd
       -0.03982389 0.017480522 -0.017698288 -0.049164146
000180 37 99 39 bd 00 66 c4 3c 4c f9 68 bc 28 92 4a 3d
       -0.045312133 0.023974419 -0.014219593 0.04945579
000190 b0 64 38 bc 10 9d 02 bb a4 93 1a bc f0 6d 2a bc
       -0.0112544745 -0.0019930042 -0.009434614 -0.010402188
0001a0 30 26 a6 bc a4 43 1b 3d e3 8e 5f bd 88 d9 c8 bc
       -0.020281881 0.037906304 -0.054579627 -0.02451779
0001b0 c4 bb 54 3d b4 ed cc 3c b8 35 8d 3c cc 18 b6 3c
       0.05193688 0.02501569 0.01723753 0.022228621
0001c0 90 5e 2f 3c 20 d6 26 bb d8 c2 26 3d a8 c7 97 bb
       0.010703698 -0.0025457218 0.04071316 -0.004631955
0001d0 e8 c1 43 3d 40 55 8f 3a ec 90 14 bd ca 7c 4c 3d
       0.047792345 0.0010935441 -0.03627102 0.049923696
0001e0 62 7a 52 3d dc fd e3 3c 94 65 a4 bc aa 53 21 3d
       0.051386245 0.02783101 -0.020067967 0.03938643
0001f0 40 6e ff 3c 64 3d 49 3d a0 5a 5d 3c 38 21 7a bc
       0.031180501 0.049130812 0.013510376 -0.015266709
000200 70 68 95 bb 70 fb d9 3b 0e ec 32 bd 04 54 26 3d
       -0.004559569 0.006652288 -0.04368215 0.040607467
000210 78 a7 20 bd e8 af b7 bc ea 1d f1 bc 40 6a bc ba
       -0.03922221 -0.022422746 -0.02943321 -0.0014374927
000220 82 2c 49 bd 72 91 bb bc 04 24 8a bc 6c c2 f2 bc
       -0.04911471 -0.022896502 -0.016862877 -0.029633723
000230 48 18 0f 3c 2a 9b 43 3d 40 5c c8 ba 17 dc 42 bd
       0.008733816 0.047755398 -0.0015286282 -0.047573175
000240 7e 67 1f bd 98 af 4e 3c a0 ce 1a 3c 9f bc 1a bd
       -0.038917057 0.012615107 0.009448677 -0.03777754
000250 74 ea 99 3c 7a ba 0e bd c8 2d 34 3d e0 2d 8f 3a
       0.018788554 -0.034845807 0.043988973 0.0010923706
000260 04 67 b0 3c 0e 7d 58 bd d5 2e 47 bd 36 63 38 3d
       0.021533497 -0.052853636 -0.048628647 0.04501649
000270 02 67 cb bc d4 3a 25 3d b8 7b f1 bb 08 b6 71 bc
       -0.024829391 0.040339306 -0.0073694848 -0.014752872
000280 92 8a 9b bc c2 c6 39 3d f4 67 3d bd 8c 64 4b bd
       -0.018986974 0.045355566 -0.046241716 -0.049656436
000290 00 80 7f b9 90 5e 45 3c 68 46 dc bc 84 96 1d 3d
       -0.00024366379 0.012046471 -0.026889041 0.03847362
0002a0 0c e0 23 3d e1 89 fa bc d8 d9 14 3d b4 df a7 3c
       0.04000859 -0.030583324 0.036340564 0.020492412
0002b0 d9 ae 63 bd 4d 57 00 bd e0 2f 5f 3d 18 3f 77 bc
       -0.05558667 -0.031333257 0.054489017 -0.015090726
0002c0 c0 39 b1 3c ee 3e 39 bd da f1 3e 3d 88 15 1e 3c
       0.021633983 -0.04522603 0.046617366 0.009648688
0002d0 ac 57 80 3c 06 13 2e 3d 19 78 e8 bc 90 ef 7e bb
       0.015666805 0.04249861 -0.02837758 -0.0038900115
0002e0 5d 4d 54 bd 98 16 31 3d 08 16 67 bc b8 c5 3b bd
       -0.051831592 0.043234438 -0.014104374 -0.045842856
0002f0 a3 7f 0d bd 1e 7f 00 bd 60 0f 3f 3c 34 12 4a bc
       -0.034545552 -0.03137123 0.0116613805 -0.0123334415
000300 a4 77 fc 3c 23 8d d5 bc 4a c6 44 3d 40 72 de 3b
       0.030818768 -0.026068276 0.048040666 0.006788522
000310 20 a7 a4 bb 79 6c 47 bd d8 2f fb bb e3 8c 34 bd
       -0.0050248057 -0.048687432 -0.0076656155 -0.044079673
000320 20 10 62 3b 4c 19 f6 bc b4 da 3e 3d 28 fd 5a 3d
       0.0034494475 -0.03004136 0.04659529 0.053464085
000330 7e 6d 19 bd 62 db 4e 3d 70 3a aa bc c0 4c 22 3c
       -0.037457936 0.05050219 -0.020779818 0.009905994
000340 82 7d 01 3d 9a 62 5c 3d 78 2d 2e 3c 60 94 58 3c
       0.031613834 0.05380497 0.010630958 0.013218969
000350 ee 62 d4 bc ea 14 c3 bc 44 9c e5 3c 18 e6 ef 3c
       -0.02592608 -0.023813684 0.028028615 0.029284522
000360 90 b6 38 3b a2 31 4b bd d8 27 3f 3c 5d 9b 27 bd
       0.0028184988 -0.04960788 0.011667214 -0.04091965
000370 d0 f7 3c 3d 5b 83 53 bd 60 d4 48 3c 18 a6 4d bc
       0.04613477 -0.051638942 0.012257665 -0.012551807
000380 d4 bb 18 3d 88 c9 58 bd a8 d6 60 3d 90 de b4 3c
       0.0372885 -0.05292657 0.054892212 0.022078782
000390 80 bd 71 3c 80 4a 4d 3b 60 f8 97 3c 76 e6 c8 bc
       0.014754653 0.0031324923 0.018551052 -0.024523955
0003a0 a4 06 ca 3c c8 f7 9c 3c 9e 9d 30 bd b8 9f 32 3c
       0.02466137 0.01916112 -0.043119065 0.010902338
0003b0 f8 25 04 3c 3c 56 e8 3c 06 46 43 3d af 62 3d bd
       0.008065693 0.028361432 0.0476742 -0.04623669
0003c0 26 0d 50 bd d0 4d c6 bc c4 a4 03 3d 72 8d 43 bd
       -0.05079379 -0.024207026 0.032139555 -0.047742315
0003d0 0c 34 9a bc 3e dd 27 bd bc 2e d6 3c ac ef 0c bd
       -0.018823646 -0.040982477 0.026145332 -0.034408256
0003e0 6e d8 ab bc 38 12 82 3c 10 96 35 3d 86 36 28 bd
       -0.020977225 0.015877828 0.044332564 -0.041067623
0003f0 04 76 b8 3c 40 8e 64 3a c0 20 be 3a 7c f0 65 bc
       0.022517212 0.00087187067 0.001450561 -0.014034387

fc2.bias f4 [64]
000000 e2 73 0f 3d d4 96 46 3d f3 8d d7 bc 0a f0 5b 3d
       0.035022624 0.048483685 -0.026312804 0.053695716
000010 08 4b 8e bc 2c 9d 27 bd 2a e7 2f bd 44 a4 2e 3d
       -0.017369762 -0.040921375 -0.042945065 0.042637125
000020 74 e5 6a bc be 0c 58 3d 86 40 41 bd 3c 7a 3b 3d
       -0.014336932 0.052746527 -0.047180675 0.04577087
000030 76 c8 29 3d 40 7d 7d bb 16 68 3f 3d 94 5b 31 bd
       0.04145094 -0.003867939 0.046730123 -0.043300226
000040 fd 28 58 bd 92 47 50 3d 28 85 4e 3d a4 b9 f1 3c
       -0.052773464 0.050849505 0.050419956 0.029507466
000050 ed c7 43 bd 30 47 15 3d d0 b9 4f 3d b8 08 1f 3c
       -0.047798086 0.036444843 0.050714314 0.009706669
000060 f0 a4 f4 3b a0 2f 06 3c bc 46 00 bd 20 36 12 3b
       0.007465951 0.008190066 -0.031317458 0.0022310093
000070 33 c1 63 bd f6 28 5c 3d 40 f2 3a bb 72 56 e2 bc
       -0.05560417 0.05375 -0.002852574 -0.027629111
000080 fc d2 01 bc 7b 0c cf bc b8 9e 97 3b e0 4f 67 3b
       -0.007923838 -0.025274506 0.004627075 0.0035295412
000090 32 99 12 bd 0c 11 ae bc f4 b2 92 bc b8 c3 33 3d
       -0.03579063 -0.021248363 -0.017907597 0.043887824
0000a0 62 b8 59 3d 7c ed b9 bc 28 a8 ac bc 6e 78 1b 3d
       0.053154357 -0.02269625 -0.021076277 0.037956648
0000b0 80 1e b3 bb e1 6d 27 bd 08 7c 59 3c 92 2b 35 3d
       -0.0054662824 -0.040876273 0.0132742 0.044231005
0000c0 e8 13 cb 3b 28 77 ea 3c da 83 0c 3d f6 31 be bc
       0.0061974414 0.028621271 0.03430543 -0.023217183
0000d0 e2 22 22 3d 80 0d 56 ba 68 af 0f bc e0 a5 89 bb
       0.039584048 -0.0008165464 -0.008769847 -0.004200682
0000e0 d9 26 26 bd 10 59 10 bd 50 37 3f 3d 1d 1f e8 bc
       -0.04056439 -0.035241187 0.04668361 -0.028335148
0000f0 2c ce fc 3c 10 0f 72 3b c0 e2 87 3c fc bf a6 3c
       0.03086003 0.0036935247 0.016587615 0.020355217

fc3.weight f4 [8, 64]
000000 a0 66 79 bc b0 eb 6f bd 70 ef 73 bd fc 5f d0 bd
       -0.015222222 -0.05857438 -0.059554517 -0.101745576
000010 70 96 fc bc 22 24 e4 3d a2 59 d1 bd cc 56 b6 bd
       -0.030833453 0.11139704 -0.10222174 -0.08903274
000020 30 ee 0f bd 16 33 ad bd 50 36 e1 3d f4 f8 c4 3d
       -0.035139263 -0.084570095 0.109966874 0.096177965
000030 f8 5c c9 bd 70 f7 76 3d 34 6d 99 bd a6 68 9d 3d
       -0.098321855 0.06029457 -0.07491532 0.07685976
000040 cc df cf bd 58 18 a6 bd d6 27 eb bd 2c 5d cd bd
       -0.10150108 -0.08110112 -0.114822075 -0.10027537
000050 88 c4 da 3c 14 70 39 3d 2c 80 f6 3d 28 89 b3 bc
       0.026705042 0.0452729 0.120361656 -0.021915987
000060 70 bd fb 3c 98 bc 7e bd b2 a1 93 3d 9c 2b be bd
       0.03072998 -0.062191576 0.07208575 -0.092856616
000070 1e 33 a8 bd a0 0f 58 3c b6 a4 c2 3d e6 d8 f9 bd
       -0.08212875 0.013187319 0.09504072 -0.12199573
000080 4a 18 8a 3d a8 64 84 bd b2 e3 ca 3d d8 40 97 bc
       0.06742914 -0.06464511 0.09906711 -0.018463537
000090 90 58 d7 bc 16 4a cd bd b0 b3 fa bc 0c 48 00 bd
       -0.026287347 -0.100238964 -0.03060326 -0.03131871
0000a0 16 1a b4 3d 80 9a b2 bb 40 0f 87 3b 0a 6a 99 bd
       0.08794038 -0.0054505467 0.004121691 -0.074909285
0000b0 58 5c c1 3d 90 98 ee bc 38 90 5d 3d 20 fd d2 bc
       0.09441441 -0.029125482 0.054092616 -0.025755465
0000c0 18 4b 86 3d c0 ef 86 bd 6c 3b 01 3d ce 0a ec 3d
       0.06557292 -0.065886974 0.03155081 0.11525498
0000d0 3c d4 19 bd 7c 70 1e 3d f4 82 37 bd b8 de f1 3c
       -0.037555918 0.038681492 -0.04480262 0.029525146
0000e0 80 6c ec ba 30 ed cd 3d ba 41 d6 bd 4c d8 81 3d
       -0.0018037707 0.100550056 -0.10461755 0.063400835
0000f0 b0 01 cd bc ea 61 ac 3d 68 5e 98 3d f8 92 c2 bc
       -0.025025219 0.08417113 0.074398816 -0.02375172
000100 40 1d 97 3d e0 4d 4a bd 16 c7 99 bd 50 4c 58 bc
       0.07378626 -0.049390674 -0.07508676 -0.013201788
000110 38 77 e1 bd 86 c0 e3 3d d6 24 fe bd 82 61 8a bd
       -0.11009067 0.11120705 -0.1240937 -0.067568794
000120 bc 29 21 bd 08 bb 77 3d f8 ea 98 bd e0 d6 8d bc
       -0.03934644 0.0604811 -0.07466692 -0.017314374
000130 10 5d 59 bc 16 25 e4 bd 20 43 d5 bd a0 e0 97 bb
       -0.013266817 -0.11139886 -0.10413194 -0.0046349317
000140 14 9f f8 bd 52 75 e8 bd b4 ca f2 3d 78 3e 4f bd
       -0.12139717 -0.11350502 0.11855069 -0.050596684
000150 0e cb e4 3d 0a 00 b6 3d 30 54 12 bc 10 1d 42 3c
       0.11171542 0.08886726 -0.008931205 0.011847749
000160 86 09 95 3d 88 95 91 3c ee d7 b2 3d 00 18 d6 38
       0.07277207 0.017771497 0.087325916 0.000102087855
000170 d0 c9 42 bc e6 b4 b7 3d 64 a6 27 3d 28 9a ce bc
       -0.011888936 0.089700505 0.040930167 -0.025219992
000180 3a b9 aa 3d f6 0a e0 3d f0 ab 98 3c e8 40 86 bd
       0.083361104 0.10939591 0.018636674 -0.06555349
000190 00 94 24 3a f0 bc 11 bc 5c e1 fb 3d 58 ed a1 3c
       0.0006278157 -0.008895144 0.12298843 0.019766495
0001a0 1e f9 e3 bd 10 28 63 bc c2 cb 8d bd de b5 96 3d
       -0.111315 -0.013864532 -0.06923629 0.07358907
0001b0 98 15 78 bd 7c 6d 89 bd 0c 5a 10 3d 7a 8d 85 bd
       -0.06056747 -0.067103356 0.035242125 -0.06521125
0001c0 c2 3f a8 3d 58 f7 ee 3d 60 2f c1 3c a0 74 8b 3b
       0.08215286 0.11668271 0.02358216 0.004255846
0001d0 c6 b8 d3 bd c0 6c e9 3c 18 64 95 bd 8a 84 cc 3d
       -0.10337977 0.028494239 -0.07294482 0.09986217
0001e0 70 24 50 bc 68 ee ee bc 44 5f 1a bd 98 02 45 3d
       -0.012704 -0.029166415 -0.03768851 0.048098177
0001f0 50 31 52 bd 72 35 e0 3d 46 8f fe 3d 44 16 71 3d
       -0.05131656 0.10947694 0.12429671 0.058859125
000200 00 b4 15 3a 00 a7 aa 3d 30 5d 95 3d 84 79 21 bd
       0.0005710721 0.08332634 0.07293165 -0.039422527
000210 24 b8 cd bd 6c 4e 72 3d 48 11 06 bd 30 46 26 bd
       -0.10044888 0.05915682 -0.032731324 -0.04059428
000220 ba d3 e6 bd a2 26 c0 bd a4 26 3f bd 70 d3 e8 bd
       -0.112708524 -0.093823686 -0.04666771 -0.113684535
000230 80 f0 cd bb 7c 50 ee 3d 10 61 3d bc 24 be 08 3d
       -0.0062847733 0.11636445 -0.011558786 0.033384457
000240 20 51 5d bc 34 87 94 3d 24 cd 27 bd e0 f4 5f bd
       -0.013508111 0.072523504 -0.04096712 -0.05467689
000250 b0 5d 67 bd 7e e6 cc bd 50 1b 75 3d 04 ea d4 bd
       -0.05648583 -0.100049004 0.0598405 -0.103961974
000260 fe fe d2 3d dc 4e e4 bd 4c e3 9d bd b4 3f db 3d
       0.10302542 -0.11147854 -0.07709369 0.1070551
000270 18 1a 89 3d d0 fe 2f 3c f0 07 d3 bc d0 00 5d 3d
       0.0669443 0.010741904 -0.02576062 0.053955853
000280 a0 6d 60 3d 6c f8 9f 3d 0e 09 dc bd dc b2 68 bd
       0.054792047 0.078110546 -0.107439145 -0.0568112
000290 92 66 a0 bd a4 0e 93 bd e2 6e 93 bd bc 6d b1 bd
       -0.07832064 -0.07180527 -0.071988836 -0.08663508
0002a0 08 81 f5 3c b4 e8 75 bd 38 05 79 bd e2 d3 c1 bd
       0.029968753 -0.060036376 -0.060795993 -0.094642416
0002b0 04 4f f9 bd 00 7b 35 3b e2 36 97 bd 60 42 ed bb
       -0.12173274 0.0027691722 -0.07383515 -0.0072405785
0002c0 7a d8 f5 3d e0 cb 53 bd f2 0c e5 3d 5e 97 ea 3d
       0.1200418 -0.051708102 0.1118411 0.11454652
0002d0 80 47 7d bd a4 f1 ba bd 56 af a8 3d 88 2b e2 bd
       -0.061835766 -0.091281205 0.08236568 -0.11043459
0002e0 4e 47 d5 bd e8 7c 6f bd 00 34 9d 3d d8 c4 f7 3d
       -0.10413991 -0.05846873 0.07675934 0.12098092
0002f0 c8 5b dc bc 8c cd 2e 3d 18 82 90 3d ec 96 f7 3d
       -0.026899233 0.042676494 0.070560634 0.12089333
000300 e0 ba 8e bd 08 84 78 bd 04 9b 3a bd 4c 60 98 3d
       -0.06969237 -0.06067279 -0.04555799 0.07440242
000310 00 fa 0e bd 48 16 7b bd 60 60 8e 3b 9c a3 01 3d
       -0.034906387 -0.061300546 0.004344985 0.03165017
000320 0c ee 4b bd c8 1d 62 bd e4 64 e0 3d 72 84 f2 bd
       -0.049787566 -0.055204183 0.10956743 -0.11841668
000330 c0 85 bd bb 98 9c 97 3c 68 88 9c 3d 98 b9 d8 3d
       -0.0057837665 0.018507287 0.07643205 0.10582274
000340 3c ae 57 3d e4 b2 6f 3d a6 fe cf bd ac 43 91 3d
       0.052656397 0.058520213 -0.10155992 0.070929855
000350 08 e3 5a 3d 8e b3 d1 bd 60 77 14 bc 7a 5a 98 3d
       0.05343917 -0.102393255 -0.009061664 0.07439132
000360 2a f4 fd 3d 36 d0 8e 3d 9e cf e5 3d cc 8f 9c bd
       0.12400086 0.06973307 0.112212405 -0.076446146
000370 00 5f 7c 3d 74 6b 9a bd 02 73 95 bd 10 95 c9 bd
       0.061614037 -0.07540026 -0.072973266 -0.098428845
000380 70 fb f2 bd 40 50 21 bb a8 56 86 bc 9a ce f9 bd
       -0.11864364 -0.0024614483 -0.016398743 -0.12197609
000390 e8 0a c8 bd 2e be ac 3d 68 dd 66 bd 48 5d cf bd
       -0.09767705 0.084347114 -0.056363493 -0.10125214
0003a0 96 bd b5 3d be 40 a8 bd 80 79 78 bc 28 77 14 bd
       0.08874051 -0.082154736 -0.015165687 -0.03624645
0003b0 40 4b a4 3b 04 b3 55 bd 00 48 78 3d d8 f5 cd 3d
       0.0050138533 -0.052172676 0.06061554 0.100566566
0003c0 28 32 ea bc 6a bd c1 3d 28 80 b5 bc c0 60 ff bb
       -0.02858837 0.09459956 -0.022155836 -0.007793516
0003d0 f6 96 f5 3d 80 0b d4 bc f8 50 5f 3d a0 ca a7 3d
       0.11991684 -0.02588439 0.054520577 0.081929445
0003e0 40 06 bc 3c 88 57 84 3c 3e 4e db bd e8 eb e6 3c
       0.022952199 0.01615502 -0.10708283 0.02818866
0003f0 6c b5 0a 3d 80 e8 ed 3b fc 02 56 3d fc 02 37 bd
       0.033864424 0.007260382 0.05224894 -0.04468058

fc3.bias f4 [8]
000000 cc 1a 58 3d d6 06 cc 3d 0a 68 aa bd 86 b5 e2 bd
       0.05275993 0.09962241 -0.08320625 -0.11069779
000010 d6 97 c9 3d cc 5e dd bd aa 6d f0 bd 2c 64 87 3d
       0.098434135 -0.10809097 -0.11739667 0.06610903

fc4.weight f4 [4, 8]
000000 c6 3f 3f 3e 5a e7 17 3e e6 a5 6c 3e 25 c7 ae 3e
       0.18676671 0.14834347 0.2311016 0.3413631
000010 b8 bd 15 3e 88 02 f9 3d f8 b3 de 3d d7 4d a2 3e
       0.14623153 0.12158686 0.1087417 0.31700012
000020 81 dc a6 3e ba 07 f9 bd 30 37 b4 bd f8 78 0f 3d
       0.32590106 -0.12159677 -0.08799589 0.035027474
000030 d9 82 82 3e 8f 6b 91 be 34 e9 a5 bd 00 c0 94 3d
       0.25490454 -0.28402373 -0.081011206 0.072631836
000040 5e 2d 29 3e 2e 4b 7b 3e e1 b2 6d be cf 9f 88 3e
       0.16521212 0.24540398 -0.23212768 0.26684424
000050 84 a2 9e bd 69 6d b2 3e f0 3e 32 3d e8 f6 4a bd
       -0.07745841 0.34849098 0.043517053 -0.049551874
000060 3c 7e 06 be c4 c2 b4 3d bc c7 8c bd 08 e9 66 bd
       -0.13134092 0.08826211 -0.06874034 -0.05637458
000070 c0 1d 54 bc 78 95 cc bd ef c9 39 be ac 96 ab 3d
       -0.012946546 -0.099894464 -0.18143438 0.08378348

fc4.bias f4 [4]
000000 10 7c 76 be 98 2b a4 be 68 2b 4f be d8 f2 7e 3d
       -0.24070764 -0.3206451 -0.20231402 0.062243313
