model/ppo_2021_06_23_14_12_14.pth (torch_old, 846485 bytes, 12 tensors)

cov1.weight f4 [64, 1, 3]
00000000: d163 8bbe 6098 d9bd 0443 20be 9a60 07be
00000010: ea32 02bf 08ff 99bd 34dd 9e3e 3863 d7bd
00000020: c07d e03e 85f8 b9be 000e 703b ca75 f2be
00000030: a423 973e d90e 02bf 584e e43e 00e4 cfbc
00000040: ec74 70be 5099 7d3d 0032 a53a 6066 f03c
00000050: a826 b73d c059 f23e 003b 60bd 4831 9ebd
00000060: dab8 d43e bf25 0cbf f25b 9abe beb5 ca3e
00000070: 10de dc3e 42e7 843e 36d1 b1be f868 353e
00000080: 2090 34bd 34e3 2d3e e54f 09bf 8670 b33e
00000090: 6067 8fbc 4404 24be 1061 903d e0dc 003f
000000a0: d998 c1be 70c7 863d 00a4 1abc 4006 483c
000000b0: 5031 263e e631 8dbe 7b2f f2be 84a4 543e
000000c0: 5064 94be 0440 0c3e 4245 003f d630 0d3f
000000d0: 5ed5 9b3e 248f adbd 40e9 cabe f028 323e
000000e0: dcb0 0cbe 8450 aebd c9f7 f5be 28f8 e7bd
000000f0: 9016 53be 8852 cc3d 5843 b5be 98c3 043e
00000100: 08d2 9d3e aa1e 6fbe 0094 efbc 7040 483e
00000110: b09d cebd 4027 183d f681 9bbe 072e 8ebe
00000120: 9cf9 563e d86d d8be 10a3 0dbd 95aa 0ebf
00000130: 1085 043e a04a 3d3d 948e 29be b2f9 0f3f
00000140: 68c7 853e 2881 733e 40ad efbe f801 66be
00000150: 70ec 613e 9c63 183e 50ed 08bd acfc a2be
00000160: 9897 503e 924b 13bf d850 933e f8d1 ea3d
00000170: 7c4c 10bf 66c5 01be 2cee fe3e d446 d9bd
00000180: fa40 d5be 10a1 40bd c40f e83e ea0f 133f
00000190: c836 c1bd 3480 d93e a66c 043f 608b 00bd
000001a0: 00a2 e13c a220 41be f807 3f3e f0a4 1ebd
000001b0: c8a5 cc3e 90ae dc3d 4098 2abc d2fc 2bbe
000001c0: 22f3 d4be f499 ee3e 84ac a5bd 046f d7be
000001d0: e857 943e c0d9 f63e cae1 113f 976a adbe
000001e0: d07d 3a3d 92c6 14be 604b 9c3e 10be 6b3d
000001f0: a4de febd d2a3 2bbe 8d1a 01bf b86c 0f3f
00000200: c8c1 b83d 58d3 96bd 50e7 d03e dec0 c9be
00000210: e0c0 ef3e e3aa f1be 06f0 54be 1052 89be
00000220: de81 033f c01b 4d3e 2671 113f b4a5 093f
00000230: 2078 e43c 9035 f83e f838 ec3e f2af d2be
00000240: 001b 93bb 18fb eebd d48f e1bd f474 a73e
00000250: 4452 923e a005 cebc d426 b9bd 012e 13bf
00000260: 6be4 93be c0da eb3e 9c3e b3bd f06e de3e
00000270: fc88 df3e f6f7 0cbf bfbf 8fbe c83c 013f
00000280: 60d5 613d 7e6f c0be c8c0 c93d d47d c8bd
00000290: 6008 41bd 986d 823e 9c99 c8bd ea38 b4be
000002a0: 54fb 8b3e 1239 e4be 10a9 b5bd 97f8 c3be
000002b0: 5ea2 9fbe 8c9f 533e 008d 2ebe c437 e63e
000002c0: a8f9 ecbd 3c89 9f3e 6789 0abf 6a34 f3be
000002d0: 5e4d cebe b8b3 4ebe 82b6 0fbe 4e48 cabe
000002e0: d444 19be 3383 91be a042 033d f64e e5be
000002f0: 631d e9be 92c3 2cbe c0d1 03bc 10ae 913e
-0.2722459 -0.10624766 -0.15650564 -0.13220444 -0.5085894 -0.075193465 0.3102814 -0.10516971
0.4384594 -0.36322418 0.0036629438 -0.4735549 0.2951938 -0.50803906 0.44591022 -0.025377274
-0.23482102 0.06191379 0.0012603402 0.029345691 0.0894292 0.473341 -0.054743767 -0.077242434
0.4154728 -0.54745096 -0.30148274 0.39591783 0.4313817 0.25957686 -0.34729928 0.17715824
-0.04408276 0.16981202 -0.53637534 0.35046786 -0.017505348 -0.16017252 0.07049763 0.5033703
-0.37811926 0.065810084 -0.009438515 0.012208521 0.16229749 -0.27577132 -0.4730185 0.20765883
-0.28982782 0.13696295 0.5010568 0.5515264 0.30436224 -0.084745675 -0.3963108 0.17398429
-0.13739341 -0.08511451 -0.48040608 -0.11326629 -0.20614076 0.09976679 -0.35402942 0.12965238
0.30824304 -0.23351541 -0.029245377 0.19555831 -0.1008867 0.037146807 -0.3037259 -0.2776949
0.20993656 -0.42271304 -0.034579337 -0.5572904 0.12941384 0.046213746 -0.16558295 0.5624038
0.26128697 0.23779738 -0.46811867 -0.22461689 0.2206285 0.14881748 -0.033429444 -0.31833398
0.20370328 -0.57537186 0.28772616 0.114658296 -0.56366706 -0.12672958 0.49791086 -0.106092125
-0.41651136 -0.0470286 0.45324528 0.5744616 -0.09434277 0.42480624 0.51728284 -0.03138292
0.027543068 -0.18860105 0.18655384 -0.038731515 0.3997023 0.10775483 -0.010412276 -0.16795662
-0.41591746 0.46601832 -0.08089545 -0.42076886 0.28973317 0.48213005 0.5698515 -0.33870384
0.04553014 -0.14528874 0.30526257 0.057554305 -0.12444809 -0.16761711 -0.5043114 0.56025267
0.09021336 -0.07364529 0.40801477 -0.39404958 0.4682684 -0.4720069 -0.20794687 -0.2682042
0.51370037 0.20030117 0.56813276 0.5376847 0.027889311 0.48478365 0.46137214 -0.4114986
-0.0044893026 -0.11668986 -0.11013761 0.32706416 0.2857839 -0.025149167 -0.09040609 -0.5749207
-0.28885207 0.4606533 -0.08752176 0.43444014 0.43659198 -0.5506586 -0.28075978 0.5048337
0.05513513 -0.37585062 0.09851223 -0.09789625 -0.047127128 0.25474238 -0.09794924 -0.35199672
0.27340186 -0.4457479 -0.08870137 -0.38275596 -0.31178564 0.20666331 -0.17045975 0.4496442
-0.11571056 0.3115939 -0.5411591 -0.47500926 -0.402934 -0.20185745 -0.14034465 -0.3950829
-0.14967662 -0.2842041 0.03204596 -0.44786805 -0.45530233 -0.16871479 -0.008045614 0.28453112

cov1.bias f4 [64]
00000000: f060 4f3d 46be f4be bd4d aabe 604b a33c
00000010: 033f 13bf d4dd 333e 30ee ddbd 1e04 c1be
00000020: f811 643e 7026 56be 8cb4 393e 2c45 dc3e
00000030: 2cf3 96be ac21 ff3e 8002 25be ec49 883e
00000040: 205b e0bc e008 7ebd 307b c1be 7604 013f
00000050: 5ce7 d2be 1c7a 78be e4ab 083e dce6 6b3e
00000060: 5c87 a1be 7868 603e f884 d23e 20de 39be
00000070: 103b 48bd 14a1 583e e622 d23e f02c 77be
00000080: 06e1 cebe e87c e3be b881 713e 18e4 263e
00000090: d00a ecbd d0a2 9cbd 02a6 06be 7cc0 5cbe
000000a0: ae66 10bf 001a 8eba 90ca 35be eb41 e4be
000000b0: 0384 babe 24f4 46be 46af e4be f80c fd3d
000000c0: ba85 07bf 8660 803e ee8d 06bf 2ec4 b93e
000000d0: e0e4 da3e 78fb 3b3e 04e7 a9be 5159 0ebf
000000e0: 70b7 383e 3d88 e6be a030 a83c 00e7 b73e
000000f0: d85c 2b3e 4c00 d93e 6647 be3e c25e 093f
0.050629556 -0.47801417 -0.33262435 0.019933403 -0.57518023 0.1756509 -0.10836446 -0.37698454
0.2227248 -0.209131 0.1813528 0.43021524 -0.294824 0.49830377 -0.16114235 0.26618898
-0.027387202 -0.062020183 -0.37789297 0.5039743 -0.41192138 -0.24265331 0.13346821 0.23037285
-0.31548584 0.21914852 0.41117072 -0.1815114 -0.04888445 0.21155196 0.4104225 -0.24138236
-0.40406054 -0.44431233 0.2358464 0.16297948 -0.115255 -0.076482415 -0.13149264 -0.21557802
-0.56406677 -0.0010841489 -0.17753053 -0.4458154 -0.36428842 -0.1942907 -0.44664973 0.12355989
-0.52938426 0.25073642 -0.5256032 0.36282486 0.42752743 0.18357646 -0.33184063 -0.55605036
0.18038726 -0.45025817 0.020530999 0.35918427 0.16734636 0.4238304 0.37163848 0.53660214

cov2.weight f4 [128, 64, 3]
00000000: e450 8cbc e288 08bd 761e 8f3d 584b f33c
00000010: 54bf 9fbc 6d52 0cbd ee8d 1e3d 736f 41bd
00000020: 34a0 2bbc 1ee4 113d 5083 863c 2889 0f3c
00000030: 6456 67bd a4b0 7bbd 5046 d83b 9498 283d
00000040: a806 fcbc 1e3f 533d 527d 813d 00c0 04bb
00000050: 64a5 3dbc b4c7 2abd 8095 8aba 88a4 0bbc
00000060: 8097 f03a 007e beb9 debd 64bd 003d a0ba
00000070: bc1b 9f3c 100d 933c 927c 1fbd 2a88 283d
00000080: b6bb 8e3d 7a5b 97bc dc6e 8cbc 92b5 1bbd
00000090: e4d5 823c 6d5f 31bd aa36 dbbc a4b0 da3c
000000a0: 2201 c4bc e864 593c f8cf 84bd d8e5 6abc
000000b0: a4ab 48bd 00df dfba ecec d3bc f60c 8b3d
000000c0: 840e 5e3d 601e dd3c a8e5 853c d03b 563c
000000d0: 48a1 283c b426 ee3c 602f 69bd 349f c4bc
000000e0: 7c9f c43c 0971 17bd 14e0 67bd ea43 85bc
000000f0: 3008 643c 2c3b f43c 10d0 823d 50dd 993c
00000100: 84db 88bd d8df 95bc d631 1bbd d0b6 363d
00000110: d1c4 83bd 8cf1 313d e0fd f8bb 0004 3c39
00000120: 788f 48bd 5232 843d 8405 3a3d a466 8bbd
00000130: ac57 9abc b018 b93c 688a 703c e872 3c3d
00000140: f49b 8fbd 9c11 0dbd 00fd 52bc 9873 8e3d
00000150: 66a3 66bd f654 23bd 56b8 09bd be04 823d
00000160: ec82 a93c 8027 c5ba 9063 e9bc 1cd5 0fbd
00000170: 6cad 65bc 42eb 13bd 7a0f 7abd 7d6f 09bd
00000180: 48d1 6abc 6574 80bd 7e43 6bbd 2085 4d3d
00000190: e0f5 4c3b 2e85 4a3d 0028 42ba b2dd 353d
000001a0: a805 013d 2fc5 0ebd 004b dab9 782e 623d
000001b0: 909c fe3b 96cb 923d c449 3c3d c07c 903d
000001c0: ec17 c2bc f87c 10bc b3a4 19bd 1c90 5d3d
000001d0: 154c 53bd 4694 9cbc ec4f 4ebc 4069 313d
000001e0: 70cc b3bb 38dc 25bc 8494 c53c 6884 c83c
000001f0: e04c 6a3b 44a7 30bd 40fb e0ba 885d 683c
00000200: 8065 eebb 0000 72b7 2651 0c3d d828 5ebd
00000210: f824 3f3d ed70 0dbd 720f 8dbd 6297 833d
00000220: 20b1 5e3c 130b 80bd c08c ed3b 28e6 8dbc
00000230: a4a5 7bbc 2b4e 4abd acad 93bd 1a57 51bd
00000240: 40e1 1dbb bc55 7a3d 70d4 f4bc 5e3a 403d
00000250: 3013 a2bc f5ee 89bd d500 28bd 907d e13b
00000260: c8f9 593c f04a f13b 3897 7abd 9cd7 8e3d
00000270: 6890 c3bc f0d1 47bd 3cec 8b3c 2081 8d3c
00000280: a4c7 ffbc 8099 51bb 8cc2 c4bc a82f 8b3d
00000290: 2c91 13bd 50f0 533c d6a6 95bc 20e5 343b
000002a0: c034 8bbd 0b3c 62bd a608 923d a061 543d
000002b0: 1c53 e73c 5eeb 14bd 5852 483c ee48 03bd
000002c0: d60b 3dbd 4723 5dbd c0bf 1f3b 382c 01bc
000002d0: 00b1 383a 06d0 913d e020 783c 8041 62bd
000002e0: 8c6f 5abd 00c2 f3bc 40bc c33c 0426 3cbc
000002f0: 8c0e 8b3d 53c4 09bd 800e 4d3c b4b5 59bd
00000300: 80cb 333d a98d 93bd dcb4 e93c bc35 b43c
00000310: 0cd4 563d 0094 d7b9 4869 74bd 1e3d efbc
00000320: 49b4 8fbd 8ae1 273d b065 a03c 2cb2 b3bc
00000330: 08fa 753d 2eb7 8e3d 50fd 7d3d b46e 7e3d
00000340: e8c6 753c ac3b 9b3c 3c8c 613d a04f 2e3d
00000350: 3e95 6dbd e612 523d 1a69 353d cc03 903c
00000360: 104f 1abd b856 303c 3039 1d3c 7036 1e3d
00000370: 6410 4e3d 1c07 56bc d00c 293d 00e5 0b3b
00000380: b293 1c3d 509e 1cbd c40b c43c 8cfd 30bd
00000390: 1046 b1bb 06ec 2d3d 14c6 703d 00ff da3a
000003a0: 20bd e6bb 6efd 8fbc 3800 aa3c 80bf 153d
000003b0: 4cc6 8cbc c0b5 213c 207c 0ebc 5418 edbc
000003c0: 38e3 23bc 085f d0bc a8c0 843c 6052 283d
000003d0: 70af 2ebd 86ad 4abd daba 3bbd 203f e1bc
000003e0: 24d7 543d 5e6c 873d d034 9ebb fe09 213d
000003f0: b85b 363c b08f ea3c c46c a43c 7c4a 85bc
-0.017128415 -0.033333667 0.06988232 0.029699013 -0.019500412 -0.034258295 0.038709573 -0.047225427
-0.010475207 0.03561794 0.016420037 0.008760728 -0.056478873 -0.061447755 0.006600179 0.041161135
-0.030764893 0.051573865 0.06322731 -0.0020256042 -0.011575077 -0.041694358 -0.0010573119 -0.008523114
0.0018355697 -0.000363335 -0.055845134 -0.0012225211 0.019422404 0.017950565 -0.03893716 0.04114548
0.06969397 -0.018476237 -0.017142706 -0.038014956 0.015971132 -0.043303896 -0.026759464 0.026695557
-0.023926321 0.013268687 -0.064849794 -0.014337026 -0.048991814 -0.0017080009 -0.02586981 0.067895815
0.054213062 0.026992023 0.01634486 0.013075784 0.010292359 0.02907119 -0.056929946 -0.024001695
0.02400183 -0.036973033 -0.056610182 -0.016267736 0.013917968 0.029813372 0.06387341 0.018782288
-0.06682494 -0.018295214 -0.037889324 0.044607937 -0.06434024 0.043443248 -0.0075986236 0.00017930567
-0.048964947 0.0645491 0.045415416 -0.068066865 -0.018840633 0.02259478 0.014681436 0.04600802
-0.070121676 -0.03444062 -0.012877703 0.069556415 -0.056308173 -0.039875947 -0.033623062 0.06348561
0.020692311 -0.0015041679 -0.028489858 -0.035115346 -0.014018398 -0.03611303 -0.061049916 -0.03355359
-0.014332123 -0.062722005 -0.057437412 0.050175786 0.0031274483 0.049443416 -0.0007406473 0.04440088
0.031499535 -0.034856018 -0.0004163608 0.055220097 0.0077701285 0.07167737 0.045968786 0.07055044
-0.023693047 -0.008818857 -0.037510585 0.05409251 -0.05158623 -0.019113671 -0.012592297 0.043313265
-0.0054870173 -0.010123305 0.02411867 0.024477199 0.0035751387 -0.043128267 -0.0017164722 0.014182456
-0.0072752833 -1.4424324e-05 0.034257077 -0.05423817 0.046666116 -0.034531523 -0.068877116 0.06425358
0.013592035 -0.06252112 0.0072494447 -0.017321661 -0.015359316 -0.049390953 -0.0721086 -0.051108457
-0.0024090558 0.06111692 -0.029886454 0.046930663 -0.01978454 -0.067350306 -0.04101642 0.0068814233
0.013304181 0.0073636696 -0.06117937 0.06974718 -0.02387257 -0.048784196 0.017080419 0.017273486
-0.031223126 -0.0031982362 -0.024018548 0.06796199 -0.03602712 0.012935713 -0.01826803 0.002760239
-0.06797171 -0.055233043 0.07130556 0.051850915 0.028237872 -0.036357276 0.0122266635 -0.032051973
-0.046153866 -0.05398872 0.0024375767 -0.007884078 0.0007045418 0.071197554 0.015144557 -0.055238247
-0.053329036 -0.029755592 0.023893476 -0.011483673 0.06789884 -0.033634495 0.012515664 -0.0531518
0.043895245 -0.07204754 0.028528623 0.021998279 0.052448317 -0.00041118264 -0.059670717 -0.029203948
-0.070168085 0.040986575 0.019579738 -0.021935545 0.0600529 0.069685325 0.062009156 0.062117293
0.015001036 0.018949352 0.05506538 0.042556405 -0.058003657 0.051287554 0.044289686 0.017579935
-0.037673056 0.010762863 0.009596154 0.038626134 0.0503086 -0.013063218 0.041271985 0.0021346211
0.03822679 -0.038236916 0.023931392 -0.04321055 -0.0054099634 0.042461418 0.058782652 0.0016708076
-0.0070415884 -0.0175769 0.020752057 0.03655958 -0.017184399 0.009869993 -0.008696586 -0.028942265
-0.010002904 -0.02543594 0.016205147 0.041094184 -0.04264778 -0.04948189 -0.045832492 -0.02749592
0.051962987 0.06612466 -0.004828073 0.03931617 0.011130266 0.028632969 0.020071395 -0.016270868

cov2.bias f4 [128]
00000000: 5495 93bc c80f 69bd e441 1abd 4470 54bc
00000010: 326d b6bc 04d9 723d 3ee9 443d 4a44 80bd
00000020: b09e 5b3c ecbc ed3c 14f1 7f3d 9490 3a3d
00000030: 2601 abbc 78a5 03bd 3ca0 c9bc 54fa ba3c
00000040: c421 803c c787 66bd c862 243d 3c70 dbbc
00000050: 1b2b 67bd 58f7 36bd 9a6b 213d b07b 4c3c
00000060: b0a0 0e3d c4e9 88bd 4401 583d 6ce9 833c
00000070: 109e ad3c 84e2 663d 007e 61bc e013 4f3d
00000080: f8bc 403d 8859 293c 70c5 553d f4ac e43c
00000090: 4031 553b 1cfa 243d d698 9abc 0a01 833d
000000a0: 0799 82bd 2470 883c 5afe 863d 44fc 4abd
000000b0: b007 fcbc 089a 533d 528e 12bd 5fbc 8cbd
000000c0: 9cec 7ebc 62cc 573d 372b 1fbd 4617 0d3d
000000d0: e091 333b 92a2 89bc 805a 1a3d 928a 563d
000000e0: d4ac 623d 48bb 743c 48cb 793d 649b 7d3d
000000f0: 088c 753d 701a 813d a46c 30bd bfd8 86bd
00000100: 12aa 863d c0f6 3f3b baab 9dbc 3c71 1f3d
00000110: 1c66 ee3c 04d2 403d 708c 8cbb 3052 aa3b
00000120: e277 f6bc 5d16 6fbd 1000 09bd 591b 37bd
00000130: 4055 6b3d a0c8 0bbb f49a 22bd 2852 bcbc
00000140: 2718 91bd 0ca2 5d3d 2cc3 55bd 1a41 853d
00000150: d4e5 713d 9375 00bd 248b 923d 2f45 4cbd
00000160: c536 42bd 0ae2 49bd a66e 8fbd aaee febc
00000170: b27e 29bd baad b1bc b874 50bd d064 c5bc
00000180: 40c4 783c 7e09 e6bc 925b 533d e155 8dbd
00000190: c85f 1c3c dea8 89bd 5204 863d c01f 7b3b
000001a0: 08b9 a5bc 5806 e33c 60fb a33b 5012 afbb
000001b0: e8da 0b3d 5039 d8bb c436 3bbd 46ee 63bd
000001c0: 5479 91bc b857 483c a04e 90bc bdc7 92bd
000001d0: f4e2 4dbd 8825 0bbc 08b5 abbc 80e5 73ba
000001e0: 904a 633d d046 213d 18f2 613c bc48 a83c
000001f0: 68f9 d43c 606a 483b b68e 913d a29c 813d
-0.018015541 -0.056899816 -0.037660494 -0.012966219 -0.022268865 0.059288993 0.048074 -0.06263025
0.013404533 0.029020749 0.06248577 0.045548037 -0.020874571 -0.032140225 -0.024612539 0.022824444
0.0156411 -0.05628183 0.040133268 -0.026786916 -0.056437593 -0.04466948 0.039409257 0.012480661
0.034821212 -0.06685212 0.052735582 0.016102515 0.021193534 0.056368366 -0.013762951 0.050556064
0.047055215 0.010336287 0.052190244 0.027914502 0.0032530576 0.040277585 -0.018871706 0.063966826
-0.06376844 0.016655035 0.065914825 -0.049556985 -0.030765384 0.051660568 -0.03578026 -0.068718664
-0.015559342 0.05268515 -0.038859572 0.034446023 0.002740018 -0.016801152 0.037683964 0.052378245
0.055340603 0.014937229 0.06098488 0.06191577 0.059947997 0.06303871 -0.043072358 -0.0658431
0.06575407 0.0029291362 -0.019246925 0.038926348 0.029101424 0.047075287 -0.0042892024 0.005197786
-0.030086461 -0.058370937 -0.033447325 -0.044703815 0.057454348 -0.0021329299 -0.039698556 -0.022988394
-0.07084685 0.054109618 -0.052188084 0.06506558 0.05905707 -0.031362128 0.07155445 -0.049870666
-0.047415514 -0.049287833 -0.070035264 -0.031119663 -0.04138059 -0.021689285 -0.05089256 -0.024095923
0.015183508 -0.028080698 0.051601 -0.06901146 0.00954432 -0.06721662 0.06543793 0.0038318485
-0.020229831 0.027712986 0.0050043315 -0.005342759 0.034144312 -0.006598629 -0.045706525 -0.055647157
-0.01775805 0.012227945 -0.017615616 -0.07167003 -0.050265267 -0.008492835 -0.020960346 -0.00093039125
0.05549103 0.039374173 0.01379063 0.020542495 0.025997832 0.0030580983 0.07107298 0.063287035

fc1.weight f4 [320, 515]
00000000: c4a8 24bc c658 b03c 983f 5b3c 3a47 e43c
00000010: 720c b83c aa26 23bd cc3a 493c 08fd c83b
00000020: 8094 4e3b 736a d9bc 3075 523b 84f8 463c
00000030: 81fe 1b3d e607 02bd 3489 903c 0a1a ca3c
00000040: e087 f0bc 92df 21bd 30d8 0abc 8772 2c3d
00000050: b098 6f3c 33af 81bc 6989 213d 30ee 04bd
00000060: 1003 32bd d265 893c 0028 04bb 60ae 6cbb
00000070: 80aa 083c 1460 273c d7ac a4bc a0f7 523b
00000080: 1265 a63c dc09 47bc 0885 023c 90f8 62bc
00000090: 5a84 dd3c 00ea d0b8 e799 283d 005e 8738
000000a0: 020a f6bc 6360 9cbc 4a85 11bd 6622 923c
000000b0: aa80 1dbd 38cf 603c 5f00 d6bc a839 533c
000000c0: 4000 bbbc c4e5 3c3c 20a3 0dbc 0cc4 aabc
000000d0: 27bf 00bd d787 263d a0b4 32bc 8c74 1dbc
000000e0: 2a68 f43c 8881 de3b ecaf 963c 400d 47bb
000000f0: 6146 bbbc e731 0b3d 7bd1 313d 02d5 09bd
00000100: c92b 9cbc 2afb 2ebd e4b3 003c 604a 1d3b
00000110: 5baa e8bc 280a 9f3b d2b9 78bc ba0c 9b3c
00000120: a895 3b3c 7068 6e3c ad16 1e3d bbd2 1ebd
00000130: 1465 5b3c 2ed3 e53c 813f 28bd 1717 d1bc
00000140: def6 e93c b893 a1bb dcdc 4ebc 3cad 563c
00000150: c737 0a3d f3fe 2f3d 9539 063d b40c f6bc
00000160: 7fea dbbc 7b00 1f3d a3f4 033d 1004 48bc
00000170: 8096 853c 3439 27bc 1012 3c3b a410 4cbc
00000180: 96f3 a53c cbe3 2fbd f0e0 483b 90a3 89bb
00000190: 4f68 12bd 95de cebc 001b 05b9 58a5 bb3b
000001a0: 1a78 b63c a0ba 46bc a5c8 9dbc d4bd 70bc
000001b0: ccc6 033c 00f4 93bb 9caa 37bc 40ac 32bc
000001c0: d91a 283d a820 313c 0813 30bd 2466 21bd
000001d0: 3e32 813c 23fb 283d e8dc cf3b e6f1 de3c
000001e0: f4d6 d7bc de09 b73c f06a 1e3c 00ad 6f3c
000001f0: 10a7 abbb ae28 0abd 25ea c0bc 8fd5 033d
00000200: a0d4 6dbb 9e1d bb3c 2aa9 fd3c 06e0 0dbd
00000210: e603 cf3c 0b75 2abd ac43 563c 3a08 11bd
00000220: a171 0f3d 56d6 bb3c e25b e43c 904a 0dbd
00000230: ebbd d2bc 6bda 19bd 68de d4bb 6e59 e8bc
00000240: e801 1cbc e860 d2bb e7bc 273d f07d 133c
00000250: 98fa 033c 1dda b1bc 9bab debc 1649 debc
00000260: 4e6a d83c d314 adbc 0c4d 603c 70a1 093c
00000270: 7209 993c f7f4 213d e19d e2bc 83d8 2c3d
00000280: a668 7abc 02a7 ed3c 8d0c b8bc 86e1 ef3c
00000290: a06e fb3b a809 aa3b 9d22 b2bc 8cab 183c
000002a0: 1d94 0bbd 5771 91bc 26e3 873c c096 76ba
000002b0: 44b9 85bc b90b 1f3d 40ed cb3b 72d0 b13c
000002c0: 9e08 e13c 5630 24bd 082d 293c a693 f0bc
000002d0: 9474 08bd e043 9dbb 5f86 fdbc 6fb6 203d
000002e0: 005c 10ba b275 13bd 586c fabb a271 9d3c
000002f0: f301 2b3d f046 53bc c2dc d4bc e89d ed3b
00000300: 1611 30bd f598 063d 389a 963c 26a2 d1bc
00000310: 0a07 93bc 8c03 28bc e286 d13c 7e9f 28bd
00000320: 6091 003c c405 3e3c 20f5 dcbb e291 cd3c
00000330: 7279 8abc 03a5 c9bc 376c a9bc ed6a 053d
00000340: a25f a43c fed1 c43c 55a1 d1bc 4014 60ba
00000350: 2d29 e1bc b69c 11bd 6a99 c43c b93c 24bd
00000360: 2bcc 1abd c09a 6abb 912d 9abc 7260 64bc
00000370: 6e9c ac3c de04 25bd 671a 31bd ae91 d23c
00000380: 4e37 66bc 6142 043d b57d 093d f280 09bd
00000390: d9e3 0cbd 8195 0f3d 0044 673c b000 603b
000003a0: 201b 64bb 03fa 03bd 50dc 6abb 2268 d63c
000003b0: a50d 01bd 8884 5e3c 18da f4bb 30b8 133c
000003c0: d8cf 473c 7bb8 2c3d bf08 233d 76e6 08bd
000003d0: c4fe 05bd 2eb7 8fbc 9d98 253d d6dd 55bc
000003e0: aaaa d33c 557f 99bc 323c da3c 20ff 2d3c
000003f0: 007d 2dbd a6f2 f03c 8f2e 043d f5fa 9cbc
-0.0100500025 0.021526705 0.013381861 0.027865995 0.022466872 -0.039831795 0.012282085 0.0061336793
0.0031521618 -0.026540017 0.0032113306 0.012144212 0.03808451 -0.031745814 0.017643549 0.02467062
-0.029361665 -0.039519854 -0.008474395 0.04210141 0.014623806 -0.015830612 0.039437685 -0.032453716
-0.043459952 0.016772185 -0.0020165443 -0.0036114678 0.008341432 0.010215778 -0.020101948 0.0032191053
0.020311866 -0.012148347 0.007966287 -0.013853207 0.02704065 -9.961799e-05 0.041162398 6.4548105e-05
-0.030034069 -0.01908893 -0.035527505 0.017838668 -0.03845278 0.01372128 -0.026123224 0.012892164
-0.022827268 0.01152939 -0.008644849 -0.020845436 -0.031432297 0.04065689 -0.010907322 -0.0096103065
0.029834826 0.0067903437 0.018394433 -0.0030372888 -0.022860708 0.033983137 0.043412667 -0.033650406
-0.019063847 -0.042719997 0.007855389 0.002400063 -0.028401544 0.0048535056 -0.015181022 0.018926967
0.011449255 0.014551267 0.038595844 -0.038775187 0.013390798 0.0280548 -0.041076187 -0.025523705
0.028560098 -0.0049309395 -0.012625899 0.013102826 0.0337446 0.042967748 0.03276976 -0.030035354
-0.026845215 0.038818818 0.032215726 -0.012208 0.016307116 -0.010206509 0.002869729 -0.012455139
0.020257752 -0.04294185 0.0030651651 -0.0042004064 -0.035744008 -0.02525262 -0.00012693927 0.0057264976
0.022274066 -0.012129456 -0.019260714 -0.014693696 0.008043002 -0.004515171 -0.01121011 -0.010905325
0.04104123 0.0108110085 -0.0429869 -0.03940405 0.015771028 0.041255128 0.0063434727 0.027214956
-0.026347615 0.022343572 0.009669051 0.014628649 -0.0052384213 -0.0337302 -0.023549149 0.032186087
-0.0036290064 0.022841271 0.030964453 -0.034637474 0.025270414 -0.041615527 0.013077658 -0.035408236
0.035020474 0.022929352 0.027875844 -0.034494936 -0.025725326 -0.037561815 -0.0064962395 -0.028362956
-0.009521939 -0.0064202435 0.040951636 0.009002194 0.008055352 -0.02171045 -0.027181437 -0.02713446
0.026417878 -0.021128094 0.013690244 0.008400306 0.018681262 0.039540257 -0.027663173 0.04219867
-0.015283739 0.0290103 -0.022466922 0.029282343 0.0076730996 0.0051891394 -0.02174502 0.009318244
-0.0340768 -0.01775424 0.016587805 -0.0009406619 -0.016323693 0.03882954 0.0062233508 0.02170584
0.02746993 -0.04008516 0.010325678 -0.02936728 -0.033314303 -0.004799351 -0.030947862 0.039236482
-0.0005506873 -0.036000915 -0.00764231 0.019219223 0.041749906 -0.012895331 -0.025984172 0.00725149
-0.042985044 0.032860715 0.018384084 -0.025590014 -0.017947692 -0.010254752 0.025577012 -0.04116773
0.00784716 0.011598054 -0.0067430884 0.025093976 -0.016903613 -0.024614817 -0.020681484 0.032572675
0.020065133 0.024025913 -0.025589624 -0.00085479394 -0.027485454 -0.03554984 0.023998935 -0.040096972
-0.037792366 -0.0035797805 -0.018820556 -0.01393901 0.021070685 -0.040287845 -0.04323807 0.025704231
-0.014051272 0.032289866 0.03356715 -0.033570237 -0.03439698 0.035054687 0.014115334 0.0034180097
-0.0034806207 -0.03222085 -0.0035836883 0.026172701 -0.031507153 0.013581403 -0.007472288 0.009016082
0.01219555 0.04216812 0.039803263 -0.03342291 -0.032713667 -0.017543402 0.040428746 -0.013053378
0.025838215 -0.018737474 0.026640031 0.010619909 -0.042355537 0.029412579 0.032270964 -0.019162634

fc1.bias f4 [320]
00000000: d80c 923b d69c 25bd de29 ac3c 002c 7239
00000010: 21f0 013d 60f0 ea3b c57c 313d f96a 063d
00000020: a0b8 a5bc a8c6 733c 140b 073c 5142 27bd
00000030: f83e 41bc 76b5 0ebd 9ef2 bc3c b49a 93bc
00000040: d47c 27bc f883 2ebd 0871 4dbc 8041 2bbc
00000050: 2876 893b cac4 1ebd 3c95 babc 92c1 da3c
00000060: ba0f 9a3c 4cea 0fbd 386d 7ebc 8cb0 433c
00000070: 48bb adbb 69ae 0b3d c849 dfbb 66ae fb3c
00000080: e46e 1c3c 36a4 d0bc b477 06bc b5ef a1bc
00000090: 00f9 9539 52a3 ab3c 3f48 dfbc 2bcd 223d
000000a0: ba4f 9c3c 80f7 caba 276d 103d 1298 96bc
000000b0: 4729 04bd db02 143d 4b5b 0a3d d08c 7e3c
000000c0: de86 ab3c 0052 edbc 92a9 fa3c b027 5bbb
000000d0: 1c99 603c 25a1 113d 7da1 9bbc f81a 06bd
000000e0: 460e d2bc b06b 23bc d8fc 703c aeda e03c
000000f0: c8d1 cbbb 2adf bf3c 7c05 93bc 2584 193d
00000100: e17b 2d3d 10ea aabc 2b2d 263d 44b7 4f3c
00000110: 8048 9bba 0e86 c43c 6b23 13bd 99e5 24bd
00000120: acc2 3ebc 6ad8 9d3c c8b6 523c 205a cb3b
00000130: 6e5e 0fbd 84cc 46bc 5354 2cbd 0820 123c
00000140: 2585 aabc 718f 25bd 407d 4abb 0cb1 743c
00000150: d8f9 63bc e6ec 06bd 12e2 c7bc aab9 993c
00000160: 2a6a 04bd 807b 0c3a 0126 f0bc 16b4 973c
00000170: 2587 0a3d b5bc 273d 9d8d 15bd 68da 0cbd
00000180: 66f5 9ebc d3ba 333d 34bd 4f3c d471 00bd
00000190: 3555 173d ed8d c4bc 7186 27bd e061 12bb
000001a0: 512e 8ebc e0a7 483c 6928 a5bc 2cc1 16bc
000001b0: 380c 15bc f0fd 663b 7377 c9bc 151a 8dbc
000001c0: b0b0 ecbb eadf 68bc 0028 3fba 00a0 7e39
000001d0: 2e53 eb3c b4ed 6c3c 4475 afbc dcee 043c
000001e0: c098 8cbc 48d5 5f3c 2689 debc 02a9 e73c
000001f0: 4e30 dd3c 16fa 833c 007a ee39 9c14 293c
00000200: cc2b 12bc 7657 adbc 0f04 89bc e602 1abd
00000210: 203d b23b eced 1bbc f481 acbc ca92 5dbc
00000220: c354 0e3d 4076 8bbb 487e 433c 94f9 463c
00000230: 80d4 63ba ee46 f1bc 682c 4d3c c273 be3c
00000240: 36f2 a8bc a197 043d 5a9f 8b3c 30da d2bb
00000250: b3de a4bc 2c30 56bc 02d9 e53c 423c b03c
00000260: 7125 1e3d 0348 23bd e5c9 bebc 56c8 86bc
00000270: 4762 adbc c66b e8bc b408 143c 1b62 2f3d
00000280: 40dd 2abd 858c 223d d85e 7c3c 90a9 2ebb
00000290: 9ec3 b33c 4a1e 9e3c 0641 06bd 5f84 133d
000002a0: 06ae a43c 00a0 7a3c 0634 debc d88f 2cbc
000002b0: 0004 e4b9 fcae 37bc 21d1 0bbd 2caf 233c
000002c0: c031 3abc 315f 293d 8d55 213d c851 1fbd
000002d0: f50f 0fbd 4048 4e3b cdf6 2c3d 59f8 063d
000002e0: 7f1d c7bc 8a9c e1bc 30aa 14bd 4091 9d3b
000002f0: 8036 98b9 1d4a 24bd ec06 92bc b070 8a3c
00000300: 7b7d 23bd 2012 b13b d0c8 4c3b 0bbc 1b3d
00000310: 364a d83c 2274 db3c 7c67 2bbc acf2 48bc
00000320: fcd9 1d3c 6814 98bb 00cf 36bb 4486 44bc
00000330: 40ad 0dbd a6b6 fcbc 7a7f ad3c 1fc3 1d3d
00000340: 7ebb c63c 6c12 2bbd f0c5 68bc 543c 553c
00000350: 30e5 2fbc 606f b1ba 4086 5bba 3b5b 1bbd
00000360: 5a7f d33c 16f6 76bc c034 43ba f857 413c
00000370: cbe2 2a3d a0c3 4fbc 7d7e 04bd 7507 d1bc
00000380: ff07 9bbc 5068 ebbb 4306 0bbd b05f 573c
00000390: 2852 88bb daff 1cbd b416 7bbc 9dcc 29bd
000003a0: 34e7 5c3c ddf2 283d 101b acbb 1825 e5bb
000003b0: 1247 b53c e09e 87ba 0a9a 983c 4057 f63b
000003c0: f9ab 293d 6096 9cba b64a 80bc 5e43 e83c
000003d0: 72cb ef3c c403 16bc 10c0 113c bc79 1dbd
000003e0: ba26 c93c a7c3 013d 33d1 d5bc 04cd d0bc
000003f0: 0021 d6bb 80aa d8bb 03a6 2e3d 4cd1 29bc
0.0044570975 -0.040432774 0.021016058 0.0002309531 0.031723145 0.007169768 0.04333188 0.03281686
-0.020229638 0.014878906 0.008242387 -0.04083473 -0.011794798 -0.034841023 0.023064908 -0.018018104
-0.010222632 -0.042606324 -0.012539156 -0.010452628 0.0041949935 -0.03876189 -0.022776239 0.02670363
0.018806327 -0.035135552 -0.0155289695 0.0119439475 -0.0053018667 0.034101877 -0.0068142153 0.030722808
0.009547923 -0.025468927 -0.00820725 -0.019767622 0.00028605014 0.0209519 -0.02725613 0.039746445
0.019080985 -0.0015485138 0.035260346 -0.01838306 -0.032265928 0.036135536 0.03377847 0.015536502
0.020938333 -0.028969765 0.030598436 -0.0033440404 0.013708379 0.03555407 -0.018997902 -0.032740563
-0.025641572 -0.009974405 0.01470872 0.027448025 -0.0062200762 0.023421843 -0.017946951 0.03747954
0.04235447 -0.020863563 0.04057042 0.012677971 -0.0011847168 0.023989704 -0.03592245 -0.040258024
-0.011643093 0.019268233 0.012860961 0.006205812 -0.035002165 -0.012133721 -0.042072605 0.00891877
-0.020815441 -0.04042 -0.0030897409 0.014934789 -0.013914548 -0.032940768 -0.02439979 0.01876529
-0.03232781 0.0005358979 -0.029314997 0.018518489 0.03382029 0.04095145 -0.036512006 -0.034387976
-0.019404124 0.04387934 0.012679387 -0.031358555 0.036946494 -0.023993457 -0.040899698 -0.002233617
-0.01735607 0.012247056 -0.02016087 -0.009201329 -0.009097151 0.0035246573 -0.02459309 -0.017224351
-0.007223211 -0.0142135415 -0.0007292032 0.00024282932 0.028726187 0.01446097 -0.021418221 0.008113589
-0.01716268 0.01366169 -0.027165007 0.028278831 0.027000573 0.016110461 0.00045485795 0.010319855
-0.008921575 -0.021159869 -0.016725568 -0.03760042 0.0054394156 -0.009517174 -0.02105806 -0.013523767
0.034748804 -0.00425604 0.011931963 0.012144465 -0.0008691028 -0.029452767 0.012522794 0.023248557
-0.020623308 0.032371167 0.017043758 -0.0064347014 -0.020125723 -0.0130730085 0.028057579 0.021513108
0.038609926 -0.039863598 -0.02328963 -0.01645295 -0.021165026 -0.028371703 0.009035278 0.04281817
-0.041714907 0.03968479 0.015403472 -0.002665136 0.021943863 0.019301552 -0.032776855 0.03601491
0.020102512 0.015296936 -0.027124416 -0.010532342 -0.0004349053 -0.011211153 -0.034134988 0.009990495
-0.0113644 0.041350547 0.03938823 -0.038896352 -0.034927327 0.003147617 0.042227555 0.032951687
-0.024306057 -0.027540464 -0.036295116 0.004808575 -0.00029032305 -0.040109742 -0.017825566 0.016899437
-0.03991459 0.005403772 0.0031247623 0.03802113 0.026402574 0.026788775 -0.010461684 -0.012264889
0.009634491 -0.0046411045 -0.0027894378 -0.011994902 -0.034589052 -0.030848812 0.02117895 0.03851616
0.024259325 -0.041765615 -0.014207348 0.013014872 -0.010735795 -0.0013537221 -0.0008374192 -0.0379288
0.025817562 -0.01507332 -0.000744652 0.011800759 0.041720193 -0.012680918 -0.03234719 -0.025516251
-0.018924711 -0.007184066 -0.03394152 0.013145372 -0.0041601844 -0.038329937 -0.015325237 -0.0414549
0.0134828575 0.041247237 -0.0052522495 -0.0069929473 0.022128616 -0.0010347031 0.018628139 0.007517725
0.04142377 -0.0011946671 -0.015660625 0.028352436 0.029271815 -0.009156171 0.008895889 -0.038446173
0.0245546 0.03168073 -0.02610073 -0.025488384 -0.0065346956 -0.006612122 0.04263879 -0.010364842

fc2.weight f4 [64, 320]
00000000: da08 d0bc c408 52bc c04d e6ba 031e 37bd
00000010: 74e7 5b3d 8c85 39bc e869 9fbc a4cd 433d
00000020: 825f 263d 2edb 84bc c1c4 3bbd 7474 b83c
00000030: 4040 f5bb a841 373d 94c3 6abc 4026 3b3c
00000040: 0057 0db9 1432 8b3c 172f 20bd 4c18 b23c
00000050: 4437 b63c 8812 a2bc 0a58 193d 9671 2e3d
00000060: ecbc 4f3d 3c53 193d 8823 423c 4c48 edbc
00000070: a001 99bc 687f f7bc a064 1abb 9420 f33c
00000080: f022 af3c 3e40 37bd 382d 233d e074 ddbb
00000090: 9ed9 36bd 2e05 e9bc d08f 843b 9c4b 39bd
000000a0: 28a4 7e3c 1ed7 323d dc8f 843c c673 0abd
000000b0: ac3e f43c d6fc 393d f051 c7bc 6088 df3b
000000c0: 16ab fcbc cc56 57bd dcb6 d43c d618 91bc
000000d0: 8941 32bd b6c7 06bd 1e02 0d3d 1a28 43bd
000000e0: ece3 003d 8c61 a1bc f080 5b3b 926c 80bc
000000f0: c812 083c 703a 3c3d d010 483b 98fa c83c
00000100: 4870 eabb f2a1 0bbd 7a3b 39bd fa45 99bc
00000110: 409c 323d 16a3 273d 2072 3fbb 8c8d 083d
00000120: 9af9 92bc 181a 033c 8af5 8ebc 309d f33c
00000130: a07a 0dbc 3883 733c 575d ecbc 240f 2a3d
00000140: 0860 9ebc a84a e13c d0de 283c a011 5f3c
00000150: 0b5d 1dbd 4c46 cb3c 68c9 9ebc 533f cfbc
00000160: 49b6 26bd ac78 df3c 4e0f 513d 44f3 3cbc
00000170: 76bc 0b3d a09d 4abc b043 083d 2ae9 81bc
00000180: 7c51 ba3c 9124 61bd 26d0 5a3d ec50 d9bc
00000190: be2f 9cbc fac3 1c3d ee9d 433d 8435 413d
000001a0: 6016 a83c ef4d 56bd ee90 583d 9079 0ebc
000001b0: 394f 0fbd f456 eb3c b8f4 6b3c 9700 29bd
000001c0: e03c 61bd ea11 8abc 582b e53c 98d2 233c
000001d0: 940c 0a3d 24ba d23c 1234 4b3d 78d8 cc3c
000001e0: afd7 4fbd 94d3 2abd f82c 403d eeda f8bc
000001f0: 3c09 bc3c c1ca 14bd 7460 f1bc b8bc 8dbb
00000200: 363e 1b3d 30e4 81bb 1480 2abc 10d0 153d
00000210: c02b 69bb cc38 e23c d074 5cbd e04f b63b
00000220: 084e da3c 608b dbba 640f 15bc 5e47 1a3d
00000230: beee 15bd 7440 bc3c d4f1 08bc f65e 543d
00000240: 5143 ccbc 30b5 3ebb b865 393c 7a78 2e3d
00000250: c687 363d 1dc9 47bd f6da 0c3d ae82 103d
00000260: c1f2 28bd ace2 f13c 00f3 2039 2bb5 61bd
00000270: 9093 ce3c 90d4 053d 94e0 f1bc c6ea bebc
00000280: 14de f53c 0011 9739 a47a fc3c 8010 f2bb
00000290: c21f 163d 0013 9dbc 0886 87bc e894 80bc
000002a0: 801f 27ba bcc7 1cbd 6001 1f3b b095 fc3c
000002b0: d66e 373d 74e9 47bc e0c9 f1bb 08f1 093c
000002c0: e9f7 2fbd baec 64bd d01d 3b3d 77fd 09bd
000002d0: ac3c 27bd 80f7 7bba 20e0 82bb 3813 a93b
000002e0: 5ad0 4a3d c006 c63a 5025 43bb cabc ccbc
000002f0: 960d c9bc 1e84 363d 1e7f acbc 8e0c 433d
00000300: b671 1dbd 1edc 99bc 902b 3f3d 7e1d 023d
00000310: 1032 3bbb 1a21 9bbc 6489 b93c 8c95 443d
00000320: d80c 32bc aa86 03bd 38e9 14bd ceb0 a7bc
00000330: f64b 613d 20f9 e9ba f88f cb3c 5af1 bdbc
00000340: 1844 0ebc bbb0 3abd a8f3 513d 6815 d2bb
00000350: 10c7 903c 4830 0b3c 3035 983c b4f8 603d
00000360: 725a 633d 8e0b 58bd 5851 dcbb 5e0b 30bd
00000370: 705b d0bb 6407 a8bc 42e6 b6bc 1c68 e9bc
00000380: d8c3 e93c 521d 24bd ccb2 593d 705f c73b
00000390: 845d a2bc de5f 353d d4dd 69bc 5c89 ec3c
000003a0: 2c9a 06bc 209c 5dbc a619 09bd 10b2 f6bc
000003b0: a0d2 6a3c ac0e f13c 1035 ad3b ec4c 84bc
000003c0: c0fc e03b 074b f8bc cc77 3abc 381e 823c
000003d0: 4047 47bc fcae ad3c d0a6 e1bb 158f 21bd
000003e0: 50ea 163b 94f9 27bc 3878 963c f48e 553d
000003f0: 1a36 38bd d68b 503d 6835 06bc 40ad 0cba
-0.025394846 -0.012819473 -0.0017570779 -0.044706356 0.053687528 -0.011323344 -0.01945968 0.047803536
0.040618427 -0.016217794 -0.045841936 0.022516467 -0.007484466 0.04474035 -0.014328856 0.011422694
-0.00013479218 0.016991653 -0.03910741 0.021740101 0.02224315 -0.019784227 0.037437476 0.042588793
0.05071728 0.037432894 0.011849292 -0.028965138 -0.018677533 -0.03021212 -0.0023558512 0.02967862
0.021378964 -0.044739 0.039838046 -0.0067583174 -0.04464113 -0.028444853 0.004045464 -0.045238122
0.015542068 0.043662183 0.016181879 -0.033801816 0.02981504 0.04540714 -0.024331063 0.006821677
-0.030843299 -0.05257301 0.0259661 -0.017712038 -0.04351953 -0.032905303 0.034425847 -0.047645666
0.031467363 -0.019699834 0.00334936 -0.01567677 0.008305259 0.045954168 0.00305276 0.024533555
-0.0071544982 -0.03408999 -0.045222737 -0.018710125 0.043606043 0.040927015 -0.002921231 0.033338115
-0.017941285 0.008001827 -0.017451067 0.029738039 -0.008635193 0.014862828 -0.028853102 0.041518345
-0.0193329 0.02750142 0.010307029 0.013615042 -0.03841881 0.024813794 -0.019383147 -0.02529875
-0.040701184 0.02727922 0.051039986 -0.011532608 0.034115277 -0.012366682 0.033267677 -0.015858252
0.022743933 -0.054966513 0.053421162 -0.026527844 -0.019065734 0.038272835 0.047758035 0.047170177
0.020518482 -0.052320417 0.05287259 -0.008695975 -0.034987662 0.028727986 0.014401607 -0.04126033
-0.054989696 -0.016854245 0.02797477 0.00999894 0.0337034 0.025723524 0.049610205 0.025005564
-0.0507428 -0.041705683 0.046917886 -0.030377831 0.022953622 -0.036326174 -0.029464938 -0.0043254755
0.037901126 -0.0039639696 -0.010406513 0.036575377 -0.0035579056 0.027614973 -0.05382234 0.005563721
0.026648536 -0.0016749911 -0.009097908 0.037665717 -0.036604635 0.022979952 -0.008358438 0.051848374
-0.024934443 -0.0029099695 0.011315756 0.042595364 0.044563077 -0.04877578 0.034388505 0.035280876
-0.041247133 0.02952703 0.00015349314 -0.055104416 0.025216848 0.03267342 -0.029526033 -0.023305308
0.030013122 0.0002881363 0.030820198 -0.007387221 0.03665138 -0.019174099 -0.016543403 -0.015696004
-0.00063752383 -0.03827642 0.0024262294 0.030833095 0.044783436 -0.012201656 -0.0073788017 0.008419283
-0.042961035 -0.055889823 0.04568273 -0.03368899 -0.040829346 -0.00096117705 -0.003994003 0.0051597618
0.049515106 0.0015108213 -0.0029776879 -0.024992365 -0.024542611 0.04455959 -0.021056708 0.047619395
-0.03843852 -0.018781718 0.046672404 0.031766407 -0.0028563775 -0.018936682 0.02264852 0.04799418
-0.01086732 -0.032110848 -0.036355227 -0.02047005 0.055004083 -0.0017850734 0.024848923 -0.023186374
-0.008683227 -0.0455787 0.05125776 -0.006411243 0.017673045 0.008495398 0.01858005 0.05492468
0.055506177 -0.052745394 -0.006723564 -0.04297959 -0.0063585564 -0.020511337 -0.022326592 -0.028492026
0.028535768 -0.040067025 0.05314903 0.006084375 -0.019819982 0.04428088 -0.014274079 0.028874092
-0.008215468 -0.013525993 -0.033471726 -0.030114204 0.0143324435 0.029425941 0.0052858666 -0.01614996
0.0068660676 -0.030309213 -0.011381101 0.01588355 -0.012162983 0.021201603 -0.0068863407 -0.039443094
0.0023027845 -0.010252375 0.018367872 0.052138284 -0.04497347 0.050914608 -0.008191444 -0.00053663924

fc2.bias f4 [64]
00000000: 38b5 b6bb 003c 54ba f0c8 0f3b 9035 633c
00000010: 2c07 933c 6af2 123d 1797 f6bc e47c f33c
00000020: 4625 5dbd f5bb 5abd 53cd 26bd 12b3 523d
00000030: 2049 d93c 8cbe e23c 843e 39bd 1c89 9dbc
00000040: 906d c63c c0c2 cbba 1438 5ebd 7897 dbbb
00000050: c882 5e3c a04c f73c c41b fabc 37cf e5bc
00000060: 0049 4a3b 9d50 64bd e80a 543c 2639 a1bc
00000070: 6c71 12bd 70af e83c 104e 9e3b 541c b83c
00000080: 0a49 623d 5855 0cbc 986a 8cbc 24cf 5c3d
00000090: dfdd 08bd 2264 5d3d c8a7 8b3c d67d 04bd
000000a0: 64aa eb3c 0840 583d dcc7 c23c 08db 453c
000000b0: 7842 a2bb 1a82 383d 9858 aebb 70f2 dd3b
000000c0: 1acb a7bc 402c cc3c 1854 5cbc 7ac5 0d3d
000000d0: c360 ebbc 9c93 37bc da53 06bd bcd0 10bd
000000e0: 7c20 2ebc 1683 afbc 54fd 45bd 4494 d23c
000000f0: 6e1c 0d3d c00c 4b3d ca02 573d d239 22bd
-0.005575802 -0.0008096099 0.0021939836 0.013867751 0.017947756 0.035875715 -0.030101342 0.029722638
-0.053990625 -0.053401906 -0.040723156 0.051440306 0.026524127 0.02767875 -0.045225635 -0.019230418
0.024222165 -0.0015545711 -0.0542527 -0.006701406 0.013580985 0.030187905 -0.030530818 -0.02805291
0.0030866265 -0.05574094 0.012942053 -0.01968057 -0.0357527 0.028403968 0.004831083 0.022474445
0.055245437 -0.008565269 -0.017140672 0.053908482 -0.033414718 0.054050572 0.017047778 -0.03234657
0.028767772 0.05279544 0.023776941 0.012076147 -0.0049517713 0.04504595 -0.00532062 0.0067732856
-0.020482589 0.024923444 -0.013447784 0.034612156 -0.028732663 -0.011204626 -0.03279481 -0.035355315
-0.010627862 -0.021424811 -0.048337296 0.025705464 0.03445094 0.049572706 0.052492894 -0.039605923

fc3.weight f4 [8, 64]
00000000: 5009 0abd a6b8 e63d aef7 d0bd e2a4 c63d
00000010: 844b f13d e075 bcbd c886 ee3d 7094 b73c
00000020: e0ac 83bd 1057 763c 489f 813d e854 b63d
00000030: c42a 07bd 0054 d43c 94d5 f83d 1c22 16bd
00000040: 7a31 a33d 68b3 86bd 16d3 d6bd 6cef 773d
00000050: 98e5 323d 927a be3d fe39 8d3d a6d2 ebbd
00000060: 2099 7dbd c092 34bd c04c 363c a25d fabd
00000070: f027 113c 8e71 8ebd 9227 f8bd aaee d8bd
00000080: 3039 9cbd f47e ad3d d69f b5bd 86f5 c6bd
00000090: 7427 2b3d 20d4 a83c a0ee d2bb b09b 9cbd
000000a0: 9027 6a3d a480 763d d219 8e3d a609 a1bd
000000b0: ea72 983d 9cb3 723d 80e0 263c a064 013d
000000c0: d078 723d ee22 9d3d 4c4c e4bd eea4 803d
000000d0: 8003 3b3c b89b 7abd 2aae aebd b04d 0ebd
000000e0: ca2a f2bd b4e6 aebd 1aa9 cebd 28cf 0f3d
000000f0: 6c0c d93d 7444 18bd b8b4 01bd 0088 5ebb
00000100: b0dc 223c f028 163c cc54 2dbd 08e9 8dbd
00000110: 6078 9f3d d8aa 843c 7cab 71bd 7066 29bc
00000120: b290 fa3d c86e 4fbd e85b 953c b601 afbd
00000130: cc9c 44bd e00b 1c3c e031 dd3c 1ca5 ba3d
00000140: 04b6 36bd 608b f73b 4c76 2fbd 684f 623d
00000150: 4867 85bd 945c 31bd 6821 113d 6019 dd3b
00000160: 4090 d23c ac98 a4bd 7c33 bfbd 1c20 4d3d
00000170: 3ec4 e33d 8aca ab3d 5aae c03d f8de da3d
00000180: c64f e13d 4ae2 c2bd d01d 6d3c 040b 1c3d
00000190: 4c69 afbd 40e8 b6bd 3aaa fdbd 8e86 bbbd
000001a0: da40 ec3d 9c78 a7bd 4e7e bf3d 4c8a 033d
000001b0: 2023 78bd 5494 f3bd a6ae e73d 50a0 933d
000001c0: a438 eebd 00df 85bc a006 e9bb 4021 a23b
000001d0: fa5b f03d b86b bb3c 206a 07bd a417 f03d
000001e0: 3035 cbbc 4236 993d 0cb8 e03d 38eb 34bd
000001f0: e6a8 a9bd c871 ac3c ba37 e5bd 74ac 843d
00000200: e006 c53d e0de ddbb 3299 b9bd 3446 6a3d
00000210: 989d 89bd c847 bfbd a496 343d 805d 2bbb
00000220: 20e1 713c 9cbb d3bd 065d d03d 804e 213d
00000230: f890 b3bc 7e4d e23d 3485 373d 90c5 11bd
00000240: fc54 133d fe3c e53d 6088 093d bad1 b83d
00000250: b61a bdbd ec58 24bd 9601 893d 5014 233d
00000260: 6436 adbd be43 8cbd d0a9 b8bd ee5d c93d
00000270: 3a25 b5bd d691 ac3d 28a1 bebc 88c4 c8bc
00000280: e809 1f3d 7420 98bd a8ba 9ebd 00ce edbd
00000290: a62d aebd b877 9dbd 00e5 b03a a870 723d
000002a0: 301e 1d3d 8830 a9bd d67d ca3d 80a0 c6bb
000002b0: 18b3 333d a033 8d3b 54f2 db3d 1046 7dbc
000002c0: 7640 e93d 8499 0f3d bc2f f4bd 1691 d1bd
000002d0: cc28 793d 5c90 46bd c86f 9dbc 6cac a13d
000002e0: 7cbd 103d 3cd7 5fbd a0a8 193c 6c8a 6bbd
000002f0: 2cf9 373d 900e d73d 4a40 ef3d e04b b63c
00000300: ee33 e33d 7eb0 fb3d 6a2e e6bd acc3 64bd
00000310: 688d 9c3c 0aa9 eabd 28d9 88bd d092 94bc
00000320: 1478 e23d 8824 543d 30c4 ffbc 38df cf3d
00000330: 90c8 d8bd ccd2 aa3d ac3b 95bd d0bd b03c
00000340: 58f3 a2bd 88c3 30bd 0c3d 2b3d f23d 82bd
00000350: d0c7 8fbc 447f 00bd 1a27 90bd da10 ff3d
00000360: a0dd fd3d c09e c83b 662a fabd 80ac fd3b
00000370: d89d abbc 785a 863d 9079 1ebc f0cd d6bd
00000380: e8ea 4ebd 600e 03bc 7ef4 ebbd 14ac 95bd
00000390: 20ea ba3b e068 b73d 3c52 49bd a034 36bd
000003a0: cc1e b63d 1c4f 60bd 48b0 7bbd dc9b 89bd
000003b0: 38bc 6f3d 1c4f 533d f091 453c 8690 bf3d
000003c0: 70ac 0bbd d03e 073d 704e a63c 9ece 95bd
000003d0: e692 b93d b01e ecbc 8086 c4bc e006 3abc
000003e0: c84f cd3d 60a9 8d3c fcfd b9bd e07f a6bc
000003f0: 708f 77bd 06b5 c53d 4067 5cbb a6f0 82bd
-0.033700287 0.11265688 -0.10203491 0.09699418 0.117819816 -0.0920217 0.11646801 0.022409648
-0.06429458 0.015035406 0.063292086 0.08902913 -0.03299977 0.02591896 0.12150112 -0.036653623
0.07968421 -0.06577188 -0.1048948 0.060531065 0.04367599 0.09300722 0.06895827 -0.115147874
-0.06191361 -0.044085264 0.011126697 -0.1222489 0.0088596195 -0.069552526 -0.121169224 -0.105923966
-0.07628095 0.0847148 -0.08868377 -0.09714799 0.041785672 0.020608962 -0.0064371377 -0.076468825
0.057166636 0.060181275 0.069385186 -0.078631684 0.07443793 0.05925332 0.010185361 0.031590104
0.059197247 0.07672678 -0.11147365 0.06281458 0.011414409 -0.06118366 -0.08529313 -0.034742057
-0.118245676 -0.08540097 -0.10090847 0.03510967 0.105980724 -0.037174657 -0.031666487 -0.0033955574
0.009940311 0.009165034 -0.042317197 -0.06929213 0.077866316 0.016194746 -0.05900143 -0.010339364
0.1223463 -0.05064276 0.0182323 -0.08545248 -0.048001096 0.009524316 0.027001321 0.09113523
-0.044607177 0.0075544566 -0.042837426 0.05525151 -0.0651384 -0.04330118 0.03543225 0.0067474097
0.02570355 -0.08036932 -0.09335992 0.05007945 0.111214146 0.08388241 0.09408255 0.10687059
0.11001544 -0.095158175 0.01447244 0.038096443 -0.08565006 -0.08931017 -0.12385984 -0.09156524
0.11535807 -0.08177301 0.093502626 0.032114312 -0.060580373 -0.11893526 0.113126084 0.072083116
-0.11631897 -0.016341686 -0.0071113855 0.0049478114 0.11736293 0.022878513 -0.033060193 0.11723259
-0.024805635 0.07481052 0.10972604 -0.044169635 -0.08284168 0.021050349 -0.111922696 0.06478205
0.09620452 -0.0067709535 -0.09062423 0.057195857 -0.06719512 -0.09339863 0.044088975 -0.002614826
0.014763147 -0.10338518 0.10173993 0.039381504 -0.021919712 0.11049937 0.044804767 -0.0355888
0.03596972 0.11193274 0.033577323 0.09024377 -0.0923361 -0.040123865 0.066897556 0.039814293
-0.0845764 -0.06848858 -0.09016764 0.09832369 -0.08844991 0.084262535 -0.023270205 -0.024507776
0.038827807 -0.07428065 -0.077504456 -0.11611557 -0.085048005 -0.0768885 0.0013495982 0.05918947
0.038358867 -0.0826121 0.098872826 -0.0060616136 0.04387197 0.0043091327 0.1073958 -0.015458599
0.11389248 0.035058513 -0.11923167 -0.10232751 0.060829923 -0.048477516 -0.01921834 0.07894215
0.035336956 -0.054648623 0.009378582 -0.057505056 0.044915363 0.105008245 0.11682184 0.022252977
0.11093889 0.122895226 -0.112393215 -0.05585067 0.019110397 -0.11458023 -0.06682044 -0.018136412
0.11058059 0.05179265 -0.03122148 0.101499975 -0.10585129 0.083409876 -0.07286772 0.021574885
-0.079565704 -0.043155223 0.041806266 -0.063594714 -0.017551333 -0.03137137 -0.07038708 0.12454386
0.12395787 0.00612244 -0.12215118 0.007741511 -0.02094929 0.06560224 -0.009672537 -0.10488498
-0.050516993 -0.007999033 -0.115212426 -0.07308212 0.0057041794 0.0895555 -0.04915069 -0.04448378
0.08892593 -0.054762945 -0.06144741 -0.06719181 0.05852911 0.051589116 0.01205872 0.093537375
-0.034099996 0.033018887 0.020301074 -0.073148 0.09061222 -0.028823227 -0.023989916 -0.011354178
0.10024983 0.017292678 -0.09081647 -0.020324647 -0.060439527 0.09653668 -0.0033630878 -0.06393556

fc3.bias f4 [8]
00000000: 4854 82bd 00d4 0fb9 6037 c73d a42e ef3d
00000010: 50c8 0d3d 8ea4 8bbd 00bc 4b3c 9a23 e4bd
-0.063637316 -0.00013716519 0.09727359 0.11678818 0.03461486 -0.06818496 0.012434959 -0.11139603

fc4.weight f4 [4, 8]
00000000: 2a68 e0bd a431 7abe 9550 45be 8051 6bbb
00000010: 34f0 853d f00c be3d f34a 94be e873 9fbd
00000020: f30c 76be 4ede 603e 1433 0d3e 3e57 97be
00000030: 2421 f1bd c3b2 60be 55fc 73be 3ced fd3d
00000040: 50f0 a8bc 97bc 08be 00a6 703d e0cb a0bc
00000050: c456 073e 18fa cb3d 19bd 3bbe f062 87be
00000060: 9c06 893d 40e9 13bc 8021 743b f9b5 933e
00000070: 344f d83d e688 83be fe10 6ebe 3310 993e
-0.10957368 -0.24432999 -0.19269021 -0.0035906732 0.06539956 0.092798114 -0.28963432 -0.07785779
-0.24028377 0.21959803 0.13789016 -0.29558748 -0.11773899 -0.21943192 -0.23826726 0.123987645
-0.020622402 -0.13353191 0.05875206 -0.019628465 0.13216692 0.09959811 -0.18333854 -0.2644267
0.06690714 -0.009027779 0.0037251413 0.28849772 0.10561982 -0.25690383 -0.2324867 0.29895172

fc4.bias f4 [4]
00000000: fe98 98be 944a a8bd 55be 983e 4640 8bbe
-0.29804224 -0.0821735 0.29832712 -0.27197474
