model/ppo_2021_07_09_15_30_03.pth (torch_old, 846504 bytes, 12 tensors)

cov1.weight f4 [64, 1, 3]
0	0x3dea56e8	0.11442357
1	0x3d6b7450	0.05748397
2	0x3e477278	0.1947726
3	0xbecb06c4	-0.396536
4	0xbeadb3a0	-0.33926105
5	0x3ec10b58	0.37703967
6	0x3f0e58e4	0.55604386
7	0x3ee36e20	0.44419956
8	0x3ea7ccce	0.3277344
9	0xbed6b0c9	-0.4193175
10	0x3d8cfcf0	0.068841815
11	0xbf0af3d5	-0.5427831
12	0x3df9bfb8	0.121947706
13	0x3cc48c20	0.023992598
14	0xbee885f5	-0.454147
15	0x3d8e4a80	0.069478035
16	0xbefe8db2	-0.4971748
17	0x3ec85784	0.3912927
18	0x3eff39ec	0.49848878
19	0xbe883119	-0.2659996
20	0x3d2d8af0	0.04236883
21	0x3edfeac0	0.43733788
22	0x3e1ae524	0.15126473
23	0xbe9b4c77	-0.30331776
24	0xbeae7069	-0.34070137
25	0x3e31fb68	0.1738106
26	0xbeb2ab5b	-0.3489636
27	0xbea60535	-0.32425848
28	0x3f0a32b6	0.5398363
29	0xbe1cbff0	-0.15307593
30	0xbe0e6760	-0.13906622
31	0x3ee2458c	0.44193685
32	0xbe9dae6d	-0.3079714
33	0xbe89a147	-0.26880857
34	0xbf00e4bb	-0.50349015
35	0xbea99d65	-0.33127895
36	0x3e7189b4	0.23587686
37	0xbec31f58	-0.3810985
38	0xbe46b864	-0.19406277
39	0x3de94170	0.11389434
40	0xbdf59538	-0.11991352
41	0x3d871d08	0.06597334
42	0x3da402e8	0.08008367
43	0x3ea33c68	0.31882024
44	0xbe52fe58	-0.20604837
45	0xbd5af150	-0.05345279
46	0x3e22ea68	0.15909731
47	0x3f125886	0.57166326
48	0x3ea7fc98	0.328099
49	0x3cbe8440	0.023256421
50	0x3ea1333a	0.31484395
51	0x3d5f5120	0.054520726
52	0xbe51bc94	-0.20482093
53	0x3dffcbe8	0.12490064
54	0xbea27521	-0.31729987
55	0x3d2ae520	0.041722417
56	0xbefe4624	-0.49662888
57	0xbdad6384	-0.08466247
58	0xbecb5f4f	-0.39721152
59	0xbe46d84e	-0.19418451
60	0xbe69a108	-0.22815335
61	0x3e70f168	0.23529589
62	0x3ef4c284	0.47804654
63	0x3e2fe56c	0.17177361
64	0xbe430ee6	-0.19048652
65	0xbe81b144	-0.25330555
66	0xbf10ece0	-0.5661144
67	0xbf0000ac	-0.50001025
68	0x3ed350f2	0.41272694
69	0x3eafb54e	0.34318012
70	0x3e5e504c	0.21710318
71	0x3edc8474	0.43069804
72	0x3ecb5db6	0.39719933
73	0x3ecd6868	0.40118718
74	0xbe175b70	-0.14780974
75	0xbec35666	-0.38151854
76	0xbe4ac484	-0.19801527
77	0xbe75f2b8	-0.24018371
78	0x3ebf8150	0.37403345
79	0xbe02a14c	-0.12756842
80	0xbb8e2a80	-0.0043385625
81	0x3ed5c3b4	0.41750872
82	0xbe0a40f6	-0.13501343
83	0x3e5294e8	0.20564616
84	0xbdd98270	-0.10620582
85	0xbd4992f0	-0.049212396
86	0xbbb8b280	-0.0056365132
87	0x3d57bd80	0.052670956
88	0xbb0b4700	-0.0021252036
89	0xbe06ebb6	-0.13175854
90	0x3e7131c8	0.23554146
91	0x3e40fefc	0.18847269
92	0xbef7e446	-0.48416346
93	0x3ed69c0c	0.4191593
94	0x3eb9efce	0.3631577
95	0x3e315094	0.17315894
96	0x3e5d2e58	0.2159971
97	0x3d802408	0.062568724
98	0x3d3e76c0	0.046499968
99	0x3e59b9b4	0.21262246
100	0x3e883962	0.2660628
101	0x3cbb21c0	0.022843242
102	0xbf0d4f4f	-0.5519914
103	0xbd216340	-0.039401293
104	0x3e808538	0.25101638
105	0xbf0f1a8e	-0.55899894
106	0x3e6ceedc	0.23137993
107	0xbe9c48bb	-0.3052424
108	0xbeface4d	-0.4898552
109	0x3ec4ecbe	0.3846187
110	0x3eb05aa2	0.34444147
111	0x3e0d8938	0.13821876
112	0x3ecd9e70	0.4015994
113	0x3ec84538	0.3911531
114	0xbeab338b	-0.33437762
115	0xbe814b1d	-0.2525262
116	0xbdf6e5d0	-0.12055552
117	0xbd53e660	-0.051733375
118	0xbe611430	-0.21980357
119	0xbc8e0060	-0.017334163
120	0x3f004db4	0.50118566
121	0x3d361d50	0.04446155
122	0x3e8fe7c4	0.2810651
123	0x3d56d480	0.05244875
124	0x3e5cb36c	0.21552819
125	0xbe9d8d42	-0.30771834
126	0xbe8650d6	-0.26233548
127	0x3de7b5e8	0.11313993
128	0xbeea7836	-0.4579484
129	0xbee167e2	-0.4402457
130	0xbe553c94	-0.2082389
131	0x3eb9f7c0	0.3632183
132	0x3ed3e7b6	0.4138772
133	0xbd0af7a0	-0.03392756
134	0xbe2a9b92	-0.16660908
135	0x3edfd684	0.4371835
136	0x3e30851c	0.17238277
137	0xbeb2c480	-0.34915543
138	0x3e6dc580	0.23219872
139	0x3e260ea8	0.16216528
140	0xbee4a763	-0.44658956
141	0x3f00fc1a	0.50384676
142	0x3ed2236c	0.4104265
143	0xbe96d0d4	-0.29456198
144	0x3e7a2fe0	0.24432325
145	0x3df8cf68	0.121489346
146	0xbeb70920	-0.3574915
147	0xbec77a22	-0.38960367
148	0xbe0f0cd6	-0.1396974
149	0xbe84b521	-0.2591944
150	0x3d029890	0.031883776
151	0x3e7d8e20	0.24761248
152	0x3f06f0d2	0.5271121
153	0x3e4b5fdc	0.19860786
154	0xbed819b4	-0.4220711
155	0xbe93d8fb	-0.2887648
156	0xbf11d0b2	-0.5695907
157	0xbe9958f8	-0.2995069
158	0x3f0594ba	0.52180064
159	0xbeeb96f0	-0.46013594
160	0xbe9129cd	-0.28352204
161	0xbec09cc5	-0.37619606
162	0xbec205b0	-0.37894964
163	0xbe539ed0	-0.20666051
164	0xbdc0d374	-0.094153315
165	0x3d124240	0.035707712
166	0x3ee75084	0.45178616
167	0x3f112f5c	0.5671289
168	0xbe4fa762	-0.20278695
169	0x3dddd588	0.108317435
170	0xbe97a155	-0.29615274
171	0x3ecfdbd0	0.4059739
172	0x3f0c9a84	0.5492327
173	0xbf128759	-0.57237774
174	0xbf022052	-0.50830567
175	0xbeb807df	-0.35943505
176	0x3ebd9902	0.37030798
177	0xbe9d9f2a	-0.30785495
178	0x3ee3049c	0.44339454
179	0x3eb74d2c	0.35801065
180	0x3c738dc0	0.014865339
181	0x3ef2401c	0.47314537
182	0xbd85b6e0	-0.06529021
183	0xbedd4e12	-0.43223625
184	0x3ec72b2e	0.3890013
185	0xbee3c7d4	-0.44488394
186	0x3e8e1ccc	0.27756345
187	0x3c98caa0	0.018651307
188	0xbeb1b48e	-0.34708065
189	0xbe6acdcc	-0.22930068
190	0xbef8a471	-0.4856296
191	0x3ed1cc02	0.40975958

cov1.bias f4 [64]
0	0xbed9c522	-0.42533213
1	0xbddd5d34	-0.10808793
2	0xbdd581b8	-0.104251325
3	0xbebde5e7	-0.37089464
4	0x3f0c8778	0.5489421
5	0xbe8e624c	-0.2780937
6	0xbdad7858	-0.084702194
7	0xbe8f1d4e	-0.27952045
8	0xbe3e2dc8	-0.18572152
9	0x3e2a8658	0.1665281
10	0x3e360ae4	0.17777592
11	0xbef57944	-0.4794408
12	0xbe9437a4	-0.289487
13	0x3f076012	0.52880967
14	0x3eb4f4a8	0.35342908
15	0x3f089082	0.533455
16	0x3dfeb588	0.12436968
17	0xbe8eeb2c	-0.27913797
18	0x3eded0ec	0.4351877
19	0x3f0fc0fc	0.56153846
20	0x3ec09916	0.37616795
21	0xbee76b33	-0.45198974
22	0xbefeaaa7	-0.49739572
23	0xbe963066	-0.293338
24	0x3f07e70c	0.53086925
25	0x3de59050	0.11209166
26	0xbf0cb100	-0.5495758
27	0xbe27843a	-0.16359034
28	0xbf122baa	-0.57097876
29	0xbe34b60c	-0.1764757
30	0xbecdc918	-0.40192485
31	0xbec8aa41	-0.39192393
32	0xbdf348a8	-0.118790925
33	0xbeb39e2e	-0.3508162
34	0x3cc364e0	0.023851812
35	0xbd1cbb90	-0.03826481
36	0xbf0f21a0	-0.5591068
37	0x3ec46d40	0.383646
38	0x3ebbdde6	0.36692733
39	0x3de57138	0.112032354
40	0x3e7c55c0	0.24642086
41	0x3f03d7ee	0.5150136
42	0xbe646ff0	-0.22308326
43	0x3eb2b4ca	0.34903556
44	0xbedd8978	-0.43268943
45	0x3ed91158	0.42396045
46	0xbe513286	-0.2042943
47	0x3f0ffc3a	0.5624424
48	0xbcddce40	-0.027075887
49	0xbd19fbd0	-0.037593663
50	0x3eddbbb8	0.4330728
51	0x3ebc5d1c	0.36789787
52	0x3ed4b28e	0.41542476
53	0xbeb16e1f	-0.34654328
54	0xbe21ec8a	-0.15812889
55	0xbf085f29	-0.532702
56	0xbf112551	-0.56697565
57	0xbec96056	-0.3933131
58	0x3edbefd8	0.42956424
59	0x3e46d69c	0.19417804
60	0xbeed749d	-0.4637803
61	0xbeaec8da	-0.34137613
62	0x3e406f34	0.1879242
63	0x3f03ef0e	0.51536644

cov2.weight f4 [128, 64, 3]
0	0x3d91835e	0.071051344
1	0xbd90dd51	-0.07073463
2	0xbbe330f0	-0.006933324
3	0xbd032e97	-0.032026853
4	0xbd895a1a	-0.06706639
5	0xbd0be383	-0.03415252
6	0xbc598f6c	-0.013278823
7	0xbd7d611a	-0.06186018
8	0xbd46cb8f	-0.048533972
9	0x3cd52ed0	0.026023299
10	0x3c813efc	0.015777104
11	0xbd220217	-0.039552774
12	0xbd8346f9	-0.06410021
13	0xbd40da14	-0.047082976
14	0x3d2b378c	0.04180102
15	0x3d0ad244	0.03389193
16	0x3c91b414	0.017786063
17	0x3d51f9b6	0.051263534
18	0xbd6ba314	-0.05752857
19	0xbd32fc2b	-0.043697517
20	0xbd2d9dce	-0.042386822
21	0xbd06f924	-0.032952443
22	0x3d15e844	0.03659846
23	0xbd401080	-0.046890736
24	0xbd28d8ff	-0.04122257
25	0xbcad1488	-0.021127954
26	0xbc54b894	-0.01298346
27	0x3d8decf6	0.06929962
28	0xbc832f90	-0.01601389
29	0xbcb8c23a	-0.022553552
30	0xbd0d9589	-0.034566436
31	0x3b784e40	0.0037888438
32	0xbd2c70e8	-0.042099863
33	0x3d166cfa	0.036725022
34	0x3bc60cb0	0.006043993
35	0x3d53f930	0.051751316
36	0xbcd52688	-0.02601935
37	0xbd14e6f9	-0.036353085
38	0x3d84a82e	0.0647739
39	0xbd00d176	-0.031449758
40	0xbd91dd9a	-0.07122345
41	0x3d28bd14	0.041195944
42	0x3ced38d4	0.028957762
43	0x3c842260	0.016129673
44	0xbb672380	-0.0035268962
45	0x3bcb3c40	0.0062022507
46	0x3ce92054	0.028457798
47	0xbca96442	-0.02067769
48	0xbab95340	-0.001413919
49	0xbc944d7e	-0.018103357
50	0x3b444000	0.0029945374
51	0xbca24a5c	-0.019810848
52	0x3a0e0600	0.0005417764
53	0xbd356405	-0.04428484
54	0x3d4c8ae8	0.04993716
55	0x3b8e9280	0.0043509603
56	0x3ca5fb08	0.020261303
57	0xbd455245	-0.04817416
58	0xbd8815c6	-0.06644778
59	0x3a183380	0.0005806014
60	0xbd869234	-0.06570855
61	0x3d3c6988	0.04599908
62	0xbc1f1ba0	-0.009711176
63	0xbc36ecd8	-0.011164866
64	0xbd25911b	-0.040421586
65	0x3d1499b6	0.036279403
66	0x3c27a3d8	0.0102319345
67	0x3d0c60e8	0.034272105
68	0x3d4450ae	0.047928505
69	0xbbef9250	-0.007311143
70	0x3d66d19c	0.056352243
71	0x3d8b3e76	0.06799023
72	0xbd531108	-0.051529914
73	0x3ca5654c	0.020189904
74	0xbd03d2f4	-0.032183602
75	0x3d499aa2	0.049219735
76	0x3d688798	0.056769937
77	0xbc058598	-0.008149527
78	0x3d8e6336	0.06952517
79	0xbbfdd830	-0.007746719
80	0x3cb6ba44	0.022305615
81	0x3d10e7de	0.035377376
82	0x3d3f4ddc	0.04670511
83	0xbd45b863	-0.048271548
84	0xbd4639c7	-0.048394945
85	0xbcd1e8b6	-0.02562366
86	0xbd5118f2	-0.05104918
87	0x3d2c6e48	0.04209736
88	0xbd58b2aa	-0.052904762
89	0x3c14e5f8	0.009088032
90	0xbd015f77	-0.031585183
91	0xbcb52daa	-0.0221165
92	0xbd8f48fb	-0.06996342
93	0xbd74d302	-0.059771545
94	0xbc89478c	-0.016757749
95	0xbca55bf0	-0.02018544
96	0xbd440b3a	-0.04786227
97	0xbc2a53fc	-0.010396
98	0x3d83d254	0.06436601
99	0xbd54e2fc	-0.05197428
100	0xbca4132c	-0.020028673
101	0x3b823ad0	0.003974296
102	0x3ce46df4	0.027884461
103	0x3d7c6adc	0.061625347
104	0x3ccd8194	0.025086202
105	0xbcc55854	-0.02408997
106	0x3d2c3320	0.042040944
107	0x3ca6f058	0.020378277
108	0xbd79ab54	-0.060954407
109	0xbd85a6d0	-0.065259576
110	0xbc768b88	-0.015047915
111	0x3d39db08	0.0453749
112	0xbd5d6659	-0.054052684
113	0x3c34a3a0	0.011025339
114	0x3b9a22f0	0.004703872
115	0xbcbeeeba	-0.023307193
116	0xbca398c0	-0.019970298
117	0x3d3ea862	0.0465473
118	0x3d856ff6	0.065154955
119	0xbcbbf9ac	-0.022946201
120	0x3d07970a	0.033103026
121	0x3d2df094	0.04246576
122	0xbd046dd8	-0.032331318
123	0xbca82c00	-0.020528793
124	0x3d6e160c	0.058126494
125	0xbd86bec2	-0.06579353
126	0x3d60d6d8	0.05489239
127	0x3d5f86f8	0.054572076
128	0xbd6cbe19	-0.05779848
129	0xbd8e09ae	-0.0693544
130	0x3d73a970	0.05948776
131	0x3c715808	0.014730461
132	0x3d864fda	0.06558199
133	0x3c65eac8	0.014033027
134	0x3d361358	0.04445204
135	0xbd0efde2	-0.03491009
136	0xbd1c5666	-0.038168333
137	0xbd902df8	-0.07040018
138	0x3d59f5d8	0.05321297
139	0x3d50dc00	0.05099106
140	0xbd30a708	-0.043128043
141	0xbbc8bb00	-0.0061258078
142	0x3d199a54	0.037500694
143	0x3d8e8cd8	0.069604576
144	0xbd16609d	-0.03671323
145	0x3d06da6a	0.03292314
146	0x3d201a34	0.03908749
147	0x3d85357e	0.065043435
148	0xbd4c057e	-0.049809925
149	0xbcf15984	-0.02946163
150	0x3d20b016	0.03923043
151	0xbcf0d61e	-0.029398974
152	0xbd85ce17	-0.06533449
153	0x3d097fc2	0.033569105
154	0x3d0f1442	0.03493143
155	0x3bb32530	0.0054670796
156	0x3cc3ab60	0.023885429
157	0x3d4181fa	0.047243096
158	0x3d8b6f12	0.06808294
159	0x3d90503c	0.070465535
160	0xbd72c720	-0.05927193
161	0x3d46b7c6	0.048515104
162	0x3d886c28	0.06661254
163	0xbd13420a	-0.03595165
164	0xbc1b7290	-0.009487763
165	0xbd41be9e	-0.047300927
166	0xbd840721	-0.06446672
167	0x3d781320	0.060565114
168	0x3d483ce6	0.048886202
169	0x3d3bbac0	0.045832396
170	0x3d81c18a	0.06335743
171	0xbc6ffa78	-0.014647119
172	0xbbc48a40	-0.005997926
173	0xbcd225c4	-0.025652774
174	0xbc8bb7f2	-0.017055485
175	0xbd12e73a	-0.035865046
176	0x3a5d9400	0.00084525347
177	0x3b8dc3d0	0.004326321
178	0x3c439890	0.011938229
179	0xbb1b6fe0	-0.0023717806
180	0x3c71a768	0.014749385
181	0x3d3947bc	0.045234427
182	0xbaad4c00	-0.0013221502
183	0x3c002c38	0.007823043
184	0x3b01c3c0	0.0019800514
185	0xbbc8ae20	-0.006124273
186	0x3cdc7664	0.026911922
187	0xbd3d3113	-0.04618938
188	0xbb813230	-0.0039427504
189	0xbd8fbb0b	-0.070180975
190	0x3d211012	0.039321966
191	0xbd53177a	-0.05153606
192	0xbd27c331	-0.040957633
193	0xbd4515cf	-0.0481165
194	0xbd0f035c	-0.034915313
195	0xbd0b2580	-0.03397131
196	0xbd0a85d6	-0.033819042
197	0xbb841990	-0.0040313676
198	0xbd01fd14	-0.031735495
199	0xbd3c1d4f	-0.04592639
200	0x3d7acdc4	0.06123139
201	0xbd4ca866	-0.049965285
202	0xbd8ecded	-0.06972871
203	0xbd3da020	-0.046295285
204	0x3d80f892	0.06297411
205	0x3c2807d0	0.010255769
206	0x3d924514	0.07142082
207	0x3d4cc844	0.049995676
208	0x3d47f2de	0.0488156
209	0x3d0cd88e	0.03438621
210	0x3d905218	0.07046908
211	0xbd796f10	-0.060896933
212	0xbd5d8a15	-0.054086763
213	0x3b871270	0.004122071
214	0x3c6fcf58	0.014636837
215	0xbd0ec66c	-0.0348572
216	0x3d07992c	0.03310506
217	0xba1e5080	-0.0006039217
218	0xbd43fe36	-0.047849856
219	0xbcff7628	-0.031184271
220	0x3c57cf00	0.013171911
221	0xbc6e12b0	-0.014530823
222	0xbd8aed0c	-0.06783494
223	0xbd78a01f	-0.06069958
224	0x3d8562c6	0.0651298
225	0xbd8e98e0	-0.06962752
226	0x3d86cd44	0.0658212
227	0xbd4e74f8	-0.05040452
228	0xbcf4b334	-0.029870607
229	0x3cfea914	0.031086482
230	0x3d810f0c	0.06301698
231	0xbd460dd8	-0.048353046
232	0x3d5a3a10	0.05327803
233	0xbc6aa928	-0.014322557
234	0xbd76fcbd	-0.060299624
235	0xbd162c06	-0.036663078
236	0x3ca3a8e8	0.019978002
237	0x3d76c5ac	0.06024711
238	0xbd75c0e2	-0.0599984
239	0xbd2a1f51	-0.041533772
240	0x3c75b2e8	0.014996268
241	0xbd33daf8	-0.043909997
242	0xbd366920	-0.04453385
243	0x3ca3c5f8	0.01999186
244	0x3d17c0ea	0.03704921
245	0x3d6c40f8	0.057679147
246	0xbc1a3778	-0.009412639
247	0xbc36b550	-0.011151627
248	0xbd26c95f	-0.040719386
249	0xbd51732e	-0.051135235
250	0x3c702850	0.014658049
251	0xbcf5beea	-0.029998261
252	0x3cf9a030	0.030471891
253	0xbd1856dd	-0.037192214
254	0xbd1fc344	-0.03900458
255	0x3d44a410	0.048008025

cov2.bias f4 [128]
0	0x3c7e35e8	0.015515782
1	0x3d533fb8	0.05157444
2	0xbd9169be	-0.07100247
3	0xbd372eff	-0.044722553
4	0xbd35c642	-0.044378527
5	0x3d0b507a	0.034012295
6	0x3c7403b0	0.014893457
7	0x3cbf84a0	0.02337867
8	0xbc96dc22	-0.018415514
9	0xbd4561a2	-0.048188813
10	0x3cdfcde8	0.027319863
11	0xbb8a7420	-0.004225269
12	0xbd65ff0a	-0.056151427
13	0xbd6033d3	-0.054736923
14	0x3d9103ac	0.070807785
15	0xbd168b3b	-0.036753874
16	0x3d88b79c	0.06675646
17	0xbd4700ba	-0.048584677
18	0x3d2f8c7e	0.042858593
19	0x3d295742	0.04134298
20	0x3cd485e0	0.025942743
21	0x3d886824	0.06660488
22	0xbbd96e70	-0.0066354796
23	0x3cdd2670	0.026995867
24	0xbba9c730	-0.0051812157
25	0xbc14ae78	-0.0090748
26	0xbb34d740	-0.002759412
27	0xbce1ca78	-0.027562365
28	0x3d79ad7c	0.060956463
29	0x3d38cee2	0.045119174
30	0xbca4defa	-0.020125855
31	0x3d197a10	0.037469923
32	0x3bead100	0.007166028
33	0x3c40d850	0.011770323
34	0xbd93a1ad	-0.072085716
35	0x3d932726	0.07185201
36	0x3d487e60	0.048948646
37	0xbbc74420	-0.006081119
38	0xbd33bb1a	-0.043879606
39	0xbc040d28	-0.008059777
40	0x3d311a9a	0.04323826
41	0xbb43ac40	-0.0029857308
42	0x3d3574ca	0.04430083
43	0xbd8d2352	-0.068915024
44	0xbd8d42ae	-0.06897484
45	0x3d72e7b0	0.059302986
46	0x3d8d5fea	0.0690306
47	0xbd83ece7	-0.0644167
48	0x3d5494c8	0.0518997
49	0x3d0a74de	0.03380286
50	0xbd19badb	-0.037531715
51	0xbd88fe33	-0.0668911
52	0x3c4a5750	0.0123499185
53	0xbc9c85d8	-0.01910679
54	0x3d02885e	0.03186833
55	0x3d3db5f6	0.04631611
56	0xbbe493f0	-0.0069756433
57	0x3c946eec	0.018119298
58	0xbd8d6c3b	-0.06905409
59	0xbd7ce836	-0.06174489
60	0x3c334b98	0.010943316
61	0xbc877fe4	-0.016540475
62	0xbceaef1e	-0.028678473
63	0x3c6f2960	0.014597267
64	0x3d26defa	0.04073999
65	0xbd8d9603	-0.06913378
66	0xbc4b4934	-0.01240759
67	0xbcde4a5a	-0.027135063
68	0x3d22c928	0.03974262
69	0xbd362cde	-0.044476382
70	0xbc77eef8	-0.015132658
71	0xbbf701f0	-0.0075380728
72	0xbd6c5ab0	-0.057703674
73	0xbcdc7214	-0.026909865
74	0x3d10e26e	0.03537219
75	0xbd447e78	-0.047972172
76	0xbd23fd9c	-0.040036783
77	0xbc3d3e8c	-0.011550557
78	0xbd409ecf	-0.04702645
79	0xbbeea990	-0.007283397
80	0xbd22a963	-0.03971232
81	0x3989c200	0.00026275218
82	0xbc8e96b8	-0.017405853
83	0x3ca9e398	0.020738408
84	0x3d5726a4	0.052527085
85	0x3d20946e	0.039204054
86	0xbd74240d	-0.059604693
87	0xbd8725c1	-0.06598998
88	0x3d0617da	0.03273759
89	0x3b232360	0.0024892911
90	0x3d8cb2c8	0.06870037
91	0x3c2faa60	0.010721773
92	0xbc338658	-0.010957323
93	0xbd1294c8	-0.03578642
94	0x3d0487b8	0.032355994
95	0xbd23356a	-0.03984586
96	0x3d5881a4	0.05285801
97	0x3d6ab3f0	0.057300508
98	0xbd3538f2	-0.04424376
99	0xbd0f1d98	-0.034940332
100	0xbb831970	-0.004000835
101	0x3c008840	0.0078449845
102	0xbd0293e5	-0.031879324
103	0x3d02514c	0.031815812
104	0x3d8d00cc	0.068849176
105	0x3d853822	0.06504847
106	0xbd29bf9a	-0.04144249
107	0x3d887fa2	0.06664969
108	0xbcde07f8	-0.02710341
109	0x3d56d882	0.05245257
110	0x3d2cb962	0.042168982
111	0xbc0b4480	-0.008500218
112	0xbcd06358	-0.025437996
113	0xbd92ddff	-0.07171249
114	0x3d566fa2	0.052352555
115	0x3c57c298	0.013168953
116	0xbca8e48e	-0.020616796
117	0xbc5c09b8	-0.0134300515
118	0x3d80d872	0.06291284
119	0x3c96b848	0.018398419
120	0xbc8f6f7a	-0.01750921
121	0x3ba908c0	0.005158514
122	0xbca7c0d8	-0.020477697
123	0xbbd10e90	-0.00637991
124	0x3d0d2944	0.034463182
125	0xbd6a071f	-0.057135697
126	0x3c72b160	0.014812797
127	0x3d0004d6	0.031254612

fc1.weight f4 [320, 515]
0	0x3d0cd2cf	0.03438073
1	0x3cc01706	0.023448478
2	0xbd2fd2e9	-0.04292575
3	0x3cb3f17e	0.021965738
4	0x3d04578b	0.03231005
5	0xbd20221a	-0.03909502
6	0x3cd4104a	0.025886673
7	0x3c6fbf70	0.014633045
8	0x3cb91b9a	0.02259617
9	0x3d0abf17	0.033873644
10	0x3b5c38c0	0.0033603162
11	0x3ba07978	0.0048972927
12	0xbbc62320	-0.0060466677
13	0xbbed25e8	-0.007237185
14	0x3d11435f	0.03546464
15	0x3ca95e16	0.020674746
16	0xbd256f46	-0.04038932
17	0xbcda0a6b	-0.026616296
18	0xbc53eca0	-0.012934834
19	0x3cfcb6ca	0.03084888
20	0xbd2efcb7	-0.042721476
21	0x3d02718b	0.031846564
22	0x3c16a074	0.009193528
23	0x3b1cd000	0.0023927689
24	0xbd0413ec	-0.03224556
25	0xbd28f392	-0.04124791
26	0xbc505760	-0.012716144
27	0xbcb1685c	-0.021656208
28	0x3b3b1370	0.0028545521
29	0xbb5130c0	-0.0031919926
30	0xbc984a3c	-0.018590085
31	0x3cbc3d56	0.022978466
32	0xbcc78dcc	-0.024359606
33	0xbd10bf68	-0.03533879
34	0x3d0ba569	0.034093294
35	0x3ce3b676	0.027796965
36	0x3c7317f0	0.01483725
37	0xbc4f72f4	-0.012661684
38	0xbd306ec0	-0.04307437
39	0xbc9dbb8e	-0.019254472
40	0xbc962eec	-0.018332921
41	0xbc20a058	-0.009803854
42	0x3c623278	0.013805978
43	0xbb6d12c0	-0.0036174506
44	0x3c2f43e4	0.010697339
45	0xbb289f90	-0.0025729872
46	0x3a1a5700	0.0005887598
47	0x3bf64770	0.00751584
48	0x3cae3fd6	0.021270674
49	0xbc8d5d91	-0.01725653
50	0x3ce05c8e	0.027387884
51	0xbc8fbde6	-0.017546605
52	0x3b0054e0	0.001958184
53	0x3ca5cbf6	0.020238858
54	0x3c8a7ad2	0.016904268
55	0x3cd36c5e	0.02580851
56	0x3ba58308	0.0050510205
57	0xbccb83f0	-0.024843186
58	0xbd109eb2	-0.035307594
59	0xbcacf6a1	-0.021113696
60	0x3d0dfd73	0.034665536
61	0xbcba370f	-0.022731332
62	0x3d22c6cb	0.039740365
63	0xbd2cf85d	-0.042229045
64	0x3c495ac8	0.01228971
65	0xbcbc821b	-0.023011258
66	0xbc8d7a14	-0.017270125
67	0x3cefad0a	0.029257316
68	0x3d036fe7	0.03208914
69	0x3ca6382a	0.020290453
70	0xbd25eff6	-0.040512048
71	0xbc22e9d4	-0.009943444
72	0xbc9bd0f7	-0.01902054
73	0xbca7ac8f	-0.020468025
74	0xbc9ae918	-0.018909976
75	0x3cc29d3a	0.023756612
76	0xbd1cd40a	-0.038288154
77	0x3cc9f296	0.024651807
78	0xb921a900	-0.00015417114
79	0x3ca83aa6	0.020535778
80	0x3c9738d6	0.018459719
81	0xbcc2f70a	-0.023799438
82	0xbcbf64ed	-0.023363555
83	0x3d30aa75	0.04313131
84	0xbd05ac24	-0.03263487
85	0xbd2815d6	-0.04103645
86	0x3cbfb2de	0.02340072
87	0x3c1d7280	0.009609818
88	0x3d22a3e3	0.039707076
89	0xbd1bc1d6	-0.038026653
90	0x3c21c174	0.009872783
91	0x3d0bc5a1	0.03412402
92	0xbc57edce	-0.013179256
93	0x3cc62c46	0.024191033
94	0xbd280938	-0.041024417
95	0xbc8f0302	-0.017457489
96	0x3c97c046	0.0185243
97	0xbc6f9296	-0.014622351
98	0x3cf0f0b2	0.029411647
99	0x3cdf993a	0.027294744
100	0x3a336200	0.0006842911
101	0xbba6a318	-0.0050853603
102	0x3cbb402e	0.022857752
103	0x3c493d78	0.012282722
104	0xbc4108dc	-0.011781897
105	0x3d33ce7b	0.043898087
106	0x3c0fcf68	0.008777477
107	0xbd074b4a	-0.033030786
108	0x3c80441a	0.015657473
109	0x3c4d67e4	0.0125369765
110	0xbd09fef9	-0.033690426
111	0x3ce71092	0.028206144
112	0xbd225169	-0.03962842
113	0x3b8cbc10	0.0042948797
114	0xbd2c06c3	-0.041998636
115	0xbc7005c6	-0.014649814
116	0x3d10a457	0.035312977
117	0x3cf32d56	0.029684704
118	0xbcec6cee	-0.028860535
119	0x3c28789c	0.010282662
120	0x3d0b6a6d	0.034037042
121	0xbc873984	-0.016506918
122	0x3bd76eb0	0.0065744743
123	0xbd20cd4c	-0.039258286
124	0xbcd5969a	-0.026072789
125	0x3c67b80c	0.014143001
126	0x3d13392d	0.0359432
127	0xbd057030	-0.032577693
128	0xbd073ac7	-0.03301504
129	0xbd2ea0c1	-0.042633776
130	0xbd0bc039	-0.034118865
131	0xbd148097	-0.036255445
132	0xbcef4bed	-0.029211009
133	0x3ccc26a6	0.024920773
134	0x3c58502c	0.013202708
135	0xbc0accd8	-0.00847169
136	0xbc0df5f8	-0.008664601
137	0xbb817c88	-0.003951613
138	0x3d2d83fd	0.042362202
139	0xbcb2df52	-0.021835003
140	0xbcc2d013	-0.023780858
141	0x3b231e30	0.002488982
142	0x3d2514f1	0.040303174
143	0xbc4e5830	-0.012594268
144	0x3d1f5b33	0.038905334
145	0x3cc4f326	0.024041723
146	0xbd30272c	-0.043006107
147	0xbc08e66c	-0.008355718
148	0x3b498330	0.003074836
149	0x3cff188e	0.031139638
150	0xbb047da0	-0.002021648
151	0xbd18607e	-0.037201397
152	0xbc0b7e7c	-0.008514043
153	0x3d18324f	0.037157353
154	0xbc2bb370	-0.010479793
155	0x3cee292a	0.029072363
156	0x3d105b75	0.03524347
157	0xbcdb3272	-0.026757453
158	0xbb3e7330	-0.0029060356
159	0x3ce5125e	0.02796286
160	0x3c3717e8	0.011175133
161	0xbbce4e48	-0.006295953
162	0x3cb33632	0.021876428
163	0x3bfe9ff8	0.0077705346
164	0x3ce0faf2	0.02746341
165	0x3d2ca933	0.04215355
166	0xbce48644	-0.027896054
167	0x3cad9752	0.02119032
168	0xbcc3413e	-0.02383482
169	0x3c9c8d2e	0.019110288
170	0xbc2f1720	-0.010686666
171	0xbcb4a5db	-0.022051742
172	0xbc0b5888	-0.008504994
173	0x3d056109	0.032563243
174	0xbc41d704	-0.011831049
175	0xbd322dbe	-0.043500654
176	0x3c194020	0.0093536675
177	0xbcb5a7d6	-0.022174757
178	0x3d1b3225	0.03788962
179	0x3d259827	0.040428307
180	0x3b798450	0.003807325
181	0xbb40cb20	-0.0029417947
182	0xbc2fe42c	-0.010735553
183	0x3c8a5f26	0.016891073
184	0x3c9903be	0.018678542
185	0xbbb34db0	-0.0054719076
186	0xbce68f59	-0.028144525
187	0xbd0598d4	-0.03261645
188	0x3cc52a02	0.024067882
189	0x3c0da450	0.008645132
190	0x3cc1c87e	0.023655172
191	0x3c87d20a	0.016579647
192	0x3d20c79d	0.039252866
193	0x3d277695	0.040884573
194	0xbd131521	-0.035908822
195	0x3c8da776	0.017291766
196	0xbd2dcbb9	-0.042430613
197	0x3b647dd0	0.003486503
198	0x3cd65fd2	0.026168738
199	0xbbda5ee0	-0.006664142
200	0xbc5eeaac	-0.013605755
201	0xbcf4f1b8	-0.029900417
202	0x3bde1b68	0.0067781694
203	0xbcc21830	-0.023693174
204	0x3cba1026	0.022712778
205	0xbcdd7d65	-0.027037332
206	0x39fa3b00	0.00047727674
207	0xbd18725d	-0.03721844
208	0x3d2c6cdb	0.042096
209	0xbcc62272	-0.024186347
210	0x3c0a954c	0.008458447
211	0xbd1139d7	-0.03545555
212	0xbc4be90c	-0.012445699
213	0xbd08ca7c	-0.03339623
214	0xbd23c89c	-0.039986238
215	0xbc638860	-0.013887495
216	0x3d03739d	0.03209268
217	0xbd0442d0	-0.03229028
218	0xbce28a0a	-0.027653713
219	0xbc31dc44	-0.010855738
220	0xbcd508d2	-0.026005182
221	0xbc3c463c	-0.011491355
222	0xbc4fc968	-0.012682296
223	0xbcd11252	-0.025521431
224	0x3d111339	0.035418723
225	0x3d16737f	0.03673124
226	0x3b101460	0.00219848
227	0xbc503b28	-0.012709416
228	0xbd084dbf	-0.03327727
229	0x3b4b42c0	0.0031015128
230	0xba84abe0	-0.0010122024
231	0xbd14df48	-0.03634575
232	0x3d1ac1bb	0.037782412
233	0x3c1120a8	0.0088578835
234	0x3d33b931	0.043877784
235	0x39b56100	0.0003459528
236	0xbd03fc91	-0.032223288
237	0xbc6222ac	-0.013802212
238	0x3ba9c860	0.0051813573
239	0xbb8dc838	-0.0043268465
240	0x3cad89aa	0.021183807
241	0xbca0d7d4	-0.019634165
242	0xbc826321	-0.015916409
243	0x3d0804cf	0.03320771
244	0x3cf77eba	0.030211795
245	0x3d053a7d	0.032526482
246	0x3c029450	0.007969931
247	0x3bec8f58	0.0072192363
248	0xbd131f02	-0.035918243
249	0xbcbe27e6	-0.023212384
250	0x3d0735b5	0.033010203
251	0x3bb76730	0.0055970177
252	0x3b9b4018	0.004737865
253	0xbd20bf14	-0.039244726
254	0x3c2913c0	0.01031965
255	0x3d15ca79	0.036570046

fc1.bias f4 [320]
0	0x3c5e5524	0.013570104
1	0xbd0080de	-0.031372897
2	0x3cab228a	0.020890493
3	0xbc494714	-0.012285013
4	0x3b8b81b8	0.004257407
5	0xbc8afe78	-0.016967043
6	0xbbbd2880	-0.0057726502
7	0xbcb16fda	-0.02165978
8	0x3c97a4ee	0.018511262
9	0xbc7412f0	-0.014897093
10	0x3cf24036	0.029571634
11	0xbd2338b0	-0.039848983
12	0xbce05d19	-0.027388142
13	0x3d216d67	0.039410975
14	0xbcedb54a	-0.02901711
15	0xbc716de4	-0.014735673
16	0xbd0290e2	-0.031876452
17	0x3d3353ed	0.04378121
18	0xbd0289d1	-0.031869713
19	0xbbc2c2e8	-0.005943645
20	0xbcf8cab6	-0.030370098
21	0x3bcb4bf8	0.0062041245
22	0xbc1c5f38	-0.009544186
23	0x3c4e1964	0.012579296
24	0xbc921c9c	-0.017835908
25	0x3d12f6fb	0.03588007
26	0x3be38730	0.006943606
27	0xbce86837	-0.028370006
28	0x3d01becd	0.031676102
29	0xbc91b91f	-0.017788468
30	0x3c93face	0.018063929
31	0xbce5d978	-0.028057799
32	0xbcddf5b7	-0.027094705
33	0xbcabe6f1	-0.020984145
34	0x3d317f1d	0.043334115
35	0xbcf2ff8c	-0.02966287
36	0xbba284e0	-0.0049596876
37	0xbd31ca9d	-0.043406118
38	0xbc8c81e1	-0.017151775
39	0x3d09a003	0.033599865
40	0x3d01a823	0.03165449
41	0xbcb82aae	-0.022481289
42	0x3c72ec5c	0.01482686
43	0x3cea9eae	0.028640117
44	0x3d18fa2f	0.03734797
45	0x3d32c5f9	0.043645833
46	0x3d261983	0.040551674
47	0x3d168c4d	0.036754895
48	0x3d214d83	0.03938056
49	0x3d0ae1f1	0.03390688
50	0x3d17c12b	0.037049454
51	0x3d061937	0.03273889
52	0x3c84cc94	0.016210832
53	0xbcdb58af	-0.026775686
54	0xbd29dec6	-0.04147222
55	0xbc9b3ca7	-0.01894982
56	0x3c090fb8	0.008365564
57	0x3c547158	0.012966476
58	0xbd089f39	-0.03335497
59	0xbcf9469e	-0.03042918
60	0x3c8c5e92	0.017134938
61	0x3cbf4c22	0.023351733
62	0xbd07f6c6	-0.033194326
63	0xbce8e7b4	-0.028430797
64	0x3c9e622e	0.019333925
65	0xbc064664	-0.008195493
66	0x3c86b694	0.016444482
67	0xbd1045c5	-0.035222787
68	0x3b605420	0.003422983
69	0xbd156b25	-0.036479134
70	0x3d179fb3	0.037017535
71	0xbccf366d	-0.025294507
72	0xbc685a38	-0.014181666
73	0x3cd3e0be	0.025864001
74	0x3c0bb598	0.008527182
75	0xbc34874c	-0.011018585
76	0xbc126860	-0.008936018
77	0x3cc6ce16	0.024268191
78	0xbd0cd1bc	-0.034379706
79	0x3c8b1c50	0.016981274
80	0xbceb9135	-0.028755764
81	0xbd11fc0f	-0.035640772
82	0x3cc48706	0.023990165
83	0xba7d7e00	-0.00096699595
84	0x3d1bea23	0.038065087
85	0x3a143c40	0.000565473
86	0xbd339bc3	-0.043849718
87	0xbd19fd2a	-0.03759495
88	0x3a98f100	0.0011668503
89	0xbd25ce9a	-0.040480234
90	0xbc63422e	-0.013870759
91	0xbd2a70d7	-0.04161152
92	0xbd110793	-0.035407614
93	0xbcc48afc	-0.023992054
94	0xbd273c19	-0.040828798
95	0xbcec4dee	-0.028845754
96	0x3cd0a992	0.025471482
97	0x3d13361f	0.035940286
98	0xbbce8548	-0.0063025095
99	0xbabde280	-0.0014487058
100	0xbcef657c	-0.029223196
101	0x3d21aa61	0.039469127
102	0x3b733240	0.0037108809
103	0x3cda9026	0.026680063
104	0xbcc21c4f	-0.02369514
105	0x3c2bb04c	0.010479044
106	0x3cae8da6	0.021307778
107	0x3c84a9b8	0.01619421
108	0x3cf389b6	0.029728752
109	0x3d001fab	0.0312802
110	0xbc6bfb56	-0.014403185
111	0xbae37980	-0.0017354935
112	0xbbdfaa18	-0.0068256967
113	0x3b437b10	0.002982799
114	0xbc97d89a	-0.0185359
115	0xbce39285	-0.027779827
116	0xbd00fec3	-0.03149296
117	0x3c1d8978	0.009615295
118	0x3c70b330	0.014691159
119	0xbc551b92	-0.013007062
120	0x3c56db84	0.01311386
121	0x3ce25ef6	0.027633172
122	0x3ad86540	0.0016509667
123	0xbaf9d9a0	-0.001906205
124	0xbd17cf45	-0.037062902
125	0xbc1eb8d8	-0.009687625
126	0xbac31880	-0.0014884621
127	0x3cf6d17e	0.03012919
128	0x3c8ee462	0.017442886
129	0xbbc579d8	-0.006026488
130	0xbd1d4cfb	-0.038403492
131	0xbb553e40	-0.0032538325
132	0xbcaf1fd8	-0.021377489
133	0x3d305947	0.04305389
134	0x3ceac3be	0.02865779
135	0x3cc08d7e	0.023504969
136	0xbba260f0	-0.0049554035
137	0x3af7f0e0	0.0018916391
138	0x3cede4a2	0.029039685
139	0x3cb5cff6	0.02219389
140	0xbc1eef8c	-0.009700667
141	0x3c9e653a	0.019335378
142	0x3c172440	0.009224951
143	0xbc9f213f	-0.019425033
144	0x3d224685	0.039618034
145	0x3c833b42	0.016019467
146	0x3cfe8666	0.031069946
147	0x3c932c46	0.017965447
148	0x3d3244e5	0.043522734
149	0x3c688814	0.0141926
150	0xbc642474	-0.013924707
151	0xbd2cbbfb	-0.04217146
152	0x3bcaa618	0.0061843507
153	0x3d07e2cd	0.03317528
154	0x3c1abd00	0.009444475
155	0x3b146450	0.0022642799
156	0x3d28e8d1	0.041237656
157	0xbcf3b361	-0.02974862
158	0xbd222243	-0.039583456
159	0x3cafa7da	0.021442343
160	0xbaf5f5e0	-0.0018765293
161	0xbcf12791	-0.029437812
162	0x3a873320	0.0010314919
163	0x3a1f63c0	0.00060802326
164	0xbd0a85f2	-0.033819146
165	0x3d1797d3	0.037010025
166	0xbce3def0	-0.027816266
167	0xbc6909bc	-0.014223512
168	0x3cb027e6	0.0215034
169	0xbb994828	-0.004677791
170	0x3c4bc1b8	0.012436323
171	0x3d16b44b	0.036793035
172	0x3d182af3	0.037150335
173	0xbcb4dc22	-0.022077624
174	0xbc6e5af4	-0.014548052
175	0x3c3bd590	0.0114644915
176	0xbd2030d9	-0.039109085
177	0xbd22d93d	-0.039757956
178	0xbcbd33be	-0.023095962
179	0xbd13cf11	-0.036086146
180	0xbd1065ec	-0.03525345
181	0xbd23df14	-0.040007666
182	0xbd1dbc28	-0.038509518
183	0xbd180671	-0.037115518
184	0xbc84d43a	-0.016214479
185	0xbcf7f5f0	-0.03026864
186	0x3ce0220e	0.027359989
187	0xbbf07d60	-0.0073391646
188	0xbd0b14e4	-0.03395547
189	0xbcd3b9ea	-0.025845487
190	0x3c7d5120	0.015461236
191	0x3ce07d1a	0.027403403
192	0x3cf706c2	0.03015459
193	0x3cad8e5a	0.021186043
194	0x3d1f18e5	0.0388421
195	0x3b15c200	0.0022851229
196	0xbcc8e93a	-0.024525274
197	0xbca0a7f6	-0.01961134
198	0xbd154ff3	-0.0364532
199	0x3cd9175e	0.0265004
200	0xbcf378f3	-0.029720759
201	0x3d33801d	0.04382335
202	0xb9c00100	-0.0003662184
203	0xbd2223ee	-0.039585046
204	0xbd30c9ca	-0.04316119
205	0x3ba36428	0.004986305
206	0xbc49ea78	-0.012323968
207	0x3cc62996	0.024189752
208	0x3c9d4dde	0.019202169
209	0x3c8deaf8	0.017323956
210	0xbbf381f8	-0.007431265
211	0x3ae89740	0.0017745271
212	0xbd04780b	-0.032341044
213	0xbc8ef417	-0.017450375
214	0xbceac489	-0.028658168
215	0xbd157ecd	-0.03649788
216	0x3d039c49	0.032131467
217	0x3d15a027	0.036529686
218	0x3b4d0c90	0.0031288005
219	0x3c7978c0	0.015226543
220	0xbc8a4065	-0.016876409
221	0xbc240ad0	-0.0100123435
222	0xbb94e390	-0.004543729
223	0x3c626ea8	0.013820328
224	0x3c6cd18c	0.014454257
225	0x3d074c2d	0.03303163
226	0xbc9987d3	-0.018741524
227	0x3cc0f95e	0.023556408
228	0xbac3a080	-0.0014925152
229	0xbbdeb9f8	-0.0067970715
230	0x3d0bda25	0.034143586
231	0x3d14683d	0.036232222
232	0xbce0fa2e	-0.027463045
233	0xbcaefef3	-0.021361804
234	0xbcc98476	-0.024599295
235	0xbcc5801c	-0.024108939
236	0x3cfa6f66	0.030570697
237	0xbb3fd050	-0.002926845
238	0xbc763b9a	-0.015028859
239	0x3c247fd4	0.010040242
240	0x3c4764b8	0.012170009
241	0x3ccb3caa	0.0248092
242	0xbbc21a88	-0.005923573
243	0x3c9e617a	0.01933359
244	0xbbb46240	-0.0055048764
245	0xbb35f740	-0.002776578
246	0xbbd21208	-0.006410841
247	0x3ba2f110	0.0049725845
248	0xbd2437c9	-0.040092263
249	0x3ce071ba	0.027397979
250	0xbac0d660	-0.0014712326
251	0xbd271d57	-0.040799465
252	0x3bcc7b08	0.0062402524
253	0x3cf224c2	0.029558543
254	0xbbfaff70	-0.007659845
255	0x3cefe0ba	0.029281963

fc2.weight f4 [64, 320]
0	0x3cc3bd34	0.02389393
1	0xbd31caf0	-0.043406427
2	0xbac66700	-0.0015136898
3	0x3c321f08	0.010871656
4	0xba382cc0	-0.0007025711
5	0x3d009b06	0.031397842
6	0xbd354322	-0.044253476
7	0x3ca66d4c	0.020315789
8	0x3d56410e	0.052308135
9	0xbc922702	-0.017840866
10	0x3cebe2ac	0.028794609
11	0xbc261010	-0.010135666
12	0xbcde7288	-0.027154222
13	0x3c9f03b0	0.019410938
14	0x3d30b47a	0.043140866
15	0x3d1f10ec	0.038834497
16	0xbd122e8a	-0.035688914
17	0x3d0b8322	0.034060605
18	0x3cabac84	0.020956285
19	0x3d459c4e	0.048244767
20	0xbcd04940	-0.025425553
21	0x3d20052e	0.03906744
22	0x3d576150	0.05258304
23	0xbb657210	-0.0035010614
24	0x3d492944	0.04911162
25	0xbd34ac73	-0.044109773
26	0x3d024d44	0.031811967
27	0xbc7157ec	-0.014730435
28	0xbc25f144	-0.010128323
29	0xbd34cfb8	-0.04414341
30	0xbd322a4d	-0.043497372
31	0x3bcbc0e0	0.006218061
32	0xbd172842	-0.036903627
33	0x3d35fb6c	0.044429228
34	0xbceb5115	-0.028725186
35	0xbc414370	-0.0117958635
36	0x3c029fd8	0.00797268
37	0xbd00effc	-0.031478867
38	0xbd1f3a1c	-0.038873777
39	0xbcd61447	-0.026132716
40	0xbc553530	-0.013013169
41	0xbd568fd0	-0.052383244
42	0xbd19bf2a	-0.037535824
43	0xbce7a2b1	-0.02827582
44	0x3ca72de0	0.020407617
45	0xbc31d914	-0.010854978
46	0x3d63870e	0.05554872
47	0x3bbaa488	0.005695883
48	0x3d2f103c	0.04274009
49	0x3c87bf50	0.016570717
50	0x3bb6e9f0	0.0055820867
51	0x3ce38884	0.027775057
52	0xbd347712	-0.044058867
53	0x3cad6550	0.021166474
54	0xbd56a4c9	-0.052403245
55	0x3c533bb0	0.012892649
56	0x3bbab038	0.0056972764
57	0xbd0b4db6	-0.034009658
58	0xbc84cf22	-0.01621205
59	0x3cff2f94	0.031150617
60	0xbcf8573e	-0.030315038
61	0xbbc4f600	-0.006010771
62	0x3cf69a58	0.030102894
63	0x3c8dfad0	0.01733151
64	0xbd383321	-0.044970635
65	0x3d154cb2	0.036450095
66	0xbcc98ec6	-0.024604212
67	0xbb1aeb20	-0.002363868
68	0x3d5c2d7a	0.053754307
69	0x3ceb97dc	0.028758936
70	0x3d45be5e	0.04827725
71	0x3c1fda40	0.009756625
72	0xbcd34ecd	-0.025794411
73	0xbd33caf5	-0.043894727
74	0xbd4e940a	-0.05043415
75	0x3d579f72	0.052642293
76	0xba4be900	-0.0007778555
77	0xbc485488	-0.012227185
78	0xbd451898	-0.048119158
79	0x3d311b5e	0.04323899
80	0x3d44d07e	0.048050396
81	0x3d462f5e	0.048385017
82	0x3d1c23a2	0.03811992
83	0x3c14b4b8	0.00907629
84	0xbd4f43f5	-0.05060192
85	0x3d101b5a	0.035182334
86	0xbd45a9ae	-0.048257522
87	0x3d4addb0	0.049527824
88	0xbd175531	-0.03694648
89	0x3cc4af28	0.024009302
90	0xbd35c55a	-0.044377662
91	0x3d3e87c4	0.046516195
92	0xbc3f8dac	-0.011691492
93	0x3b85a928	0.004079003
94	0xbd0e6a69	-0.03476945
95	0x3d213f3e	0.039366953
96	0x3cbc46f8	0.02298306
97	0xbd282ece	-0.04106026
98	0x3cc099f4	0.02351091
99	0xbb650c70	-0.003495004
100	0x3c542c40	0.012950003
101	0x3cbd1818	0.023082778
102	0x3c89df84	0.016830213
103	0x3a7c0dc0	0.0009615086
104	0xbd5cee59	-0.053938244
105	0x3b761ef0	0.0037555061
106	0x3c369ed8	0.01114627
107	0xbccde2a3	-0.025132483
108	0x3b9263f0	0.00446748
109	0xbc85354e	-0.01626077
110	0xbc883424	-0.016626425
111	0x3d2ac044	0.041687265
112	0x3b05d510	0.0020421185
113	0xbd2e6d98	-0.042584985
114	0xbd0f3214	-0.034959868
115	0x3d072f7e	0.033004276
116	0x3ca782b4	0.020448066
117	0x3cbdec08	0.023183838
118	0xbd408118	-0.046998113
119	0x3d5f74c0	0.0545547
120	0xbc163f4c	-0.009170365
121	0xba8aad20	-0.001058016
122	0x3c8e038c	0.017335676
123	0xbd5ed16e	-0.054398946
124	0xbd47ecd9	-0.04880986
125	0x3d3e5d7e	0.04647588
126	0xbd0ef09c	-0.03489743
127	0xbcd51851	-0.026012572
128	0xbd38077a	-0.044929005
129	0x3d28eada	0.041239597
130	0x3b77d460	0.0037815794
131	0xbc0a2738	-0.008432202
132	0xbd017c32	-0.031612583
133	0xbc743348	-0.0149048045
134	0xbd5daa18	-0.054117292
135	0x3d02e614	0.0319577
136	0x3d58808e	0.052856974
137	0x3ca06e28	0.019583777
138	0x3bc7a518	0.0060926788
139	0xbd186e48	-0.037214547
140	0xbd6174ab	-0.055042904
141	0x3d142f6a	0.03617803
142	0x3d577444	0.052601114
143	0x3c1a4148	0.009414978
144	0x3d5e2aca	0.054240026
145	0x3b817b88	0.0039514937
146	0x3c6af9a0	0.014341742
147	0x3c095330	0.00838165
148	0xbca8cdf4	-0.020606019
149	0xbcbbbe86	-0.022917997
150	0x3d48db42	0.049037226
151	0x3d2f2a5a	0.042765
152	0xbce0f2f8	-0.027459607
153	0x3d15f546	0.036610864
154	0xbbd34768	-0.0064477213
155	0xbccf7ef4	-0.02532909
156	0xbc32eec8	-0.010921188
157	0x3bd15e38	0.0063894056
158	0x3cf0a918	0.029377505
159	0xbd1e13ee	-0.038593225
160	0x3c7b5028	0.015338935
161	0xbd57129e	-0.05250799
162	0x3cedc1c8	0.029023066
163	0x3bce4dd0	0.006295897
164	0x3beec200	0.00728631
165	0xbcd44ffe	-0.02591705
166	0x3cc4fc10	0.024045974
167	0x3d367a1c	0.044550046
168	0xbd2f4f90	-0.042800486
169	0xbbc163a8	-0.0059017725
170	0x3c880424	0.016603537
171	0xbd0c8130	-0.03430289
172	0x3c378248	0.011200495
173	0xbc7751b4	-0.015095163
174	0x3d06c5fe	0.032903664
175	0x3c85a264	0.016312785
176	0x3d39fd12	0.045407362
177	0xbbc91788	-0.0061368383
178	0x3ae1b400	0.0017219782
179	0xbca5e908	-0.02025272
180	0x3b6e7da0	0.0036390796
181	0xbd295e8a	-0.041349925
182	0x3d160a60	0.036630988
183	0xbcce4225	-0.025178025
184	0xbca1310a	-0.019676704
185	0x3d148a74	0.03626485
186	0x3c463b60	0.012099117
187	0x3c25d618	0.010121845
188	0x3ce8ca8c	0.028416894
189	0x3cc772f0	0.024346799
190	0xbc7dee3c	-0.015498694
191	0xbc857c30	-0.016294569
192	0x3c684ba8	0.014178194
193	0xbc19dacc	-0.009390544
194	0xbccdd1a8	-0.025124386
195	0xbd07b922	-0.03313554
196	0xbc6a42fc	-0.014298197
197	0xbd42c695	-0.047552664
198	0x3d59df3e	0.053191416
199	0xbd121e5b	-0.03567348
200	0xbd0537d6	-0.032523952
201	0x3af7b020	0.0018897094
202	0xbbd6d9f8	-0.0065567456
203	0xbaf0db20	-0.0018375851
204	0x3d60ca4c	0.054880425
205	0x3d1c22fe	0.03811931
206	0x3c97c788	0.018527761
207	0x3cf3ed10	0.029776126
208	0xbd0529b2	-0.032510467
209	0x3c9b9d28	0.018995836
210	0xb9c7c800	-0.0003810525
211	0xbbd75ad0	-0.006572105
212	0x3d46991e	0.048485868
213	0xbd2c7b33	-0.04210968
214	0x3c98c1f8	0.018647179
215	0x3d468d2c	0.048474476
216	0x3d46ab68	0.04850331
217	0x3c47e380	0.012200236
218	0xbc0e31a0	-0.008678824
219	0x3d0f5814	0.034996107
220	0xbb4bb0c0	-0.0031080693
221	0x3caa1698	0.020762727
222	0x3d42efdc	0.04759203
223	0x3d46c804	0.048530594
224	0x3cc0d83c	0.023540609
225	0xbd44cb60	-0.048045516
226	0xbbba8398	-0.0056919567
227	0x39cac400	0.00038674474
228	0xbd61366a	-0.054983534
229	0xbbab9190	-0.0052358583
230	0x3d0a992a	0.033837475
231	0x3c9443d8	0.018098757
232	0xbce23178	-0.02761148
233	0xbce2f141	-0.02770293
234	0x3b334410	0.00273538
235	0x3c07acb8	0.008280925
236	0xbcfc06f9	-0.030765044
237	0x3c9811a0	0.018563092
238	0x3c8a1d80	0.01685977
239	0xbd232bd2	-0.039836712
240	0xbc7fa700	-0.015603781
241	0xbc9d4960	-0.019200027
242	0x3d168c46	0.03675487
243	0xbd51e5f5	-0.051244695
244	0xbd0979c2	-0.033563383
245	0xbd3cd911	-0.04610545
246	0x3d213374	0.03935571
247	0xbd28a005	-0.04116823
248	0x3ca5211c	0.02015739
249	0x3d541846	0.05178096
250	0x3cd3eccc	0.02586975
251	0xbccbca26	-0.024876665
252	0xbcc0ac20	-0.023519576
253	0x3bc045e8	0.0058677085
254	0x3d179a1a	0.037012197
255	0xbca02ee6	-0.019553613

fc2.bias f4 [64]
0	0x3d4bcae8	0.049754053
1	0x3d1abbe6	0.03777685
2	0x3d53b562	0.051686652
3	0x3ce98f54	0.028510727
4	0x3d114672	0.035467573
5	0x3d4f2f40	0.05058217
6	0x3cc48f9c	0.02399426
7	0xbd5eba9c	-0.054377183
8	0x3ccf4d88	0.025305524
9	0x3bb95808	0.005656246
10	0x3d5ebc42	0.054378755
11	0xbd5dcf80	-0.054152966
12	0x3d2d6356	0.042331062
13	0xbcba5150	-0.022743851
14	0x3d56c692	0.052435465
15	0x3d15b43a	0.03654883
16	0xba9fda40	-0.0012195781
17	0xbd023fba	-0.031799056
18	0x3d5e06e0	0.054205775
19	0x3956dc00	0.00020490587
20	0x3d5ca720	0.05387032
21	0xbd02d0d2	-0.031937428
22	0xbd1a8d40	-0.037732363
23	0xbd1216e3	-0.035666358
24	0xbc9fc310	-0.019502193
25	0xbcde7623	-0.027155941
26	0x3d2f7c22	0.04284299
27	0x3d27375e	0.040824287
28	0xbd052a1c	-0.03251086
29	0x3cf4f5a0	0.02990228
30	0x3caac98c	0.020848058
31	0x3d097940	0.0335629
32	0x3c0aa650	0.008462504
33	0xbbe50d88	-0.0069901384
34	0x3cd58300	0.026063442
35	0xba8a9480	-0.0010572821
36	0x3d38f57a	0.04515598
37	0xbb255990	-0.0025230385
38	0xbcef4c3a	-0.029211152
39	0xbd0ace32	-0.03388805
40	0x3d18ef72	0.037337728
41	0xbd300105	-0.042969722
42	0xbb4cb8a0	-0.0031237975
43	0xbd48cd06	-0.04902365
44	0x3d499258	0.04921183
45	0xbbf3c048	-0.007438693
46	0xbcd34400	-0.02578926
47	0x3d1a5bfa	0.037685372
48	0xbc9dade8	-0.019247964
49	0x3b221d10	0.002473656
50	0x3be9bf50	0.007133402
51	0x3d4a9cc0	0.049465895
52	0xbd1ba1b6	-0.037996016
53	0xba6e2bc0	-0.0009085499
54	0xbaf2b200	-0.0018516183
55	0x3cc94014	0.024566688
56	0x3d0d16d2	0.03444559
57	0x3c6eca90	0.014574662
58	0xbc90f7ec	-0.017696343
59	0x3d49b694	0.049246386
60	0xbc35b4ac	-0.011090439
61	0x3b934140	0.0044938624
62	0xbd106580	-0.035253048
63	0xbb84b5d0	-0.004049994

fc3.weight f4 [8, 64]
0	0x3d439888	0.047752887
1	0x3d00a77c	0.031409726
2	0xbdcb2062	-0.09918286
3	0x3b909380	0.0044121146
4	0x3ce854c8	0.02836074
5	0x3d54ea70	0.05198139
6	0xbc656850	-0.014001921
7	0x3cbd28c8	0.023090735
8	0xbd8cc5be	-0.06873654
9	0x3dc48bfe	0.09597014
10	0xbc869998	-0.016430661
11	0xbd4af92c	-0.049554035
12	0x3d36df78	0.04464671
13	0x3d41ce24	0.04731573
14	0xbca898d8	-0.020580694
15	0x3d62c344	0.055362
16	0xb9068800	-0.000128299
17	0x3c961b28	0.018323496
18	0x3d83c252	0.06433548
19	0x3d4a0278	0.04931876
20	0x3ca78db0	0.020453304
21	0xbdce949c	-0.10086939
22	0x3cefbf60	0.02926606
23	0x3dc49456	0.09598605
24	0x3da652ba	0.081212476
25	0x3d5084d0	0.05090791
26	0xbde88e50	-0.11355269
27	0xbdbe0b94	-0.09279552
28	0xbd8adb6c	-0.06780133
29	0x3d0d1bf0	0.03445047
30	0x3dfb854a	0.12281282
31	0x3a4bdf00	0.0007777065
32	0x3d96ec80	0.073693275
33	0x3d830792	0.06397928
34	0x3db03b3e	0.086050496
35	0x3b1616c0	0.0022901744
36	0xbdd03566	-0.10166435
37	0x3c2912d0	0.010319427
38	0x3b2e5a00	0.0026603937
39	0x3d769de0	0.060209155
40	0x3de8de80	0.113705635
41	0x3d984334	0.07434693
42	0x3de93d42	0.11388637
43	0xbda28f50	-0.07937491
44	0xbd98769e	-0.074444994
45	0x3df0fc64	0.1176689
46	0xbdd2876c	-0.10279736
47	0x3d65b168	0.05607739
48	0x3dcedb30	0.101004004
49	0xbd4d10f8	-0.05006501
50	0xbd2ffe58	-0.04296717
51	0xbd9c3486	-0.076272056
52	0xbcaccec0	-0.02109468
53	0x3df4951c	0.11942503
54	0xbcdeeaa0	-0.027211487
55	0x3d6e35c0	0.05815673
56	0x3d800944	0.06251767
57	0xbdc375c6	-0.09543948
58	0x3dca6364	0.098822385
59	0xbb4d1580	-0.0031293333
60	0x3d75cb68	0.060008436
61	0xbd500b10	-0.0507918
62	0x3cd8cf58	0.026466057
63	0xbce74b20	-0.028234065
64	0x3b850000	0.004058838
65	0x3c3957c0	0.011312425
66	0xbd49dc28	-0.049282223
67	0xbcf70270	-0.03015253
68	0xbdf295d6	-0.11844985
69	0xbd0c1cd4	-0.03420718
70	0x3db4ecfa	0.08834262
71	0x3d659ce0	0.05605781
72	0x3d5b6eb8	0.053572387
73	0x3cf15880	0.029461145
74	0xbde5eb46	-0.112265155
75	0xbdfd5328	-0.123693764
76	0xbcc89878	-0.024486765
77	0x3daa69aa	0.08320935
78	0x3d92840c	0.07154092
79	0xbd04965c	-0.032369956
80	0xbd3a4ad8	-0.045481533
81	0xbdce9e7e	-0.10088824
82	0x3dfa2d82	0.12215711
83	0xbd80ec9a	-0.06295128
84	0x3c710890	0.014711514
85	0xbda1d860	-0.079025984
86	0x3bb9b000	0.005666733
87	0xbd16f6b4	-0.03685637
88	0xbd6d7b7c	-0.057979092
89	0x3d5bae6c	0.05363314
90	0x3dc2cc46	0.09511618
91	0x3d8005ee	0.06251131
92	0xbdb9eb12	-0.09078039
93	0x3cf584b8	0.029970512
94	0x3d9d5c62	0.07683636
95	0x3d843bc8	0.06456715
96	0x3d9f3280	0.07773304
97	0x3c9ac180	0.018891096
98	0x3bb46580	0.005505264
99	0xbca69ec0	-0.02033937
100	0x3dda0238	0.106449544
101	0xbc395210	-0.011311069
102	0x3c05a100	0.008156061
103	0x3de749c6	0.11293368
104	0xbb7c02c0	-0.0038453788
105	0x3c56c040	0.013107359
106	0x3d4244b8	0.047428817
107	0x3ce1c6d0	0.027560622
108	0xbdd472ae	-0.10373436
109	0xbde4c62c	-0.11170611
110	0x3c542590	0.012948409
111	0xbb6aeac0	-0.0035845488
112	0xbcfdd740	-0.030986428
113	0x3abf6f80	0.0014605373
114	0x3d98bb18	0.0745756
115	0x3de9f736	0.11424105
116	0x3da2cb1c	0.07948896
117	0x3ac28780	0.0014841408
118	0xbda4c2d0	-0.0804497
119	0xbd9cb116	-0.07650964
120	0xbde97f28	-0.11401206
121	0x3de46a26	0.11153059
122	0x3d8d0042	0.06884815
123	0xbdbb290c	-0.091386884
124	0xbd54d8c0	-0.05196452
125	0xbd085568	-0.033284575
126	0xbd81935c	-0.06326935
127	0x3c3914d0	0.011296466
128	0x3d2d37c4	0.04228951
129	0x3d176d14	0.03696926
130	0x3dd52ed8	0.10409325
131	0x3db510e0	0.08841109
132	0xbdc3bd4e	-0.095575914
133	0x3c924f28	0.01786001
134	0x3dccc27c	0.099980325
135	0xbdff0c0e	-0.12453471
136	0xbbb5b160	-0.0055448264
137	0xbdb3b034	-0.087738425
138	0xbca96408	-0.020677581
139	0x3df65a54	0.120289475
140	0x3dcd3894	0.10020557
141	0x3d834760	0.06410098
142	0x3c8e0798	0.017337605
143	0xbdcb72e4	-0.09934023
144	0x3d763bf4	0.06011577
145	0xbdaaeb6c	-0.083456844
146	0xbda27748	-0.07932907
147	0xbdd45f0c	-0.10369691
148	0x3d01eebc	0.031721815
149	0xbdd67020	-0.10470605
150	0xbd48e368	-0.049044997
151	0x3daa2522	0.08307864
152	0xbc815d80	-0.015791655
153	0xbd8cce18	-0.06875247
154	0xbd1dfe30	-0.03857249
155	0xbddb5a5a	-0.107105926
156	0xbd94ec24	-0.07271603
157	0x3cabb7c8	0.020961657
158	0xbd69be50	-0.05706626
159	0xbc0aa910	-0.008463159
160	0x3da68440	0.081306934
161	0x3da9f460	0.08298564
162	0xbdf3db7e	-0.11907099
163	0xbde45100	-0.11148262
164	0xbde3c432	-0.11121406
165	0x3ddfb5f4	0.10923377
166	0xbd4f3be0	-0.05059421
167	0xbd9a5b44	-0.07536939
168	0xbdf2b5e6	-0.118511006
169	0xbda824f2	-0.08210172
170	0xbbddaec0	-0.0067652166
171	0x3d19a998	0.037515253
172	0xbc2dc580	-0.01060617
173	0xbdae8650	-0.08521712
174	0xbd05a9a0	-0.03263247
175	0xbdd6c2f6	-0.104864046
176	0xbda39f14	-0.07989326
177	0x3cf953b8	0.030435428
178	0x3dfbaaa6	0.12288408
179	0x3deea210	0.11652005
180	0x3d8e4934	0.06947556
181	0xbdc80632	-0.09766807
182	0x3dbb8f5e	0.091582045
183	0xbd01f3f4	-0.031726792
184	0xbc37f860	-0.011228651
185	0x3db88c68	0.09011155
186	0xbd5314bc	-0.051533446
187	0xbdb13c04	-0.08654025
188	0x3d1952a8	0.037432343
189	0xbd12eb88	-0.03586915
190	0xbdfd3d1c	-0.12365171
191	0xbcd8bba0	-0.026456654
192	0xbde00d92	-0.10940088
193	0xbdae8dee	-0.08523165
194	0x3decdc8a	0.11565502
195	0x3d644ea0	0.055739045
196	0xbd901860	-0.07035899
197	0xbd85621c	-0.065128535
198	0x3d8cca7e	0.0687456
199	0x3dfa89fa	0.12233348
200	0xbd2045f0	-0.039129198
201	0x3dd97840	0.10618639
202	0xbcd77078	-0.026298746
203	0xbc81a758	-0.015826866
204	0xbdd5a7a8	-0.104323685
205	0x3da493c6	0.08035998
206	0xbd17f680	-0.037100315
207	0x3d08650c	0.03329949
208	0xbdc748b8	-0.09730667
209	0xbd403aa8	-0.04693094
210	0x3df2f842	0.11863758
211	0xbc3814a0	-0.011235386
212	0x3d0b8668	0.034063727
213	0xbd1bdde4	-0.03805341
214	0xbc8647f0	-0.016391724
215	0x3d705974	0.05867906
216	0x3debc0b4	0.115113646
217	0xbb4a8a80	-0.0030905306
218	0xbdf6f20c	-0.120578855
219	0x3cea5648	0.028605595
220	0x3d59fe24	0.053220883
221	0xbd080508	-0.033207923
222	0x3dadf8ea	0.08494742
223	0xbd8bc18e	-0.06824027
224	0xbded5a1e	-0.11589454
225	0x3dfe60e4	0.12420824
226	0x3d994f86	0.07485871
227	0xbd982140	-0.07428217
228	0x3ddec568	0.10877496
229	0xbdeefc52	-0.1166922
230	0xbcd0b860	-0.025478542
231	0xbc8806a8	-0.016604736
232	0xbcb601a0	-0.022217572
233	0x3d091864	0.033470526
234	0xbdf09204	-0.117466
235	0x3d564ff8	0.052322358
236	0xbcd0aa88	-0.02547194
237	0x3b4d1a40	0.0031296164
238	0x3cd1d5f8	0.025614724
239	0x3de013f4	0.10941306
240	0xbdd21d2a	-0.10259469
241	0x3d68c5bc	0.0568292
242	0x3d30262c	0.043005154
243	0xbd2cc5c8	-0.042180806
244	0xbdabf238	-0.08395809
245	0x3c65a590	0.014016524
246	0xbd907de6	-0.07055263
247	0x3d0231c4	0.03178574
248	0x3d7fb730	0.06243056
249	0x3d012b30	0.031535327
250	0xbde94a88	-0.11391169
251	0x3c1f2da0	0.009715468
252	0x3d2ac77c	0.04169415
253	0x3cbb9838	0.022899732
254	0x3d32fae8	0.043696314
255	0xbbc8fbe0	-0.0061335415

fc3.bias f4 [8]
0	0x3c3feb80	0.011713862
1	0x3d3a45cc	0.04547672
2	0x3c8ba130	0.017044634
3	0x3d89d736	0.06730501
4	0x3df12906	0.11775403
5	0xbcdb3d28	-0.02676256
6	0x3d40ba00	0.047052383
7	0x3d64ab30	0.05582732

fc4.weight f4 [4, 8]
0	0xbdbfa800	-0.09358215
1	0xbd68a8a8	-0.056801468
2	0x3eac7a65	0.3368713
3	0x3e50a666	0.20375976
4	0xbe39bd7c	-0.18138689
5	0xbe91df4c	-0.28490674
6	0x3e4facea	0.20280805
7	0x3e29a18a	0.16565529
8	0x3e8b7641	0.27238658
9	0xbe9c03c7	-0.30471632
10	0x3deee484	0.1166468
11	0xbe8c8fd3	-0.2745348
12	0x3e6f1952	0.23349503
13	0xbe8766d6	-0.26445645
14	0x3d3680a0	0.04455626
15	0x3ea2a4bb	0.31766304
16	0xbe8070dc	-0.25086105
17	0xbeb3a36b	-0.35085616
18	0xbe6de37c	-0.2323131
19	0xbdc358fc	-0.09538457
20	0xbe662dd3	-0.22478418
21	0xbe5f113f	-0.21783923
22	0xbe0ddcdf	-0.13853787
23	0xbe25da3f	-0.16196536
24	0x3e83d01f	0.2574472
25	0x3e45ce2e	0.19316933
26	0xbe588ca7	-0.21147405
27	0xbe6b3b82	-0.22971919
28	0x3eaaa927	0.33332178
29	0xbe66c153	-0.22534685
30	0xbe6803a5	-0.2265764
31	0x3ea0d98b	0.31415972

fc4.bias f4 [4]
0	0xbe9aff6f	-0.30273005
1	0xbd7663f8	-0.06015393
2	0xbdc87284	-0.09787467
3	0xbe938dec	-0.28819215
