model/ppo_gemini_2021_07_20_09_15_37.pth (torch, 94591 bytes, 14 tensors)

actor.0.weight f4 [128, 5]
-0.34326124 -0.2602064 -0.36401272 0.07777157 0.24503566 -0.5801679 -0.39090863 0.12790778
-0.1627696 -1.3620613 -0.5227868 -0.39624727 0.0919011 -0.21109079 0.14862993 0.27624905
-0.53830075 -0.18160798 0.09966787 -0.5565859 -1.2821662 -1.9572613 0.69388014 -0.813936
0.32021034 0.2875169 -2.2314374 0.6547034 -1.1694938 -0.541659 0.35578856 0.17998655
-1.0347441 -0.8160373 1.3825065 0.18446925 -0.14788535 -0.70418054 0.13536243 -1.0457724
-0.013370944 -0.20530124 -0.40769964 0.20298615 0.0056150258 -0.09815451 -0.35548344 0.041551918
-0.37079328 0.10682336 -0.36740902 0.21623416 0.17732675 0.07456361 -0.276598 -1.1166869
0.44507656 -0.6797792 0.7503114 1.121941 -1.1851898 0.29535973 -1.4334275 0.57247865
-2.035175 0.11351572 0.19015813 0.015840681 -0.17478825 -0.028414823 -0.2235049 -0.99446034
-0.056608 -0.2761501 0.54110456 0.17143907 -0.14946812 -0.39975533 -0.3178253 -0.4336011
-0.09827865 -0.19651625 -0.23472369 -0.27046263 -0.7351246 0.026025936 -0.020788366 0.063487925
-0.4180241 -0.2514049 0.14157054 -0.24808954 -0.43621954 -0.16684118 0.0033681998 -0.19634868
-0.32964754 -0.10726729 -0.20967488 -0.21438985 0.072932646 -0.36918974 -0.35890833 0.21379499
-0.046447452 -0.46351382 0.16088176 0.23901303 -0.017868636 -0.29778096 -0.029227877 -1.5276637
-1.0115567 0.7106803 -1.2635921 -0.17706607 -0.17140979 -0.0147496555 -0.42540646 -0.7987985
-0.08503687 -0.73670053 0.39173877 -1.0184191 -1.1134666 -0.41864625 0.055610113 -0.3238062
0.259942 -0.13738205 -0.51772076 -0.15406938 -0.25367138 0.08670643 -0.4938403 -0.42739558
-0.55146015 0.13808873 0.12828843 -0.08377152 -0.29477346 0.12387209 -0.47619858 -0.17551322
0.13420172 -0.110037796 0.17971012 -0.17773211 0.07762676 -0.1615062 0.13796383 0.14928104
0.20144331 0.053239137 -0.10617016 0.036194324 0.08856048 -0.051024128 -0.2464993 -0.24303843
-0.62140435 -0.44268396 0.12772347 -0.50670195 -1.4905025 -0.23971671 -0.116482206 -0.5253895
0.1429725 0.21814772 -0.66697854 0.4929449 -0.46402895 -1.3283257 -0.37805912 0.14164625
-1.1882184 -0.43527216 -0.7135577 0.18651257 0.1486211 -0.1616286 0.22570124 -0.45321873
-0.40625688 -0.5649768 0.008859472 -0.43599683 -0.064538956 0.10135819 0.03745592 -0.9867061
-1.2263013 -0.28586838 1.2946203 -0.2992612 -0.6315803 0.55539304 0.071385205 0.046907943
-0.004734412 -0.66232353 1.2247647 0.11675662 -0.94285685 -1.8492466 -0.5910544 -0.18512161
-0.24731891 0.25192797 -0.28571576 0.10995956 -0.21859397 -3.611825 -1.2620313 -1.6802437
-0.38904727 -0.39058015 0.38992688 1.2881961 -0.95835835 -0.4002007 0.1927737 -0.80975956
-0.13716805 0.56330943 -0.45756364 -1.3822227 1.0597917 -0.45256442 -0.28709313 0.12830098
-0.10597229 0.04973957 -0.27169377 -0.35754907 -0.051377695 0.08344386 -0.44298387 0.18806615
0.5308785 0.022635033 1.4844553 0.4725964 -1.967444 1.1155883 -0.9311059 0.61465067
-0.7769641 -0.16825221 -0.1886527 0.4499243 0.6359315 -2.5634136 0.26554072 0.07350938
00000000: f0bf afbe c639 85be e05f babe b346 9f3d
00000010: a1ea 7a3e e285 14bf 2d25 c8be 42fa 023e
00000020: 13ad 26be 0658 aebf 5bd5 05bf ece0 cabe
00000030: a536 bc3d 2f28 58be 7232 183e 8470 8d3e
00000040: 14ce 09bf 71f7 39be ab1e cc3d 6a7c 0ebf
00000050: 061e a4bf 8a87 fabf 21a2 313f 1c5e 50bf
00000060: 9cf2 a33e 6a35 933e dfcf 0ec0 a49a 273f
00000070: f9b1 95bf 2aaa 0abf eb29 b63e 654e 383e
00000080: 7f72 84bf d2e7 50bf f9f5 b03f 82e5 3c3e
00000090: 426f 17be 2d45 34bf 739c 0a3e dfdb 85bf
000000a0: ce11 5bbc 7d3a 52be 02be d0be 9adb 4f3e
000000b0: 40fe b73b 3b05 c9bd ed01 b6be 5832 2a3d
000000c0: 9ed8 bdbe 35c6 da3d 091d bcbe 7d6c 5d3e
000000d0: 2595 353e ceb4 983d 419e 8dbe 99ef 8ebf
000000e0: 13e1 e33e 0206 2ebf 6814 403f c39b 8f3f
000000f0: 4db4 97bf 6439 973e 8d7a b7bf f68d 123f
00000100: 4f40 02c0 ee7a e83d d0b8 423e 51c4 813c
00000110: b1fb 32be 34c6 e8bc 78de 64be f494 7ebf
00000120: cadd 67bd 8c63 8dbe d485 0a3f b98d 2f3e
00000130: 2c0e 19be bbac ccbe ffb9 a2be f700 debe
00000140: 5146 c9bd 8e3b 49be 685b 70be 147a 8abe
00000150: 2031 3cbf 5834 d53c 5d4c aabc f505 823d
00000160: 4107 d6be 25b8 80be def7 103e 2f0b 7ebe
00000170: 2b58 dfbe 6ad8 2abe 04bd 5c3b a10f 49be
00000180: 90c7 a8be f4ae dbbd 03b5 56be 0389 5bbe
00000190: b65d 953d 7006 bdbe d5c2 b7be 13ed 5a3e
000001a0: af3f 3ebd af51 edbe 30be 243e d5bf 743e
000001b0: 3f61 92bc bf76 98be 4d6f efbc 7c8a c3bf
000001c0: b17a 81bf 25ef 353f 63bd a1bf cf50 35be
000001d0: 0c86 2fbe 8aa8 71bc e0ce d9be 0f7e 4cbf
000001e0: cf27 aebd 6898 3cbf fc91 c83e 8f5b 82bf
000001f0: 1386 8ebf cd58 d6be 6ec7 633d edc9 a5be
00000200: 1e17 853e e1ad 0cbe 5989 04bf 5dc4 1dbe
00000210: 37e1 81be 2493 b13d a3d8 fcbe 98d3 dabe
00000220: 7e2c 0dbf 2267 0d3e 0b5e 033e 6790 abbd
00000230: 8cec 96be a6b0 fd3d 4dd0 f3be bdb9 33be
00000240: 2d6c 093e 7f5b e1bd ee05 383e 68ff 35be
00000250: c7fa 9e3d e261 25be 6446 0d3e 21dd 183e
00000260: 2847 4e3e 4811 5a3d be6f d9bd 8040 143d
00000270: 325f b53d adfe 50bd 506a 7cbe 11df 78be
00000280: 5b14 1fbf 79a7 e2be f1c9 023e 38b7 01bf
00000290: c9c8 bebf 4c78 75be 398e eebd ed7f 06bf
000002a0: 6267 123e 1e62 5f3e 1bbf 2abf 4663 fc3e
000002b0: 3495 edbe 9406 aabf f790 c1be b70b 113e
000002c0: 8a17 98bf fedb debe b8ab 36bf 27fd 3e3e
000002d0: 2130 183e f881 25be 3a1e 673e 490c e8be
000002e0: e700 d0be 52a2 10bf 5227 113c fa3a dfbe
000002f0: 002d 84bd e294 cf3d 616b 193d c598 7cbf
00000300: 71f7 9cbf 575d 92be 1eb6 a53f c438 99be
00000310: 3faf 21bf 3d2e 0e3f 6832 923d 8b22 403d
00000320: 2023 9bbb 098e 29bf 17c5 9c3f 181e ef3d
00000330: 115f 71bf 1db4 ecbf 574f 17bf 8590 3dbe
00000340: 2b41 7dbe b4fc 803e 5649 92be 7a32 e13d
00000350: 19d7 5fbe 2428 67c0 3e8a a1bf 3a12 d7bf
00000360: 3431 c7be 1ffa c7be 7fa4 c73e 9ce3 a43f
00000370: f956 75bf 1be7 ccbe 7866 453e 674c 4fbf
00000380: c875 0cbe 0c35 103f c845 eabe acec b0bf
00000390: 41a7 873f 86b6 e7be dffd 92be 5561 033e
000003a0: 0008 d9bd b8bb 4b3d 721b 8bbe ac10 b7be
000003b0: 6b71 52bd 9de4 aa3d c8ce e2be 6a94 403e
000003c0: a7e7 073f 1b6d b93c a202 be3f 28f8 f13e
000003d0: 34d5 fbbf 99cb 8e3f f55c 6ebf bf59 1d3f
000003e0: 1fe7 46bf 4f4a 2cbe 2c2e 41be 7a5c e63e
000003f0: 68cc 223f f80e 24c0 f4f4 873e 168c 963d

actor.0.bias f4 [128]
-0.5012842 -0.017970907 -0.14991929 -0.41579735 -0.644765 -0.3321229 -0.21099837 -0.29578424
-0.23814993 -0.4396663 -0.5370039 -0.51370287 -0.5111499 -0.4413776 -0.60192364 -0.35439888
-0.0012478428 -0.5605029 -0.37821957 -0.3850932 -0.27049536 -0.36773106 -0.6131558 -0.0025894367
-0.25082397 -0.3985778 -0.1324521 -0.0891 -0.22768499 -0.23954101 -0.46065745 -0.4461005
-0.19573902 -0.35970256 0.41883102 -0.5969567 -0.5396318 -0.101614274 -0.10221851 -0.49161085
-0.42840204 0.2403136 -0.11938335 -0.007571435 -0.35091263 -0.7026337 -0.3652065 -0.373015
0.15647782 0.07879888 -0.4964959 -0.23935404 -0.26027355 0.3969944 -0.79945374 -0.43476912
-0.6245813 -0.24863185 -0.44571498 -0.04905341 -0.32165852 -0.38749453 0.8308209 -0.18912674
-0.25429484 -0.35664546 0.27004072 0.01003194 -0.0126042785 0.47747803 0.63445824 0.6474579
0.11177428 -0.449195 -0.004087269 0.79464316 -0.2626095 -0.71152186 -0.046781603 -0.17908427
-0.0057497225 -0.35177016 -0.28628278 -0.17329769 -0.63643825 -0.006938374 0.41093072 -0.01682414
-0.58776397 -0.39251718 -0.66766167 -0.2521498 -0.38682365 -0.3217823 -0.31210726 -0.2615423
-0.62940645 -1.0682976 -0.3160507 -0.47250417 0.31567112 -0.21134695 -0.33603388 -0.14819331
-0.59876955 -0.007423272 -0.26348826 0.025718475 -0.050983313 0.76517576 -0.07711071 -0.30614042
0.5073751 -0.4451525 -0.17751783 -0.15088195 -0.47917813 0.7418218 -0.21079394 -0.26446444
0.7176415 -0.17092414 -0.27885517 -0.45825627 -0.4051736 -0.15792337 -0.24826601 -0.5109988
00000000: 2954 00bf b937 93bc 7184 19be 64e3 d4be
00000010: 520f 25bf 030c aabe f50f 58be 0871 97be
00000020: 93dd 73be f11b e1be 1679 09bf 0882 03bf
00000030: b8da 02bf 3ffc e1be ab17 1abf c573 b5be
00000040: a88e a3ba 1e7d 0fbf ffa5 c1be f02a c5be
00000050: 5e7e 8abe 3f47 bcbe c7f7 1cbf 8ab3 29bb
00000060: 006c 80be 6412 ccbe 86a1 07be 107a b6bd
00000070: 4126 69be 3d4a 75be 4bdb ebbe 4967 e4be
00000080: cf6f 48be ef2a b8be 0571 d63e 27d2 18bf
00000090: 4f25 0abf 251b d0bd f057 d1bd 6bb4 fbbe
000000a0: 8357 dbbe c514 763e 427f f4bd cd19 f8bb
000000b0: d2aa b3be cddf 33bf 59fc babe d2fb bebe
000000c0: b93b 203e 4f61 a13d b634 febe 3a19 75be
000000d0: 9342 85be da42 cb3e 00a9 4cbf 0f9a debe
000000e0: 8fe4 1fbf 5999 7ebe c134 e4be 3aec 48bd
000000f0: 6db0 a4be af65 c6be aeb0 543f 71aa 41be
00000100: ef32 82be 3c9a b6be c742 8a3e 025d 243c
00000110: 2d82 4ebc 0078 f43e db6b 223f cdbf 253f
00000120: eae9 e43d e3fc e5be 7fee 85bb bc6d 4b3f
00000130: c174 86be 4c26 36bf 119e 3fbd de61 37be
00000140: 2b68 bcbb 381b b4be a893 92be f374 31be
00000150: 9eed 22bf 4d5b e3bb 8365 d23e c7d2 89bc
00000160: b377 16bf 03f8 c8be e0eb 2abf c719 81be
00000170: c00d c6be a6c0 a4be 86cc 9fbe dfe8 85be
00000180: c820 21bf fabd 88bf 66d1 a1be 11ec f1be
00000190: a59f a13e 566b 58be a20c acbe fdbf 17be
000001a0: f648 19bf eb3e f3bb efe7 86be 8daf d23c
000001b0: e1d3 50bd 8fe2 433f 38ec 9dbd 70be 9cbe
000001c0: 56e3 013f 07eb e3be 3cc7 35be cc80 1abe
000001d0: d656 f5be 09e8 3d3f 5eda 57be e267 87be
000001e0: 5ab7 373f bd06 2fbe 1bc6 8ebe 91a0 eabe
000001f0: ea72 cfbe aab6 21be 7239 7ebe d1d0 02bf

actor.2.weight f4 [64, 128]
-0.07785114 0.054464895 0.0065371133 0.035546966 -0.04273684 -0.042662725 -0.08736837 -0.1083261
-0.09899642 0.08564543 0.06013077 -0.077523105 -0.009775846 0.046308625 -0.05449359 -0.073307276
-0.04442361 0.058137204 0.08325878 -0.081867024 0.0026246316 -0.005923245 -0.074030526 -0.0668361
-0.075401135 -0.01652458 -0.011951771 0.02382634 0.04689042 0.04136406 0.05280811 -0.001132528
-0.041593138 -0.052034184 -0.040204886 -0.10149234 0.033848614 0.013043815 -0.14414749 -0.0981143
-0.025784979 -0.046535216 -0.012976738 0.052019965 -0.047531046 0.06181745 0.06564102 0.016743151
0.0041346303 0.06509039 -2.4846187e-05 -0.010227586 0.0036979618 -0.11846141 -0.04716997 -0.055847418
-0.039954692 -0.10249487 0.04148235 -0.03638194 0.07528703 -0.08002207 -0.050491035 0.06547907
0.04733523 0.029330887 -0.055349104 -0.04872997 -0.06964985 0.02510995 -0.029750332 -0.04318035
-0.03425199 0.050375953 -0.044054974 0.018925427 -0.050000954 0.024563327 -0.09905827 0.004828562
0.02100374 -0.0021941129 -0.0914007 0.023094835 -0.051375564 -0.04900316 0.029008117 0.023716148
-0.08239803 0.056938022 -0.16671348 -0.05038171 -0.00083831133 -0.039295882 -0.060858976 0.05940102
-0.008425717 0.014072426 -0.07213079 -0.030956239 0.065271966 -0.09002857 -0.0889175 0.06427278
-0.00688229 -0.03609984 -0.10234494 -0.0064597074 -0.099310815 0.065184355 0.08256132 -0.061343715
-0.11941928 -0.05945344 -0.06949825 -0.054941885 -0.09100823 0.017340066 -0.005031377 0.051859714
-0.06269174 0.04494778 0.01797348 0.05434913 0.03442663 0.10213768 -0.032626443 -0.044991463
0.035951734 -0.068245426 -0.061292548 0.05346312 0.30667546 2.2018654 0.15544794 0.4770127
0.0640821 0.07226699 0.014148047 -3.4907994 0.46255618 0.039493404 -0.08517042 -0.049630065
0.02398407 0.058699515 -0.070452474 -0.05824201 0.035416577 0.060652066 1.8457211 0.052493144
-0.7625936 0.22358908 0.13278195 -0.03510445 -0.05114975 0.09490238 -0.19319275 -0.0068197395
0.072707884 0.08384769 0.1937947 0.7074008 0.099902995 -0.06414247 -0.3288228 0.11566038
0.8181507 -1.7285708 0.18637863 -0.41109022 -0.012260232 0.9026648 -0.02341605 -0.051860757
0.9384341 0.36047402 0.056923073 0.061782673 -0.73651344 0.07977591 1.2823479 0.21759112
-0.13042761 -1.8174672 -0.2244797 0.19349854 -0.18470399 0.07643685 -0.5160925 0.9157098
-0.040928274 -0.03147381 2.2197866 0.25336212 -0.056907542 -0.5404384 0.31863648 0.90599227
-1.5141615 0.037699725 -0.053728897 -1.9333742 -0.33060443 -0.96258783 -0.07144287 0.7253877
-0.010086657 0.009766413 -0.026985357 1.6365558 2.4488928 -0.33845156 0.10665271 -0.026885182
-0.542689 0.016517676 0.69306856 1.9096861 -0.8422273 -0.19093037 -0.018017368 0.4608558
0.25571766 -0.8110796 0.22959812 0.06856683 -1.2671614 0.012863778 0.67324764 -0.022250762
0.020693345 0.581179 0.0947189 0.35219696 -0.31487066 -0.7726447 0.12335693 -0.0975583
-0.759659 -0.1761314 -0.043017928 -0.043488022 -0.3410856 -0.46457675 -0.46562 0.016742064
0.8464194 0.13252553 0.061723307 -0.056798242 0.010770616 0.014973646 0.15087163 0.055898126
00000000: 6b70 9fbd 9516 5f3d 4835 d63b b299 113d
00000010: d30c 2fbd 1cbf 2ebd 30ee b2bd 13da ddbd
00000020: a3be cabd df66 af3d af4b 763d 6fc4 9ebd
00000030: df2a 20bc 1dae 3d3d ac34 5fbd 2022 96bd
00000040: 88f5 35bd 4721 6e3d 9483 aa3d e6a9 a7bd
00000050: 0302 2c3b c817 c2bb 519d 97bd 5de1 88bd
00000060: e96b 9abd 8e5e 87bc 5cd1 43bc 752f c33c
00000070: 2b10 403d 5c6d 293d 514d 583d 5571 94ba
00000080: 915d 2abd cc21 55bd e1ad 24bd 37db cfbd
00000090: d8a4 0a3d bab5 553c 669b 13be 26f0 c8bd
000000a0: 053b d3bc b69b 3ebd 629c 54bc e312 553d
000000b0: eaaf 42bd 4b34 7d3d cd6e 863d ef28 893c
000000c0: cb7b 873b 1c4e 853d c86c d0b7 9b91 27bc
000000d0: 8159 723b e59b f2bd 4c35 41bd 43c0 64bd
000000e0: 88a7 23bd d5e8 d1bd 66e9 293d 3b05 15bd
000000f0: 1630 9a3d 9ce2 a3bd b0cf 4ebd e419 863d
00000100: 96e2 413d 5447 f03c beb5 62bd 1499 47bd
00000110: 95a4 8ebd 62b3 cd3c f8b6 f3bc e1dd 30bd
00000120: d14b 0cbd 0457 4e3d fd72 34bd 7f09 9b3c
00000130: cdcd 4cbd 0839 c93c 10df cabd ea38 9e3b
00000140: 0910 ac3c 1bcb 0fbb 4a30 bbbd 6131 bd3c
00000150: 2f6f 52bd 8ab7 48bd 6ea2 ed3c 5e48 c23c
00000160: 4cc0 a8bd d837 693d f0b6 2abe 0d5d 4ebd
00000170: 1fc2 5bba b8f4 20bd 4347 79bd 7c4e 733d
00000180: 050c 0abc 0890 663c 4fb9 93bd f097 fdbc
00000190: 4fad 853d e660 b8bd 611a b6bd 73a1 833d
000001a0: d584 e1bb 6ddd 13bd 399a d1bd f4ab d3bb
000001b0: 7863 cbbd 607f 853d e915 a93d 8c43 7bbd
000001c0: 1892 f4bd 7385 73bd 1955 8ebd be0a 61bd
000001d0: 8662 babd c10c 8e3c 40de a4bb da6a 543d
000001e0: 8764 80bd 2a1b 383d 1f3d 933c 319d 5e3d
000001f0: f002 0d3d 8f2d d13d 4ea3 05bd f848 38bd
00000200: 2042 133d 42c4 8bbd e50d 7bbd 25fc 5a3d
00000210: 9104 9d3e 5deb 0c40 bf2d 1f3e 023b f43e
00000220: 7a3d 833d b700 943d 36cd 673c 4269 5fc0
00000230: 2ad4 ec3e d6c3 213d d46d aebd e548 4bbd
00000240: 3e7a c43c e76e 703d 6349 90bd 2d8f 6ebd
00000250: f910 113d 4d6e 783d 9740 ec3f 0d03 573d
00000260: 5639 43bf 89f4 643e fef7 073e afc9 0fbd
00000270: 6682 51bd 2e5c c23d 52d4 45be 1f78 dfbb
00000280: dfe7 943d 56b8 ab3d 1e72 463e 3818 353f
00000290: f199 cc3d 215d 83bd 765b a8be 59df ec3d
000002a0: 5372 513f cf41 ddbf 0ada 3e3e 6b7a d2be
000002b0: 24df 48bc 0a15 673f 04d3 bfbc f26b 54bd
000002c0: 383d 703f 0d90 b83e 2b28 693d d40f 7d3d
000002d0: 258c 3cbf 8d61 a33d fa23 a43f 35d0 5e3e
000002e0: d18e 05be c4a2 e8bf 02de 65be 7b24 463e
000002f0: 0b23 3dbe ec8a 9c3d a31e 04bf f56b 6a3f
00000300: 68a4 27bd afea 00bd fc10 0e40 aeb8 813e
00000310: e217 69bd 2c5a 0abf 5224 a33e 1cef 673f
00000320: 0bd0 c1bf 076b 1a3d d512 5cbd ce78 f7bf
00000330: fc44 a9be 286c 76bf a450 92bd 02b3 393f
00000340: 8142 25bc 4e03 203c 6510 ddbc a97a d13f
00000350: a9ba 1c40 8649 adbe bc6c da3d 503e dcbc
00000360: abed 0abf 1450 873c f16c 313f 9870 f43f
00000370: 359c 57bf 4083 43be 2999 93bc 4bf5 eb3e
00000380: 6ded 823e eaa2 4fbf c51b 6b3e c46c 8c3d
00000390: 5832 a2bf 98c2 523c f559 2c3f 3b47 b6bc
000003a0: 1785 a93c 26c8 143f fcfb c13d 2953 b43e
000003b0: ba36 a1be 0bcc 45bf 8fa2 fc3d a5cc c7bd
000003c0: 0379 42bf ca5b 34be 9133 30bd 7f20 32bd
000003d0: c6a2 aebe 01dd edbe bf65 eebe a726 893c
000003e0: f1ae 583f c6b4 073e 94d1 7c3d 46a5 68bd
000003f0: 3d77 303c 0654 753c 187e 1a3e 6ff5 643d

actor.2.bias f4 [64]
-0.07075727 0.3957267 0.5943991 -0.15135682 -0.13417405 -0.14431286 -0.23063742 -0.48330566
0.16301963 -0.09875791 -0.15571028 -0.14016312 0.24193174 -0.052907493 -0.02132454 0.48111466
-0.24339254 -0.106576376 -0.091033265 -0.26646233 -0.13044362 -0.018683394 -0.21567494 0.065071546
-0.15207991 -0.26864827 0.0012765625 -0.19891341 0.3254511 -0.73526454 -0.13888071 -0.5761601
0.1411406 -0.76067865 -0.07392672 -0.11367593 -0.09133187 -0.15463646 -0.11646174 -0.11202375
-0.018600626 -0.3321648 -0.2663063 -0.19786227 -0.09529483 -0.07866584 -0.3127675 -0.18853296
-0.5344863 -0.49772304 -0.39011928 -0.11574648 -0.077593714 -0.6304155 -0.109338365 -0.2414376
-0.09425302 -0.80956626 -0.43257323 -0.6515197 -0.8125213 -0.3418304 -0.19396004 -0.17099062
00000000: 30e9 90bd b19c ca3e 8a2a 183f 48fd 1abe
00000010: ec64 09be c0c6 13be 372c 6cbe d773 f7be
00000020: 9eee 263e 9641 cabd 8472 1fbe ec86 0fbe
00000030: f4bc 773e 87b5 58bd cdb0 aebc a954 f63e
00000040: e53b 79be b744 dabd a66f babd c06d 88be
00000050: 0393 05be eb0d 99bc e4d9 5cbe 3b44 853d
00000060: d6ba 1bbe 448c 89be 5452 a73a f5af 4bbe
00000070: 87a1 a63e 4c3a 3cbf bf36 0ebe 3a7f 13bf
00000080: 2987 103e d6bb 42bf e466 97bd edce e8bd
00000090: 340c bbbd 0559 1ebe 7e83 eebd b56c e5bd
000000a0: 5760 98bc 8111 aabe 4d59 88be 689c 4abe
000000b0: f029 c3bd 8e1b a1bd 1023 a0be c90e 41be
000000c0: 18d4 08bf 8ed5 febe b7bd c7be 7e0c edbd
000000d0: 74e9 9ebd e962 21bf cbec dfbd 6b3b 77be
000000e0: ba07 c1bd bc3f 4fbf 3d7a ddbe ffc9 26bf
000000f0: 6501 50bf 6504 afbe 769d 46be 2a18 2fbe

actor.4.weight f4 [32, 64]
-0.0017241781 0.5190133 -1.1458473 -0.13194829 -0.04989216 -0.09861269 -0.027453728 0.048505835
-0.33140123 0.024995074 -0.01699684 -0.19921601 0.5501575 -0.24697493 0.013829558 -0.05540891
-0.49249896 0.23644917 -0.10869285 -0.03800526 0.111065164 0.19039977 -0.042883933 0.2886972
0.048067942 0.053798888 0.27323467 -0.42448694 -0.09756085 0.2953736 0.057629064 0.13350758
0.74840987 1.162363 0.22022891 0.06480055 0.404278 0.06625239 1.3771288 -0.040201314
-0.27128282 -0.0060465676 0.19776939 0.048872847 -0.037974212 -0.04601328 -0.04847404 0.07160145
1.8361728 1.1832538 0.67730707 0.010609216 0.0013961417 -1.4784527 0.010485405 0.22143228
0.087986544 -0.06161483 0.26252002 0.31344184 0.5538982 0.27072972 0.07400894 -0.006350577
0.0357179 -0.02664779 1.504821 -0.091536134 0.02106232 -0.12118989 0.013651604 0.6811236
-0.738827 -0.0060737454 -0.014694037 -0.07330699 0.20732227 -0.013248344 0.08357518 -0.068367496
-0.24356839 0.13417527 0.050314758 -0.017329583 -0.07078863 0.051595636 0.028030505 -0.69426113
-0.062308848 0.084510304 0.011907646 -1.8676447 -2.1414373 0.4959548 0.6779984 -2.3992162
0.19360285 1.0668311 0.008147419 -0.08575493 1.0075861 0.13733973 0.05494067 -0.062460076
-1.4854387 -0.13379647 0.15010622 0.17566828 -0.03137347 -0.09757298 0.54665375 0.17086907
-0.27786583 2.2134004 0.19350268 0.06663629 0.07746405 -0.6897213 -0.052732784 -0.046067208
-0.03495625 -0.022456503 0.45614716 -0.39370388 0.3559115 0.20446241 0.10715029 -0.03612254
-0.14122501 -0.705726 -1.9786745 0.14782658 -0.023673205 -0.07966371 0.043559697 -0.040757027
-0.94187385 0.024366083 0.047473367 0.12524933 0.1181251 -0.08027537 -0.017893791 -0.14365906
-0.13180418 0.17496707 -0.05921947 -0.0044897404 0.10721591 0.08287735 0.057402164 -1.4349071
0.1224104 -0.046265516 -0.016200885 -0.6748726 -1.7645199 0.33462766 -0.10550432 0.18047617
-0.6807971 1.6192031 -0.090426214 0.027531542 0.4569564 -0.075988956 0.07473898 -0.21022056
-2.254925 0.09925853 -0.11555613 0.20417534 -0.061986998 0.1188265 0.16917197 0.046403732
0.8668988 1.0332189 0.4375471 0.105817646 0.015392046 -0.9422776 0.07160609 -0.07232158
-0.008334777 0.9226598 0.14761545 -0.78400713 0.25974897 0.26373228 -0.03135012 -0.0117579615
0.08107111 -0.26626325 -1.8634964 -0.080313295 0.08444068 0.096963346 -0.12165798 -0.13697694
-0.07848653 -0.0993509 -0.08510475 0.094013005 -2.0292614 0.124133125 -0.095943004 -1.0603504
-0.03799977 -0.059102178 0.12319508 0.11638318 0.04771526 -0.07889223 -0.03700392 0.43426472
-0.052044213 0.048276007 -0.060412228 0.36812425 0.33635727 -0.09442926 -0.96797645 -1.2637405
-0.50164074 -0.014380688 0.028400514 0.01809644 0.61242133 -0.030410007 0.011032373 -0.11185577
0.84828407 0.077709585 -0.053268466 -0.062386006 -0.052073 0.10159777 -0.09266128 0.07712941
0.35598645 -0.014854777 -0.008289577 0.08560924 0.05560261 -1.0892313 -0.053044826 0.004187852
-0.092249766 -0.12402288 0.021044422 -1.458801 -0.03274951 0.061433956 0.0514265 0.03529775
00000000: d1fd e1ba 0ede 043f 20ab 92bf 741d 07be
00000010: b95b 4cbd 73f5 c9bd a4e6 e0bc 0eae 463d
00000020: 6cad a9be 78c2 cc3c f53c 8bbc 48ff 4bbe
00000030: 1fd7 0c3f ffe6 7cbe 5f95 623c 74f4 62bd
00000040: d328 fcbe bb1f 723e 5b9a debd 67ab 1bbd
00000050: 2276 e33d 28f8 423e 10a7 2fbd 1fd0 933e
00000060: e4e2 443d 395c 5c3d 6ae5 8b3e 5a56 d9be
00000070: fccd c7bd 353b 973e 740c 6c3d 36b6 083e
00000080: ca97 3f3f 50c8 943f b083 613e 27b6 843d
00000090: 87fd ce3e 55af 873d c245 b03f 22aa 24bd
000000a0: 95e5 8abe 4922 c6bb 0f84 4a3e e52e 483d
000000b0: d98a 1bbd 6c78 3cbd b78c 46bd c8a3 923d
000000c0: b607 eb3f dc74 973f ff63 2d3f 47d2 2d3c
000000d0: befe b63a f03d bdbf faca 2b3c 25bf 623e
000000e0: 4a32 b43d d55f 7cbd 0669 863e 737b a03e
000000f0: 46cc 0d3f 169d 8a3e 0092 973d 8018 d0bb
00000100: ef4c 123d 774c dabc f99d c03f 4c77 bbbd
00000110: e38a ac3c 6832 f8bd faaa 5f3c 1e5e 2e3f
00000120: c423 3dbf 4506 c7bb 42bf 70bc fa21 96bd
00000130: 4a4c 543e 950f 59bc 7729 ab3d 4204 8cbd
00000140: fe69 79be 3e65 093e d916 4e3d c5f6 8dbc
00000150: a1f9 90bd f255 533d 3ba0 e53c 19bb 31bf
00000160: 9037 7fbd bd13 ad3d 4a18 433c fb0e efbf
00000170: 4f0d 09c0 caed fd3e 4e91 2d3f c28c 19c0
00000180: d33f 463e ec8d 883f c17c 053c 48a0 afbd
00000190: 95f8 803f c9a2 0c3e 7809 613d 23d6 7fbd
000001a0: db22 bebf f101 09be 72b5 193e 63e2 333e
000001b0: 7881 00bd 58d4 c7bd 80f1 0b3f 4df8 2e3e
000001c0: 6e44 8ebe 5aa8 0d40 9125 463e 9b78 883d
000001d0: 79a5 9e3d 9391 30bf 55fe 57bd f8b0 3cbd
000001e0: 492e 0fbd b3f6 b7bc 1f8c e93e 8e93 c9be
000001f0: 083a b63e 985e 513e 9c71 db3d 3af5 13bd
00000200: 4a9d 10be 76aa 34bf 3545 fdbf da5f 173e
00000210: 4fee c1bc ba26 a3bd a76b 323d d7f0 26bd
00000220: a51e 71bf 619b c73c 6f73 423d 5c41 003e
00000230: 93eb f13d 6a67 a4bd 0096 92bc 5c1b 13be
00000240: adf7 06be 912a 333e 1d90 72bd ac1e 93bb
00000250: 0494 db3d 9abb a93d 881e 6b3d 09ab b7bf
00000260: 4eb2 fa3d e980 3dbd b8b7 84bc 73c4 2cbf
00000270: cadb e1bf 5154 ab3e a612 d8bd bfce 383e
00000280: b848 2ebf 0c42 cf3f 6131 b9bd d489 e13c
00000290: 30f6 e93e 19a0 9bbd c010 993d 0f44 57be
000002a0: b150 10c0 0e48 cb3d b1a8 ecbd 5713 513e
000002b0: 14e6 7dbd 4f5b f33d 6b3b 2d3e d711 3e3d
000002c0: 14ed 5d3f 8440 843f 2c06 e03e ecb6 d83d
000002d0: ec2e 7c3c 1b39 71bf 37a6 923d 561d 94bd
000002e0: 978e 08bc 6f33 6c3f 8128 173e b1b4 48bf
000002f0: d1fd 843e eb07 873e fc68 00bd 77a4 40bc
00000300: 9c08 a63d a853 88be 0d87 eebf 4c7b a4bd
00000310: 3cef ac3d b894 c63d d227 f9bd af43 0cbe
00000320: 8cbd a0bd 7c78 cbbd 664b aebd e489 c03d
00000330: 6bdf 01c0 8239 fe3d c47d c4bd 90b9 87bf
00000340: a6a5 1bbd 2015 72bd b44d fc3d 4e5a ee3d
00000350: 1471 433d 4092 a1bd 6c91 17bd f257 de3e
00000360: 502c 55bd 10bd 453d d072 77bd c87a bc3e
00000370: 0537 ac3e 2164 c1bd 4ecd 77bf 40c2 a1bf
00000380: 876b 00bf fa9c 6bbc 32a8 e83c fc3e 943c
00000390: a5c7 1c3f 681e f9bc 20c1 343c a314 e5bd
000003a0: 2529 593f 3426 9f3d 0930 5abd 7888 7fbd
000003b0: 804a 55bd 7e12 d03d 32c5 bdbd 06f6 9d3d
000003c0: db43 b63e 7361 73bc 02d1 07bc e653 af3d
000003d0: 90bf 633d ee6b 8bbf 8845 59bd 403a 893b
000003e0: 72ed bcbd b5ff fdbd 5a65 ac3c feb9 babf
000003f0: 5a24 06bd 2ca2 7b3d 98a4 523d 6094 103d

actor.4.bias f4 [32]
0.22070326 -0.573078 -0.38536745 -0.76692986 -0.43616775 -0.044080127 0.15330654 -0.45011693
0.4570253 -0.12935992 -0.17052843 -0.15691182 0.43019894 -0.30288255 -0.014755775 -0.13050756
0.20558998 -0.03307475 -0.2784456 -0.26558602 -0.07992599 0.006163098 -1.2282659 -0.2877927
-0.18837807 -0.6096889 -0.15620391 -0.49910474 -0.28129712 0.23227432 -0.262404 -0.2411924
00000000: 0900 623e 3db5 12bf e24e c5be 8455 44bf
00000010: 6151 dfbe 5d8d 34bd 64fc 1c3e ba75 e6be
00000020: 38ff e93e ed76 04be 019f 2ebe 7ead 20be
00000030: 0943 dc3e 6c13 9bbe 35c2 71bc c6a3 05be
00000040: 2e86 523e 6479 07bd 6c90 8ebe e4fa 87be
00000050: 3db0 a3bd d0f3 c93b d137 9dbf 9159 93be
00000060: 2ee6 40be 9214 1cbf ebf3 1fbe a88a ffbe
00000070: 2d06 90be 52d9 6d3e d159 86be 24fb 76be

actor.6.weight f4 [1, 32]
0.35956252 -0.32662064 0.62779415 -2.3992617 -2.1635323 -0.103409596 -1.2100624 -0.16372463
-0.23527832 -0.024799088 0.016946092 -0.07368964 0.19912241 -0.18751778 -0.0439638 -0.13177906
0.18965882 -1.6188687 -0.45099577 -0.15266545 0.26532015 -0.67509246 -0.5711354 0.049508847
-0.0694882 -0.13898782 -0.20148678 0.3349053 -0.048191655 -0.29057276 0.037064586 -0.045235228
00000000: 9418 b83e d23a a7be 1eb7 203f 818d 19c0
00000010: 5077 0ac0 69c8 d3bd 53e3 9abf 6ea7 27be
00000020: cdec 70be 7527 cbbc 88d2 8a3c 98ea 96bd
00000030: bfe6 4b3e a904 40be 6313 34bd 17f1 06be
00000040: ec35 423e 1737 cfbf ebe8 e6be 5554 1cbe
00000050: 0bd8 873e dcd2 2cbf ee35 12bf cac9 4a3d
00000060: d44f 8ebd d352 0ebe 8d52 4ebe b578 ab3e
00000070: 9d64 45bd f4c5 94be 09d1 173d 9348 39bd

critic.0.weight f4 [128, 5]
-0.5985849 -0.3212543 0.23442337 -0.9099388 -0.623154 -0.6151176 -0.3282407 -0.44099993
-0.6019111 0.0041240663 -0.8145185 -0.3338083 -1.3397292 -0.22687443 0.10857391 -0.28593883
0.29834446 0.13249896 -0.44481304 -0.18377796 -1.0075005 -0.20879737 0.04978866 -0.536494
-0.52563643 0.07914773 -0.6743299 -0.4977608 -0.15877493 -0.11685647 -0.655631 0.09855671
-0.71063733 -0.6162987 -0.38365918 -0.2686532 0.048687562 -0.19458835 -0.06682818 -0.0629695
-0.816403 0.027582642 -0.05602614 -0.49681115 -0.335734 -0.8490402 0.14438213 -0.38009095
-0.5850105 -0.20157197 -0.2867466 -0.7611952 0.054812163 -0.35201934 -0.31699598 -0.742935
-0.22774489 -0.32407182 -0.6940665 -0.122276776 -0.49024916 -0.09121153 0.34424683 -0.10406053
0.11136453 -0.6999017 0.13797857 0.20424905 -0.5747888 -0.2868932 -0.029644325 -0.5986983
-0.5696259 0.25822788 -0.4889151 -0.7475294 0.26587573 -0.52210593 -0.24013688 -0.037481036
0.29632577 -1.5275995 0.28545257 -0.36717302 -0.32408914 -0.12043582 -0.553895 0.84703827
-0.49445125 0.19544107 -0.46123624 -0.05241016 0.011744965 -0.34908304 -0.6152643 -0.837182
0.036100592 -0.88251007 -0.8703034 0.22668232 1.5720332 -8.336947 0.006830732 0.4077299
-0.076228894 -0.04719528 1.685426 0.62667537 0.06543379 0.5383382 0.09210724 -0.5576944
-0.18467456 0.027903335 -0.6555874 0.037493948 -0.8550029 -0.17160061 0.2106773 0.08097456
0.070871636 -0.3639823 0.041389912 -0.32050055 -0.5570928 -0.70297986 0.08644767 -0.54430467
-0.08684792 0.20415618 -0.41731265 -0.29510924 0.03967736 -0.18508497 0.09374192 -0.53039366
-0.10026619 -0.41149458 0.16169776 0.07323099 -2.7547271 -0.7110619 -1.6004239 -1.1235293
-0.6835734 -0.093145326 0.8897954 0.10087177 -0.542292 -1.4873171 -0.23464581 -0.5363085
0.17788067 -0.06713777 -0.03613016 -0.9963175 0.048399247 -0.054803822 -0.35043103 0.02647103
0.18888997 0.07978842 -0.28931788 -0.42634097 -0.2742341 -1.0832003 0.09040834 0.07709366
-0.13684711 -0.470268 0.016423117 -0.62845075 0.09004205 0.040583055 -0.22917242 -0.49772945
-0.13295314 -0.34232453 0.040529437 -0.08352721 -0.61668617 -1.3869066 1.6138198 -0.0038154186
0.16069272 5.417299 -0.9180657 0.8326048 0.010139063 0.11846939 -0.5806135 -0.040150225
-0.37377185 0.0030143613 -0.0030723875 -0.54969656 -0.27354297 -0.10028361 -0.87658876 -0.20163655
-0.9944545 -0.25358695 -0.2603274 -0.6746294 -0.58552366 -0.7290988 0.11065666 0.22509316
0.024336558 -0.25887057 -0.8929317 -3.3289196 -0.31455204 -0.44759503 -0.8246806 -0.5341466
0.042074356 0.29709953 0.094465084 -0.61707276 -0.4502202 0.30313453 -0.40230554 0.15643021
1.6971042 -1.7402139 2.4114184 0.001963649 0.2844868 0.76292145 0.010663806 -0.8512093
-0.7176133 0.36510423 0.14328033 -0.4711745 -0.30374524 -0.22250788 -0.41792616 0.22076494
0.12302786 -1.4018604 -0.09508908 -1.0658209 -0.43876663 -1.2058762 0.36579472 -0.753991
-0.20561984 0.13951217 1.6539599 -10.315488 0.1576553 0.4791788 0.1447536 -1.7873199
00000000: dc3c 19bf 727b a4be ae0c 703e c0f1 68bf
00000010: 0587 1fbf 5978 1dbf 2a0f a8be beca e1be
00000020: d916 1abf 2d23 873b 4984 50bf ece8 aabe
00000030: 3f7c abbf c551 68be 005c de3d 9366 92be
00000040: 9bc0 983e cfad 073e 89be e3be 4a30 3cbe
00000050: c7f5 80bf face 55be 32ef 4b3d ac57 09bf
00000060: 1c90 06bf 3418 a23d e2a0 2cbf 81da febe
00000070: e595 22be 7252 efbd 6fd7 27bf 1ad8 c93d
00000080: 54ec 35bf c0c5 1dbf fa6e c4be ea8c 89be
00000090: 9c6c 473d 2b42 47be 36dd 88bd 27f6 80bd
000000a0: c9ff 50bf fef4 e13c aa7b 65bd 085e febe
000000b0: 54e5 abbe b35a 59bf e9d8 133e 489b c2be
000000c0: 40c3 15bf e268 4ebe 73d0 92be b0dd 42bf
000000d0: b882 603d e13b b4be 4c4d a2be fd30 3ebf
000000e0: f535 69be beec a5be 58ae 31bf 3f6c fabd
000000f0: f001 fbbe 1ccd babd 1f41 b03e b01d d5bd
00000100: 1613 e43d c22c 33bf 414a 0d3e aa26 513e
00000110: 5c25 13bf aae3 92be a8d8 f2bc 4b44 19bf
00000120: 01d3 11bf 7236 843e 1453 fabe 165e 3fbf
00000130: dd20 883e bca8 05bf 71e6 75be b785 19bd
00000140: 03b8 973e 6188 c3bf d726 923e 1afe bbbe
00000150: 03ef a5be 0ea7 f6bd 10cc 0dbf 80d7 583f
00000160: b728 fdbe b421 483e 2827 ecbe 09ac 56bd
00000170: f46d 403c 03bb b2be f681 1dbf 8f51 56bf
00000180: 37de 133d 2eec 61bf 34cc 5ebf 691f 683e
00000190: 6238 c93f 2364 05c1 55d4 df3b f9c1 d03e
000001a0: e51d 9cbd d74f 41bd 0abc d73f cc6d 203f
000001b0: 2702 863d 88d0 093f b8a2 bc3d 0fc5 0ebf
000001c0: 541b 3dbe 8995 e43c 93d4 27bf 4193 193d
000001d0: 78e1 5abf 12b8 2fbe cabb 573e fdd5 a53d
000001e0: 2625 913d e35b babe 7888 293d a618 a4be
000001f0: a29d 0ebf 7df6 33bf 7a0b b13d 8d57 0bbf
00000200: 53dd b1bd 510e 513e 01aa d5be 8f18 97be
00000210: ba84 223d ea86 3dbe c4fb bf3d e1c7 07bf
00000220: 5c58 cdbd 6baf d2be 1994 253e 21fa 953d
00000230: 734d 30c0 2708 36bf b1da ccbf cfcf 8fbf
00000240: abfe 2ebf fac2 bebd a2c9 633f dc95 ce3d
00000250: a6d3 0abf 6860 bebf fe46 70be 844b 09bf
00000260: 5a26 363e 877f 89bd 38fd 13bd aa0e 7fbf
00000270: 4a3e 463d f979 60bd b26b b3be c6d9 d83c
00000280: 5f6c 413e 1c68 a33d 7921 94be 5d49 dabe
00000290: 6968 8cbe 4fa6 8abf 0228 b93d 48e3 9d3d
000002a0: a621 0cbe f8c6 f0be c689 863c 26e2 20bf
000002b0: f767 b83d 6b3a 263d 2dac 6abe 65d6 febe
000002c0: de24 08be 2945 afbe 3202 263d 5010 abbd
000002d0: 25df 1dbf 2886 b1bf a691 ce3f 1a0c 7abb
000002e0: a28c 243e 835a ad40 5b06 6bbf 9725 553f
000002f0: 501e 263c 14a0 f23d 16a3 14bf 9074 24bd
00000300: 065f bfbe 978c 453b 1c5a 49bb eab8 0cbf
00000310: d30d 8cbe 7e61 cdbd 1f68 60bf d079 4ebe
00000320: 9294 7ebf 26d6 81be a249 85be 83b4 2cbf
00000330: e1e4 15bf 38a6 3abf f59f e23d d27e 663e
00000340: 765d c73c af8a 84be 2c97 64bf 050d 55c0
00000350: f70c a1be 2d2b e5be 451e 53bf d5bd 08bf
00000360: 2956 2c3d 6e1d 983e e976 c13d 7bf8 1dbf
00000370: 4383 e6be 7334 9b3e fefa cdbe 3e2f 203e
00000380: b63a d93f 54bf debf ae54 1a40 90b0 003b
00000390: 41a8 913e d24e 433f 3fb7 2e3c dae8 59bf
000003a0: 81b5 37bf f1ee ba3e 14b8 123e c93d f1be
000003b0: 7f84 9bbe 1bd9 63be 6bfa d5be 3410 623e
000003c0: 08f6 fb3d 2970 b3bf 10be c2bd d26c 88bf
000003d0: 05a6 e0be 275a 9abf 7249 bb3e 8e05 41bf
000003e0: 028e 52be 47dc 0e3e f5b4 d33f 3d0c 25c1
000003f0: 6470 213e ec56 f53e 4a3a 143e e6c6 e4bf

critic.0.bias f4 [128]
-0.32791084 -0.014511289 -0.13946398 -0.40944612 -0.22000016 -0.07787458 -0.23671427 -0.067173496
-0.11920989 -0.2163625 -0.008699143 -0.010454247 -0.39853847 -0.2786524 -0.56127524 -0.5105785
-0.20288728 -0.9971306 -0.40661544 -0.26425403 -0.8793436 -0.9610314 -0.06860862 -0.24397309
-0.034309004 -0.65646195 -0.22761185 -0.597677 0.15943007 -1.0203551 -0.1939872 -0.07027414
-0.38243 -0.15307586 -0.09779347 -0.12840338 -1.1081362 -0.8312942 -0.0008261756 0.14202878
-0.010080975 -0.2965984 -0.006464307 -0.5747589 -1.2698876 -0.6146072 -0.44054365 -0.22126982
-0.26156524 -0.48451677 1.0091102 -0.46366695 0.2643806 -0.27077827 -0.13452572 -0.4077855
-0.38685128 -0.027516231 -0.0051026647 -0.45747626 0.6160743 -0.2642206 -0.39091414 -0.48251078
-0.5775115 -0.15082099 -0.72171575 -0.33702278 -0.13555875 -0.14566234 -0.053639866 -0.5956574
0.95826566 -0.8380559 -0.21362607 -0.0059639513 -0.50433344 -0.39831528 -0.2820975 -0.53385526
-0.35362044 -0.35600737 -0.038412753 -0.19730332 -0.039903045 -0.56919235 -0.38613135 -0.0020540466
-0.0015355931 -0.33598796 -0.3454955 -0.12970191 -0.46064627 -0.28002903 -1.4091704 -0.12403093
-0.31172785 -0.1305562 -0.024010817 -0.52815115 -0.1934071 -0.5462955 -0.38391256 -0.36347148
-0.30812386 -0.72916716 -0.12953861 -0.0060308585 -0.1815355 -0.64409757 -0.15046227 -0.22708628
-0.22774315 -0.22876622 -0.34709474 -0.012298485 -0.39363244 -0.11456725 -0.110672705 -0.30345994
-0.43946555 -0.48983243 -0.34116572 -0.3053693 -0.2141984 -0.58757085 1.4354454 -0.11087441
00000000: eee3 a7be c2c0 6dbc a5cf 0ebe eca2 d1be
00000010: b947 61be b57c 9fbd 3a65 72be 4292 89bd
00000020: 5124 f4bd 228e 5dbe da86 0ebc 4a48 2bbc
00000030: 3c0d ccbe 87ab 8ebe bcaf 0fbf 46b5 02bf
00000040: afc1 4fbe f343 7fbf e62f d0be 4e4c 87be
00000050: aa1c 61bf 2706 76bf ad82 8cbd 15d4 79be
00000060: 9987 0cbd e40d 28bf 1513 69be 5c01 19bf
00000070: a341 233e ff9a 82bf 95a4 46be e3eb 8fbd
00000080: ddcd c3be ebbf 1cbe f147 c8bd 2d7c 03be
00000090: 68d7 8dbf b2cf 54bf b593 58ba fe6f 113e
000000a0: ac2a 25bc bfdb 97be 8ad2 d3bb 6623 13bf
000000b0: ad8b a2bf e656 1dbf f08e e1be 8e94 62be
000000c0: e1eb 85be 9512 f8be 862a 813f c165 edbe
000000d0: e55c 873e 73a3 8abe 1cc1 09be 43c9 d0be
000000e0: 5f11 c6be b869 e1bc 4134 a7bb 543a eabe
000000f0: 0cb7 1d3f ec47 87be e625 c8be a70b f7be
00000100: cbd7 13bf d170 1abe 5dc2 38bf 408e acbe
00000110: eacf 0abe 8228 15be 7ab5 5bbd 017d 18bf
00000120: e650 753f d58a 56bf cbc0 5abe 406d c3bb
00000130: ff1b 01bf fbef cbbe 156f 90be bdaa 08bf
00000140: bd0d b5be 9946 b6be b156 1dbd e209 4abe
00000150: 6071 23bd 97b6 11bf 02b3 c5be 2f9d 06bb
00000160: f445 c9ba 9d06 acbe c9e4 b0be 94d0 04be
00000170: d4d9 ebbe f75f 8fbe b25f b4bf ee03 febd
00000180: cb9a 9fbe 86b0 05be 55b2 c4bc ea34 07bf
00000190: 830c 46be 06da 0bbf 3090 c4be ef18 babe
000001a0: 69c2 9dbe b3aa 3abf c5a5 04be 829e c5bb
000001b0: 71e4 39be 94e3 24bf c812 1abe 4e89 68be
000001c0: 8035 69be b141 6abe 67b6 b1be 967f 49bc
000001d0: 318a c9be 3ca2 eabd 5fa8 e2bd 1a5f 9bbe
000001e0: a101 e1be 51cb fabe 46ad aebe 5d59 9cbe
000001f0: d356 5bbe 0b6b 16bf adbc b73f 1f12 e3bd

critic.2.weight f4 [64, 128]
-0.23928528 0.34453762 -1.0826169 -0.057297874 -0.18171196 -0.8124826 -0.6302407 -0.40328276
-0.24341854 -0.6054388 -0.28382292 0.38528362 0.074680835 -0.74838185 0.027995653 -0.46217123
-0.12764598 -0.07123066 0.07775796 -1.9694612 -1.2142426 -2.563671 -0.58942896 -0.28924486
-0.5253285 -0.6631073 0.062024396 0.007510294 -4.094645 1.6291791 -0.10214102 -0.75453705
-0.5090033 -0.6201582 0.088016294 -0.76909536 3.2923498 0.8856746 1.572585 0.79607236
-1.0813308 -0.81328166 -1.3580939 -0.48764443 -0.12254278 -0.4703406 0.10941104 0.93979275
-0.41416255 -0.8067416 -3.8877518 -1.4843774 -0.26362517 -0.076515 -1.126872 0.043959394
0.023317195 -0.20224345 0.53247553 0.2748894 -0.8314165 -0.92309844 -0.7569996 -0.82003784
-0.50181764 -0.69456196 -0.24194005 -1.55731 -0.13249886 -0.29686007 -0.89877176 0.046477415
-0.68661994 -2.3429792 -0.068374775 -0.2177059 -0.6919475 0.0025838441 1.2717894 -0.45171794
-0.04376814 -0.7520122 -0.37790528 -0.4803026 -0.08318506 -0.31248477 -1.8654336 -1.3667017
-0.34238103 -2.7018518 -0.0844759 -0.74896014 0.28318903 0.021425309 1.3488972 0.00744503
0.06735927 -0.41951492 0.78770334 -0.044682834 -0.5263101 0.054928597 0.0029322722 -0.5086925
0.0148049025 -0.6016708 -0.62361896 0.1279467 -0.5422663 -0.98012733 -0.8171871 -0.38430777
-0.07456523 -1.2522722 0.5470446 0.560915 -0.040617708 0.04596157 0.075044654 0.15698375
0.011201209 -0.40105793 -0.49274883 0.13330828 2.7360961 -0.74243534 -0.37931645 -0.75357366
-0.05775358 -1.7648798 -1.2186755 0.009220089 -0.2090162 0.121121466 0.10902461 -0.0976112
-0.007204297 -0.39270484 0.13180862 -0.08110253 -0.060290623 -0.17891277 -0.1389125 -0.46829078
-0.14917925 1.234322 -0.033148464 -0.69013804 1.1910224 0.73898363 0.14286019 0.20453838
0.10312231 0.13328084 0.05258014 -0.063654914 -5.3400564 2.6759741 0.18234931 -0.71799594
-0.14279139 -0.5086254 0.16760649 0.0029170166 1.1759744 1.1336461 -0.0019437886 0.09645725
-0.38552138 -0.7405619 -0.91977656 -1.0564483 1.6927476 0.04983588 -0.43070495 -0.45132974
-0.5673314 -0.87488806 0.55300826 -0.70925206 0.33588812 0.15875985 -0.44533515 -0.098001875
-0.0020983545 0.22082861 0.10296834 -0.14147018 -1.0058355 -0.33365083 -0.13730603 2.7487633
-0.38902584 0.15703286 -0.011888117 0.9871554 -0.046284284 0.14341867 -0.05596727 -0.1878516
-1.6848536 -0.530376 0.016519563 0.13055779 -0.34592438 -0.065308556 -0.2478233 1.2345028
-0.0021146021 0.5553046 -0.0724579 -0.19549559 -0.12030763 -0.47022748 -2.1632438 -1.4546231
0.12440257 -2.1025648 -0.046469964 0.30801105 0.08224386 0.04483138 1.9945046 0.08103144
-0.1897099 0.055004146 -0.3370168 -0.08822042 0.025692593 -0.16196273 -0.061348025 -0.19295982
-0.14232554 0.26018897 0.049019154 -0.20515423 -0.6501011 -1.8731737 -1.092665 -0.21974124
-0.079307176 -0.58318424 0.1722343 -0.060964514 -0.05715495 -0.0055898414 -0.006779584 -0.3550629
-0.0107454965 -0.43263015 -0.06387861 -0.3212965 -0.032538965 -0.034086235 0.22870962 -0.06571808
00000000: 3307 75be 3c67 b03e 3193 8abf 2db1 6abd
00000010: b312 3abe dcfe 4fbf 7457 21bf 147b cebe
00000020: b642 79be 0afe 1abf 3d51 91be e543 c53e
00000030: 44f2 983d f495 3fbf 2457 e53c b5a1 ecbe
00000040: a1b5 02be 61e1 91bd 913f 9f3d 4e17 fcbf
00000050: 4d6c 9bbf 3013 24c0 d1e4 16bf e717 94be
00000060: ee7b 06bf 66c1 29bf 4b0d 7e3d ea18 f63b
00000070: 5507 83c0 f188 d03f 502f d1bd 5729 41bf
00000080: 0a4e 02bf b0c2 1ebf e341 b43d 6fe3 44bf
00000090: dcb5 5240 92bb 623f 774a c93f 66cb 4b3f
000000a0: 0c69 8abf 3a33 50bf 05d6 adbf 88ac f9be
000000b0: b6f7 fabd 7cd0 f0be e512 e03d 4296 703f
000000c0: 1d0d d4be 9e86 4ebf edd0 78c0 1400 bebf
000000d0: e1f9 86be e5b3 9cbd 573d 90bf c40e 343d
000000e0: b403 bf3c e818 4fbe 5150 083f 4ebe 8c3e
000000f0: b6d7 54bf 2e50 6cbf baca 41bf 00ee 51bf
00000100: 1f77 00bf d0ce 31bf 22bf 77be ef55 c7bf
00000110: c8ad 07be 0bfe 97be e815 66bf 1a5f 3e3d
00000120: 53c6 2fbf 5ff3 15c0 1308 8cbd 4cee 5ebe
00000130: 7923 31bf b655 293b ffc9 a23f 9347 e7be
00000140: 3946 33bd df83 40bf cd7c c1be 39ea f5be
00000150: ee5c aabd 01fe 9fbe 87c6 eebf 15f0 aebf
00000160: 914c afbe 24eb 2cc0 b301 adbd dabb 3fbf
00000170: 27fe 903e 2184 af3c aaa8 ac3f 70f5 f33b
00000180: a8f3 893d a9ca d6be eda6 493f 5905 37bd
00000190: 42bc 06bf cffc 603d 5d2b 403b ac39 02bf
000001a0: 4390 723c 1907 1abf 7ea5 1fbf 7604 033e
000001b0: f7d1 0abf a0e9 7abf 2c33 51bf fdc3 c4be
000001c0: a8b5 98bd 754a a0bf 1d0b 0c3f 2098 0f3f
000001d0: c15e 26bd 3342 3c3d 03b1 993d 59c0 203e
000001e0: 4785 373c 7757 cdbe 9349 fcbe f781 083e
000001f0: 331c 2f40 3e10 3ebf c435 c2be 34ea 40bf
00000200: 058f 6cbd 95e7 e1bf 8ffd 9bbf db0f 173c
00000210: 5808 56be 880e f83d 4b48 df3d 61e8 c7bd
00000220: 0612 ecbb 9c10 c9be d7f8 063e 1519 a6bd
00000230: 4df3 76bd e934 37be 143f 0ebe cfc3 efbe
00000240: 72c2 18be 43fe 9d3f afc6 07bd e3ac 30bf
00000250: 6c73 983f 082e 3d3f f149 123e 8272 513e
00000260: ca31 d33d c67a 083e 465e 573d 825d 82bd
00000270: bee1 aac0 2943 2b40 c7b9 3a3e 95ce 37bf
00000280: e837 12be 4635 02bf 09a1 2b3e 6b2b 3f3b
00000290: 5486 963f 511b 913f b9c6 feba 618b c53d
000002a0: 0f63 c5be 7795 3dbf 7a76 6bbf b339 87bf
000002b0: f4ab d83f b520 4c3d 5c85 dcbe b114 e7be
000002c0: a13c 11bf aaf8 5fbf f391 0d3f 8b91 35bf
000002d0: 87f9 ab3e f191 223e f802 e4be 35b5 c8bd
000002e0: 8c84 09bb e520 623e 11e1 d23d 8fdd 10be
000002f0: 38bf 80bf 48d4 aabe f499 0cbe bdeb 2f40
00000300: 652e c7be 39cd 203e 60c6 42bc 37b6 7c3f
00000310: 9794 3dbd 58dc 123e f03d 65bd 2b5c 40be
00000320: 48a9 d7bf b9c6 07bf 0954 873c f1b0 053e
00000330: 001d b1be 7ec0 85bd 64c5 7dbe 3004 9e3f
00000340: 2395 0abb 7128 0e3f cf64 94bd ff2f 48be
00000350: d963 f6bd a8c1 f0be 9672 0ac0 1731 babf
00000360: c6c6 fe3d 6c90 06c0 4a57 3ebd a0b3 9d3e
00000370: 786f a83d 1ca1 373d ed4b ff3f d0f3 a53d
00000380: 5043 42be 074c 613d 778d acbe e8ac b4bd
00000390: 4679 d23c 8fd9 25be 1148 7bbd 4297 45be
000003a0: c9bd 11be 7d37 853e 4fc8 483d f313 52be
000003b0: 076d 26bf 28c4 efbf 72dc 8bbf d903 61be
000003c0: cd6b a2bd 904b 15bf 305e 303e edb5 79bd
000003d0: 4f1b 6abd fd2a b7bb 4627 debb ceca b5be
000003e0: e10d 30bc b381 ddbe cad2 82bd fa80 a4be
000003f0: 9447 05bd 029e 0bbd db32 6a3e 3397 86bd

critic.2.bias f4 [64]
-1.0063016 -1.543386 -0.3144514 -0.2856448 -0.1712248 -0.7559727 -0.21350363 -0.32105803
1.3940603 -0.11763607 -0.57458425 0.16012757 0.41511098 -0.52420783 -1.7165998 0.8407252
-0.19392946 -0.22910275 -0.51427513 -0.35328913 -0.2589172 -0.41380575 -1.4585111 -1.8916062
-0.23560244 -0.24269897 -0.14131697 -0.39514214 -1.9398173 -1.38036 -0.18348904 -0.15616997
-0.17057464 -0.104821876 -1.1413871 -1.0292174 1.1480545 -0.2745257 -0.18346652 0.34087953
-0.35305682 -0.41014883 0.75831896 -0.42225835 -0.9038473 -0.2668424 -0.20814736 0.56004256
-0.4598533 -0.33896852 -1.6674986 0.47081771 -1.138699 -0.17685035 -0.08864599 -0.23212194
-3.42498 -1.5537249 -0.11189555 -0.14325194 -0.16357373 -0.1578014 0.63422453 -0.20667672
00000000: 7ece 80bf ac8d c5bf c6ff a0be 0940 92be
00000010: 8e55 2fbe 6d87 41bf b2a0 5abe b861 a4be
00000020: 9170 b23f 2eeb f0bd f417 13bf 7bf8 233e
00000030: 6d89 d43e 7c32 06bf 8bb9 dbbf c439 573f
00000040: 7295 46be e999 6abe 89a7 03bf 50e2 b4be
00000050: cc90 84be 59de d3be 7eb0 babf 2720 f2bf
00000060: c441 71be 1486 78be 65b5 10be 1250 cabe
00000070: ef4b f8bf a3af b0bf 8de4 3bbe 05eb 1fbe
00000080: 1eab 2ebe daac d6bd f918 92bf 65bd 83bf
00000090: 73f3 923f a28e 8cbe a6de 3bbe c387 ae3e
000000a0: ddc3 b4be 07ff d1be 3121 423f 3f32 d8be
000000b0: 8962 67bf 919f 88be 9524 55be f35e 0f3f
000000c0: e471 ebbe 488d adbe 9870 d5bf 050f f13e
000000d0: e4c0 91bf 4218 35be 078c b5bd 60b1 6dbe
000000e0: df32 5bc0 75e0 c6bf 7e29 e5bd a3b0 12be
000000f0: df7f 27be b196 21be 8a5c 223f 10a3 53be

critic.4.weight f4 [32, 64]
3.6695774 0.9509807 -0.0035140025 0.23250164 0.24031118 -0.90083003 -0.01844362 0.04248233
-1.325073 -0.076600194 1.7997823 -0.04627154 -1.3234838 0.91370165 -0.8003551 -0.06794227
0.15909298 0.10469519 -0.8651568 0.11788334 -0.7551679 -0.3333828 -0.64314175 0.15512705
-0.020972632 -1.7186444 0.09336923 -0.071395695 -0.81119657 1.1566136 -0.15798257 -0.28499416
-0.10732268 -0.07671514 -0.21832952 -2.4467802 -1.1984102 -1.7855208 -0.9597597 -1.2996669
0.07101214 -2.5624437 -0.7574454 -0.074262135 -0.68816924 0.11225475 -0.0076265302 -1.0862923
0.06016601 0.08208769 -1.2751917 0.94602156 -0.27830455 0.030572455 1.0503552 0.19158044
0.96896905 0.2478797 0.60321635 0.028941853 0.048733965 -0.08753636 -0.61005 -0.013803167
-3.7684524 2.3579884 -0.27237082 0.29470256 0.13260083 -1.0401577 -0.0441163 -0.06593551
-0.07976684 0.006977917 0.2652042 0.99804574 -2.136215 -0.9228132 1.3136784 -0.6167305
-0.2856669 0.074199215 -0.8450166 -0.40595847 -0.14575183 -0.085179605 -2.2195415 0.034148365
-0.19462469 -0.053113144 -0.12519822 -0.23363253 -1.2572571 -1.7816076 -0.14369354 -0.049229376
-0.094323084 -0.07180275 -0.49411064 1.138583 -1.5680584 -1.315368 0.34315404 -2.5184634
-0.26820642 -1.3696921 -0.9668691 -0.1631678 -0.017440943 0.026956964 0.005741403 0.38064024
0.15331858 -0.072312936 0.51807874 -1.1745005 -2.0406332 -0.10420011 0.2990266 -0.31384757
-0.59828466 -0.5106298 -0.60040164 0.11783162 -0.30774912 0.10776143 -1.3052924 0.033896666
-0.035977937 -0.11849244 -0.25864178 0.06413333 -0.14443047 0.029666618 -0.011705159 -0.08590256
-0.06161484 0.054294877 -0.12944439 -0.037507497 -0.076192856 -0.21808566 -0.06711 -0.24798964
-0.16500287 0.08928642 -0.05602987 -0.15655138 -0.17045493 -0.18231861 -0.13499834 -0.2422145
-0.037717536 -0.23806581 0.09861645 -0.018543866 -0.2680392 -0.045785777 -0.117773235 -0.18023175
0.011509657 0.06861009 0.01645258 -0.09958628 -0.19299006 -0.295497 -0.17882341 -0.19597852
0.03073889 -0.033491295 -0.105098315 -0.15216666 -0.19225 0.03815002 -0.011984747 -0.09877349
0.11546536 -0.07387264 -0.40960386 0.07361253 -0.10380527 -0.22015443 -0.09280564 -0.047347587
0.048520833 -0.120319955 -0.07573858 -0.05311823 -0.13192981 0.015863627 -0.14125383 -0.1171024
-0.5077739 0.5709074 -0.027960395 -0.7952785 0.23564191 -0.023691744 0.04826484 0.02309443
-0.79618347 0.030112568 -0.8319036 -0.8990243 -1.7167552 -0.39956832 -0.48536333 -0.41525656
0.11833882 0.09231399 0.25921395 0.061839953 0.12470608 0.16100049 -0.14125676 -0.10526841
0.064834446 -1.2949992 0.08709867 0.011758102 -1.1146861 -1.3463768 0.20998557 0.24887346
0.08626552 0.12064399 1.656227 0.2956068 -1.3958436 -0.03524966 0.38994658 -1.0575824
-0.034156915 0.025864057 -0.79641086 -0.1998207 -0.0147012705 -0.23675519 0.32901293 -0.4193736
-0.092158146 0.037297945 2.757508 -0.078684434 -0.583134 -0.084592596 -0.81893253 0.10833444
0.04129854 -0.16754395 -0.5005302 0.03804916 -0.18842599 -0.06760268 -0.8957355 -0.11232816
00000000: 5bda 6a40 7973 733f 2e4b 66bb e914 6e3e
00000010: 2214 763e cc9c 66bf 1317 97bc f401 2e3d
00000020: fe9b a9bf 90e0 9cbd 445f e63f 3a87 3dbd
00000030: eb67 a9bf 5ae8 693f 12e4 4cbf 5125 8bbd
00000040: 45e9 223e 6f6a d63d eb7a 5dbf d26c f13d
00000050: af52 41bf 26b1 aabe f0a4 24bf a0d9 1e3e
00000060: ccce abbc 8afc dbbf 5e38 bf3d e837 92bd
00000070: 94aa 4fbf ea0b 943f 2fc6 21be c1ea 91be
00000080: fecb dbbd d41c 9dbd c691 5fbe 0c98 1cc0
00000090: 8165 99bf f28b e4bf d0b2 75bf 7c5b a6bf
000000a0: d06e 913d 14ff 23c0 f1e7 41bf bf16 98bd
000000b0: dc2b 30bf d2e5 e53d f9e7 f9bb a00b 8bbf
000000c0: a270 763d 971d a83d 7b39 a3bf 782e 723f
000000d0: ef7d 8ebe 1673 fa3c 0a72 863f aa2d 443e
000000e0: 5b0e 783f 2dd4 7d3e 636c 1a3f 7717 ed3c
000000f0: 449d 473d 4346 b3bd 3d2c 1cbf ae26 62bc
00000100: 532e 71c0 48e9 1640 3074 8bbe 41e3 963e
00000110: 83c8 073e e323 85bf 4bb3 34bd 3209 87bd
00000120: cc5c a3bd 03a7 e43b d8c8 873e ed7f 7f3f
00000130: bfb7 08c0 7c3d 6cbf 9d26 a83f 0de2 1dbf
00000140: ef42 92be c2f5 973d 0253 58bf cad9 cfbe
00000150: f83f 15be a572 aebd f80c 0ec0 28df 0b3d
00000160: b24b 47be 2b8d 59bd f633 00be 5e3d 6fbe
00000170: cded a0bf b80b e4bf 6624 13be bea4 49bd
00000180: 762c c1bd 520d 93bd 12fc fcbe 16bd 913f
00000190: 23b6 c8bf fb5d a8bf e3b1 af3e 812e 21c0
000001a0: 5a52 89be 1252 afbf bc84 77bf 7615 27be
000001b0: 4fe0 8ebc dad4 dc3c 6122 bc3b 47e3 c23e
000001c0: 8cff 1c3e ce18 94bd cfa0 043f 0856 96bf
000001d0: bc99 02c0 de66 d5bd 041a 993e a1b0 a0be
000001e0: 2f29 19bf a2b8 02bf ecb3 19bf b451 f13d
000001f0: 4b91 9dbe 06b2 dc3d d213 a7bf 3bd7 0a3d
00000200: 9a5d 13bd 2aac f2bd b26c 84be 5658 833d
00000210: 95e5 13be 6807 f33c ffc6 3fbc aeed afbd
00000220: d85f 7cbd 4e64 5e3d 128d 04be 76a1 19bd
00000230: 000b 9cbd d951 5fbe f870 89bd fff0 7dbe
00000240: 83f6 28be ccdb b63d 947f 65bd 014f 20be
00000250: bd8b 2ebe bbb1 3abe 013d 0abe 1407 78be
00000260: b47d 1abd 86c7 73be 6cf7 c93d 4ee9 97bc
00000270: 6f3c 89be de89 3bbd 1833 f1bd ac8e 38be
00000280: 0093 3c3c 7283 8c3d 90c7 863c e4f3 cbbd
00000290: 309f 45be 624b 97be 7c1d 37be 98ae 48be
000002a0: 20d0 fb3c 2b2e 09bd c93d d7bd 94d1 1bbe
000002b0: 2fdd 44be 3243 1c3d ac5b 44bc c149 cabd
000002c0: 1a79 ec3d 8a4a 97bd 99b7 d1be 2bc2 963d
000002d0: db97 d4bd 2a70 61be e210 bebd 8bef 41bd
000002e0: c8bd 463d 4f6a f6bd d41c 9bbd 8092 59bd
000002f0: 9c18 07be 70f4 813c d8a4 10be 62d3 efbd
00000300: 78fd 01bf fd26 123f 330d e5bc 5f97 4bbf
00000310: 1d4c 713e 3015 c2bc 5ab1 453d 8830 bd3c
00000320: aed2 4bbf a2ae f63c a2f7 54bf 7526 66bf
00000330: a2be dbbf 3894 ccbe 8b81 f8be 829c d4be
00000340: a05b f23d 1e0f bd3d b1b7 843e e44b 7d3d
00000350: e765 ff3d 50dd 243e 9da5 10be f796 d7bd
00000360: ecc7 843d 89c2 a5bf ca60 b23d 0ea5 403c
00000370: 09ae 8ebf 1356 acbf 7506 573e afd8 7e3e
00000380: faab b03d 3214 f73d 3fff d33f c659 973e
00000390: 01ab b2bf f361 10bd 14a7 c73e dc5e 87bf
000003a0: 1fe8 0bbd dce0 d33c 95e1 4bbf cc9d 4cbe
000003b0: 99dd 70bc f46f 72be 6274 a83e 23b8 d6be
000003c0: 69bd bcbd bbc5 183d 037b 3040 4e25 a1bd
000003d0: 4548 15bf e23e adbd 90a5 51bf 72de dd3d
000003e0: a828 293d a490 2bbe bf22 00bf 70d9 1b3d
000003f0: bef2 40be 4673 8abd ec4e 65bf 4e0c e6bd

critic.4.bias f4 [32]
-0.6498423 -0.4810884 -0.10804032 -1.2742469 1.2431709 -0.15676434 -1.3874087 -1.9162171
-0.6136502 -1.3134952 0.58416694 -1.1931472 -0.6460067 3.1026044 -0.14042772 -0.42776683
-1.6392087 -0.2430402 0.7893899 -0.38069654 -0.7593913 4.488204 -0.23211175 -0.7358607
-0.7556122 -1.4868982 0.05980831 0.40016392 1.4820069 -1.2831025 0.6837742 0.2984882
00000000: 115c 26bf 3851 f6be 3e44 ddbd 861a a3bf
00000010: 3920 9f3f d586 20be 9c96 b1bf 9a46 f5bf
00000020: 2e18 1dbf 9c20 a8bf f78b 153f 0cb9 98bf
00000030: b260 25bf 1291 4640 49cc 0fbe 4104 dbbe
00000040: 97d1 d1bf 88df 78be 7515 4a3f a8ea c2be
00000050: 7867 42bf 5e9f 8f40 b4ae 6dbe 5e61 3cbf
00000060: cd6f 41bf ae52 bebf 8ff9 743d 49e2 cc3e
00000070: 67b2 bd3f b43c a4bf d30b 2f3f 72d3 983e

critic.6.weight f4 [1, 32]
-0.103841886 -0.5249665 -0.0053967284 -0.09507817 0.15114376 0.03647787 -0.44189143 0.16279197
0.054246143 -0.06247102 0.043327656 0.19827889 -0.16122948 0.7938221 0.44093546 -0.039365042
-0.23117244 0.08785307 -0.9051271 0.01364763 -0.51407546 -1.1954216 0.052594785 0.43505767
-0.23074542 0.12884963 -0.16123635 -0.048586138 0.094601326 -0.17357378 -0.015078765 -0.26761043
00000000: 0eab d4bd 3464 06bf 0ad7 b0bb 58b8 c2bd
00000010: 6ec5 1a3e d269 153d 983f e2be f0b2 263e
00000020: 3431 5e3d 9de1 7fbd 5778 313d 9f09 4b3e
00000030: 5719 25be ed37 4b3f 4bc2 e13e 3d3d 21bd
00000040: 78b8 6cbe 4fec b33d 69b6 67bf 4f9a 5f3c
00000050: 739a 03bf 9303 99bf a16d 573d e1bf de3e
00000060: 8748 6cbe 28f1 033e 241b 25be 4202 47bd
00000070: 57be c13d 53bd 31be ed0c 77bc 3c04 89be
