model/pretrained_model.pth (torch_old, 90598 bytes, 14 tensors)

actor.0.weight f4 [128, 4]
-0.050878346 -0.019101322 0.06369561 0.29638916 0.007540063 -0.40892243 0.29752368 -0.06128083
-0.40385973 0.45911562 -0.43849963 0.12495078 -0.22568329 0.44446427 -0.3755587 -0.08307293
0.112944156 -0.4302134 0.46130064 0.46831772 0.27278483 0.09423816 -0.089039974 -0.30933186
-0.24039258 -0.25155842 0.29413652 0.44581088 -0.0717352 -0.02529949 0.2772162 -0.28982794
0.08900492 0.433944 0.25635976 -0.30745745 0.009107317 0.46587875 0.47862792 0.371986
0.19430178 -0.0136425495 -0.018660545 -0.19488537 0.35850072 0.44517574 0.4919329 -0.25251526
-0.21197759 -0.4162571 0.4769428 0.36993632 0.23087664 -0.015523638 -0.062888935 0.29438415
0.30691987 -0.4856277 0.11187614 -0.014374526 -0.22718543 0.08192891 0.25229257 0.16710877
-0.1661197 -1.5318394e-05 -0.16596961 -0.1824317 0.13848314 0.28257474 0.100213766 0.3798476
-0.2497012 -0.042954147 -0.023311019 0.28035104 -0.042979598 -0.023588479 -0.08957881 -0.38203192
0.16431516 0.11736095 -0.18943816 0.13475507 -0.026464108 0.41702244 -0.37189716 -0.039839555
-0.19883731 0.46324643 -0.4910156 0.4645024 -0.446751 -0.41263348 -0.115268886 -0.19883752
0.46365064 -0.33935678 -0.0942111 -0.18075418 0.03934616 -0.27194583 0.0496428 0.22887617
0.449343 -0.27259868 0.46129346 0.25506544 0.12908332 0.196326 -0.24412385 0.17467923
-0.052378625 -0.4581095 0.013105214 0.21082328 0.21670637 0.014201037 0.42813805 0.13000046
-0.16319495 0.38478702 -0.018916726 0.017980576 -0.082706094 -0.37918437 -0.36728007 -0.37127632
0.14770786 0.31193915 -0.114458404 0.15624137 -0.23072205 -0.28311464 -0.05505773 0.37492317
0.078675635 -0.21153487 -0.44813186 0.18702492 -0.03617186 -0.02302628 0.026736122 0.072590455
0.19717826 -0.1991198 0.13897204 0.4895019 -0.18873563 0.32546362 -0.0413422 0.045942944
0.39101326 0.3549106 0.3760664 0.45687407 -0.4129209 0.3518775 -0.13250148 -0.23227865
0.11731883 0.38671583 0.38205317 -0.03951227 -0.0018048079 -0.20576252 -0.47025666 0.28947908
0.25269789 0.09027911 -0.38620016 0.2440749 0.43983036 0.41378516 -0.4327423 0.4539822
-0.031420458 -0.08725972 0.33845398 0.26326278 -0.10644646 -0.4025887 0.40008795 -0.013966685
-0.22839472 0.47158036 -0.4396739 0.1538207 0.26537654 0.4139577 -0.25737187 -0.11940306
-0.33055332 -0.37928444 0.13457823 -0.362569 0.18327941 0.23206808 -0.35300595 0.01184003
-0.4365684 -0.11017166 -0.4303571 0.009410003 0.25411502 0.35290998 0.1966403 0.21526915
-0.35696942 -0.46689707 0.08342457 0.048796654 -0.25920618 -0.25690594 -0.01852587 0.45311362
0.057015438 0.33770624 -0.21359117 0.31032905 -0.26880118 0.48209277 -0.06561009 0.2954982
0.1776413 0.3855454 -0.30168748 0.50066847 -0.07519972 -0.27757525 0.016942382 0.4884115
0.33346236 0.25548518 0.028030325 -0.4320767 0.4779627 -0.22741748 0.13291816 0.43406036
0.46085325 0.47792828 -0.3471687 0.3060094 0.20792107 0.3125612 0.41722798 0.14877775
-0.18138748 -0.49015862 -0.2855727 0.21522212 0.41614258 0.08373202 -0.36052778 -0.34300065
00000000: d065 50bd 607a 9cbc d872 823d 52c0 973e
00000010: a212 f73b 485e d1be 0655 983e 9c01 7bbd
00000020: b4c6 cebe 3411 eb3e 0683 e0be 32e6 ff3d
00000030: 8519 67be d290 e33e 3b49 c0be 2422 aabd
00000040: 444f e73d ee44 dcbe 992f ec3e 57c7 ef3e
00000050: 74aa 8b3e f0ff c03d 975a b6bd bf60 9ebe
00000060: 7929 76be 44cc 80be 1099 963e 5341 e43e
00000070: e8e9 92bd e040 cfbc 48ef 8d3e 5464 94be
00000080: 3648 b63d e82d de3e 9641 833e 106b 9dbe
00000090: db36 153c a987 ee3e b80e f53e f374 be3e
000000a0: 0cf7 463e 0085 5fbc 00de 98bc 0890 47be
000000b0: 688d b73e 13ee e33e a1de fb3e ae49 81be
000000c0: a710 59be a71f d5be d931 f43e 4b68 bd3e
000000d0: ed6a 6c3e db56 7ebc eacb 80bd 85b9 963e
000000e0: 9a24 9d3e 32a4 f8be 511f e53d 2283 6bbc
000000f0: 4ca3 68be 58ca a73d 7e2c 813e 901e 2b3e
00000100: 481b 2abe 0080 80b7 f0f3 29be 60cf 3abe
00000110: 86ce 0d3e a3ad 903e e03c cd3d 627b c23e
00000120: acb1 7fbe b0f0 2fbd c0f6 bebc 2c8a 8f3e
00000130: 600b 30bd a03c c1bc 1875 b7bd b099 c3be
00000140: 3c42 283e f05a f03d 14fc 41be 3cfd 093e
00000150: 42cb d8bc f783 d53e 4e69 bebe cd2e 23bd
00000160: 029c 4bbe a32e ed3e 6666 fbbe 42d3 ed3e
00000170: 8cbc e4be b244 d3be 1812 ecbd 109c 4bbe
00000180: 9e63 ed3e 2cc0 adbe c0f1 c0bd a017 39be
00000190: 7029 213d 7c3c 8bbe 4056 4b3d 845e 6a3e
000001a0: 4910 e63e 0e92 8bbe a82e ec3e f097 823e
000001b0: 6b2e 043e af09 493e 9afb 79be 1ddf 323e
000001c0: f88a 56bd 548d eabe 40b7 563c 0fe2 573e
000001d0: 46e8 5d3e 77ab 683c e934 db3e d71e 053e
000001e0: 941c 27be ce02 c53e 40f7 9abc 004c 933c
000001f0: d061 a9bd 7424 c2be 220c bcbe ee17 bebe
00000200: bb40 173e 7db6 9f3e 2b69 eabd bdfd 1f3e
00000210: 6742 6cbe 67f4 90be 3784 61bd eef5 bf3e
00000220: b120 a13d 999c 58be 8a71 e5be 7683 3f3e
00000230: f228 14bd 9ca1 bcbc b605 db3c 4eaa 943d
00000240: 19e9 493e 10e6 4bbe b04e 0e3e fe9f fa3e
00000250: ea43 41be 2ba3 a63e 7056 29bd ab2e 3c3d
00000260: e432 c83e d8b6 b53e c68b c03e 66eb e93e
00000270: 5e6a d3be 4a29 b43e 78ae 07be 74da 6dbe
00000280: db44 f03d 9eff c53e 799c c33e 9ed7 21bd
00000290: 4e8f ecba 69b3 52be 7bc5 f0be 9a36 943e
000002a0: 9e61 813e 41e4 b83d 07bc c5be c5ee 793e
000002b0: 7231 e13e a6db d33e 6690 ddbe 5b70 e83e
000002c0: bdb2 00bd 39b5 b2bd d749 ad3e 61ca 863e
000002d0: 9a00 dabd 1b20 cebe 54d8 cc3e 86d4 64bc
000002e0: 4ee0 69be fb72 f13e f01c e1be 2c83 1d3e
000002f0: 6fdf 873e 43f2 d33e 3fc6 83be 9789 f4bd
00000300: 493e a9be 9231 c2be e0ce 093e a5a2 b9be
00000310: 99ad 3b3e 41a3 6d3e 32bd b4be affc 413c
00000320: e585 dfbe aea1 e1bd c457 dcbe 6a2c 1a3c
00000330: 5d1b 823e 9eb0 b43e 135c 493e 846f 5c3e
00000340: b2c4 b6be 220d efbe 80da aa3d 00df 473d
00000350: acb6 84be 2d89 83be 91c3 97bc 82fe e73e
00000360: 0589 693d d5e7 ac3e a5b7 5abe 73e3 9e3e
00000370: 4fa0 89be ddd4 f63e 955e 86bd 8a4b 973e
00000380: 9ae7 353e 3566 c53e c876 9abe cf2b 003f
00000390: 5002 9abd 581e 8ebe c0ca 8a3c 1211 fa3e
000003a0: 94bb aa3e f4ce 823e da9f e53c 2839 ddbe
000003b0: 87b7 f43e 21e0 68be b31b 083e 293d de3e
000003c0: f5f4 eb3e 04b3 f43e 19c0 b1be 44ad 9c3e
000003d0: 43e9 543e 0608 a03e e89e d53e 3259 183e
000003e0: a4bd 39be 12f6 fabe 9636 92be 3063 5c3e
000003f0: a410 d53e b17b ab3d 1997 b8be c89d afbe

actor.0.bias f4 [128]
-0.42717397 0.19454487 0.33542094 0.50535035 0.25725663 0.48864102 0.045790143 -0.103073776
-0.37292516 -0.36758375 -0.07261211 -0.1516205 0.41793814 -0.2149455 0.45257768 -0.29489255
-0.32870388 0.24650332 -0.31817424 -0.014938235 -0.4743483 -0.037868697 -0.38894972 0.14512177
-0.28539103 -0.3096215 0.37006313 0.056449763 0.3088879 -0.090747066 -0.38960183 -0.118153095
0.13422509 0.40176418 -0.14550908 0.0410815 0.29599583 0.11017818 0.21347655 -0.34816188
0.30943134 0.1508663 -0.14511791 0.3660825 -0.17987734 0.124500945 -0.3091644 0.05048375
0.47498885 -0.04617569 0.21693219 -0.34131837 -0.014560819 0.16912529 -0.031092007 -0.4195942
-0.04793577 -0.45888615 -0.006928745 -0.2772903 0.30964628 0.2678304 -0.31950945 0.25607926
-0.39256346 0.079331666 0.15190966 -0.4467669 -0.4386183 -0.15973717 0.010223972 -0.29576623
-0.09322667 -0.055300746 0.5054376 -0.28654075 0.18355863 0.3974013 -0.18487176 -0.08210255
0.28411186 0.47537223 0.24787687 0.24320109 -0.4891147 0.24727735 -0.041477475 0.0097047165
0.40425578 0.42304456 -0.23072448 0.12042763 0.09008422 -0.3620936 -0.4095673 -0.021845147
-0.3352788 -0.099841416 -0.393942 0.42894143 -0.05782312 -0.22975339 0.45062754 -0.2810788
0.19335823 0.010164501 0.33910847 -0.05868637 0.0845273 0.10332892 -0.0703035 -0.057522614
0.30849627 0.43762946 -0.03672248 -0.14274876 0.3974259 -0.08314803 0.25623155 -0.14800745
-0.233213 0.21457022 -0.1809212 0.2824146 0.2605168 0.19250868 -0.04503117 -0.11547062
00000000: 8cb6 dabe c536 473e 4bbc ab3e a45e 013f
00000010: 24b7 833e 282f fa3e 728e 3b3d 5818 d3bd
00000020: 0cf0 bebe f033 bcbe a8b5 94bd 6842 1bbe
00000030: fdfb d53e ac1a 5cbe 43b8 e73e 28fc 96be
00000040: e04b a8be 5e6b 7c3e bce7 a2be 80bf 74bc
00000050: c8dd f2be 351c 1bbd 6b24 c7be cd9a 143e
00000060: c61e 92be b686 9ebe ea78 bd3e de37 673d
00000070: 8e26 9e3e 99d9 b9bd e479 c7be 40fa f1bd
00000080: 4d72 093e 09b4 cd3e 5500 15be 1345 283d
00000090: c48c 973e 19a5 e13d 9999 5a3e 4642 b2be
000000a0: c96d 9e3e b27c 1a3e ca99 14be 2a6f bb3e
000000b0: c431 38be 5afa fe3d cc4a 9ebe 0cc8 4e3d
000000c0: bd31 f33e b822 3dbd 7923 5e3e 48c1 aebe
000000d0: 8090 6ebc 2e2f 2d3e aab4 febc 0dd5 d6be
000000e0: 4c58 44bd 20f3 eabe 870a e3bb fff8 8dbe
000000f0: f589 9e3e 1121 893e be96 a3be d21c 833e
00000100: 14fe c8be a478 a23d 358e 1b3e a2be e4be
00000110: 9492 e0be 2492 23be 7282 273c ac6e 97be
00000120: a0ed bebd 0983 62bd 5c64 013f 78b5 92be
00000130: cbf6 3b3e 2f78 cb3e 064f 3dbe 6225 a8bd
00000140: 1c77 913e fd63 f33e 6fd3 7d3e b509 793e
00000150: 3e6d fabe 4636 7d3e 49e4 29bd 8800 1f3c
00000160: 9dfa ce3e 4c99 d83e 0a43 6cbe c3a2 f63d
00000170: 137e b83d 5564 b9be ceb2 d1be 98f4 b2bc
00000180: aaa9 abbe a879 ccbd c4b2 c9be 369e db3e
00000190: f0d7 6cbd 7944 6bbe a7b8 e63e 8fe9 8fbe
000001a0: b3ff 453e 0289 263c a09f ad3e 1e61 70bd
000001b0: a61c ad3d 1d9e d33d 48fb 8fbd d59c 6bbd
000001c0: 39f3 9d3e f810 e03e 506a 16bd bb2c 12be
000001d0: 687b cb3e 8449 aabd c830 833e 448f 17be
000001e0: 64cf 6ebe 4cb8 5b3e 6843 39be a598 903e
000001f0: 7562 853e ff20 453e 9b72 38bd dc7b ecbd

actor.2.weight f4 [64, 128]
-0.03745504 0.050376076 0.008343314 0.022539444 -0.0026945015 0.04761579 -0.025013575 -0.03600853
-0.052719373 0.013774376 0.059709273 -0.01119557 -0.017941117 0.09162483 0.06911794 -0.03518365
0.023927674 -0.032751184 -0.038834464 -0.008668952 0.07530341 0.016062763 -0.045617193 -0.07195743
-0.07803462 -0.049964793 -0.05134522 -0.059810936 0.007981648 -0.06355423 0.038621493 -0.05795356
-0.058004282 0.003621898 -0.011557053 0.005717063 0.016407639 0.011198676 0.091850914 -0.009746261
-0.04863663 -0.04332419 0.04544475 0.066826105 0.018213976 -0.06438546 0.0045687067 0.049077973
0.0696626 0.09606088 0.05887366 -0.025597524 0.05637347 0.046071075 0.07202437 -0.07162576
0.0119126765 -0.026908718 -0.01791411 -0.026201252 -0.03887756 0.04782929 -0.079541005 -0.06630962
0.023779042 0.01880254 0.074288554 -0.05090531 -0.026918769 0.007162407 0.06517921 -0.06253567
0.05290216 0.011256002 0.0045402553 0.037785504 -0.083318025 0.0120084165 -0.071268976 0.05380904
0.06329783 -0.036089752 0.051841248 -0.029525077 0.0650638 -0.06345315 -0.034756213 0.05150214
-0.06995941 -0.07582766 -0.016549254 -0.03732724 -0.03695297 0.055868056 0.08754674 0.0746074
0.00027005374 0.05964958 0.02744107 -0.03726498 -0.029925335 0.050930444 0.041056912 -0.0075580785
0.0849484 -0.07993448 -0.082369804 0.022803575 -0.08351433 0.05470238 -0.018253982 0.075570576
0.07451779 -0.049909137 0.067633815 0.067401044 0.063068606 -0.04377218 0.007972683 -0.023433821
-0.031680543 0.014126363 0.07193033 -0.035852082 0.0046740193 0.06663994 -0.009270414 0.071525574
0.08545346 -0.08125306 0.042780552 -0.07189801 -0.06312615 -0.006010367 0.06980013 -0.05683574
0.04925806 -0.08283298 -0.056126494 -0.008984384 0.014569869 -0.013406074 0.031002356 0.0070440024
-0.031339385 0.057108294 -0.050278556 -0.03130634 0.06767357 0.05281383 0.01660118 0.050343808
0.078010745 -0.067500114 0.026869666 0.01235089 0.06213904 0.03228745 0.03175454 -0.064452276
0.031251892 -0.05390046 0.06300024 0.025024282 -0.049188636 -0.056722574 -0.01462543 0.034775235
-0.09481599 -0.06720002 -0.026656618 0.0006429657 0.022749895 -0.05349184 0.031490326 -0.07368371
-0.0464221 -0.088379115 0.0039408426 -0.0051915357 0.08496752 -0.085243754 0.040763028 0.024965707
-0.05149278 0.032747246 0.06642561 -0.052956823 -0.0383952 0.003698465 0.005888 0.05379758
-0.08670776 0.06406937 0.044917937 -0.008974552 -0.083309494 0.05652102 0.05137619 0.08836567
-0.09135196 0.06401097 0.018372647 0.020606302 -0.020921316 -0.014543732 0.05407411 0.00045150847
0.070380315 0.061190713 0.07254924 -0.032261197 -0.0448565 -0.028801005 0.06420666 0.024857024
0.0017478633 0.07307601 -0.081670344 -0.08984751 -0.0626777 0.07333687 0.06600203 -0.015856002
-0.0632611 0.07042209 0.0017402987 0.029424487 -0.023073316 -0.07199781 -0.07899585 -0.05632956
-0.031881437 0.04711883 -0.05741404 -0.007970828 -0.00854747 0.05203798 -0.06833535 -0.038447898
-0.04164379 0.054920748 -0.015123755 -0.021397231 0.004365062 0.016944995 0.048913043 0.07478577
0.016334124 -0.07110317 -0.033211265 0.06746694 -0.0046185306 0.022974273 0.047573432 -0.079216205
00000000: 756a 19bd 2557 4e3d 65b2 083c a4a4 b83c
00000010: 3c96 30bb c608 433d 45e9 ccbc ae7d 13bd
00000020: 45f0 57bd ecad 613c b691 743d a06d 37bc
00000030: 40f9 92bc cda5 bb3d b58d 8d3d bb1c 10bd
00000040: f803 c43c 1b26 06bd e310 1fbd 3808 0ebc
00000050: ad38 9a3d 0e96 833c 18d9 3abd 6b5e 93bd
00000060: 9dd0 9fbd e2a7 4cbd 5e4f 52bd 50fc 74bd
00000070: 75c5 023c b828 82bd 9231 1e3d b660 6dbd
00000080: e695 6dbd 5d5d 6d3b cb59 3dbc 3356 bb3b
00000090: 5069 863c a77a 373c 551c bc3d c8ae 1fbc
000000a0: 3437 47bd b574 31bd 4624 3a3d 20dc 883d
000000b0: 7a35 953c 86dc 83bd 17b5 953b fc05 493d
000000c0: 44ab 8e3d 91bb c43d 8225 713d e6b1 d1bc
000000d0: dee7 663d 06b5 3c3d 8381 933d 87b0 92bd
000000e0: 632d 433c ac6f dcbc 9dc0 92bc 02a4 d6bc
000000f0: 143e 1fbd a5e8 433d 65e6 a2bd 57cd 87bd
00000100: 44cc c23c c907 9a3c 9924 983d 1682 50bd
00000110: c084 dcbc a0b2 ea3b ad7c 853d b412 80bd
00000120: efaf 583d 186b 383c 6cc6 943b f9c4 1a3d
00000130: a4a2 aabd f3be 443c 78f5 91bd de66 5c3d
00000140: 4ba2 813d d9d2 13bd 7d57 543d 93de f1bc
00000150: 2b40 853d baf3 81bd 885c 0ebd e8f3 523d
00000160: e146 8fbd 884b 9bbd 4d92 87bc 73e4 18bd
00000170: ff5b 17bd e7d5 643d b54b b33d c4cb 983d
00000180: 0096 8d39 1e53 743d 18cc e03c 2aa3 18bd
00000190: fa25 f5bc 719c 503d 4b2b 283d c2a9 f7bb
000001a0: 6df9 ad3d b0b4 a3bd 80b1 a8bd 90ce ba3c
000001b0: 9009 abbd 9a0f 603d 6089 95bc bfc4 9a3d
000001c0: c89c 983d 866d 4cbd 9983 8a3d 8f09 8a3d
000001d0: 1d2a 813d 754a 33bd db9f 023c 49f8 bfbc
000001e0: 75c3 01bd 4372 673c 3550 933d a2d9 12bd
000001f0: 8428 993b 857a 883d efe2 17bc 007c 923d
00000200: 3902 af3d 0168 a6bd a93a 2f3d 443f 93bd
00000210: 4848 81bd 9df2 c4bb 5ff3 8e3d 98cc 68bd
00000220: d2c2 493d 56a4 a9bd e5e4 65bd 3d33 13bc
00000230: 76b6 6e3c 26a5 5bbc a7f8 fd3c 60d1 e63b
00000240: ba5d 00bd 63ea 693d e3f0 4dbd 143b 00bd
00000250: 7198 8a3d 5153 583d 33ff 873c 4f35 4e3d
00000260: 19c4 9f3d 803d 8abd c61d dc3c 635b 4a3c
00000270: 8285 7e3d d83f 043d 0c11 023d 8eff 83bd
00000280: fc01 003d bbc6 5cbd 4506 813d b9ff cc3c
00000290: 067a 49bd ee55 68bd 809f 6fbc 7a70 0e3d
000002a0: e32e c2bd 2aa0 89bd fb5e dabc b38c 283a
000002b0: fd5d ba3c 421a 5bbd 00fc 003d 7ce7 96bd
000002c0: 1a25 3ebd 1c00 b5bd 2f22 813b c21d aabb
000002d0: 7303 ae3d 4794 aebd 22f7 263d e284 cc3c
000002e0: 18ea 52bd fa21 063d 260a 883d 41e9 58bd
000002f0: 4944 1dbd f261 723b 20f0 c03b da5a 5c3d
00000300: d793 b1bd cd36 833d dffb 373d 000a 13bc
00000310: 2b9e aabd 9682 673d d76f 523d 0ff9 b43d
00000320: bd16 bbbd 2f18 833d 3c82 963c 8cce a83c
00000330: 2e63 abbc d548 6ebc d07c 5d3d 71b8 ec39
00000340: 8e23 903d 1da3 7a3d b294 943d 5124 04bd
00000350: 73bb 37bd 16f0 ebbc c87e 833d f5a0 cb3c
00000360: 8f18 e53a e0a8 953d c842 a7bd f901 b8bd
00000370: 2a5d 80bd a431 963d 132c 873d 72e4 81bc
00000380: 098f 81bd 7539 903d bc1a e43a 9f0b f13c
00000390: 4004 bdbc 9673 93bd 94c8 a1bd d3b9 66bd
000003a0: 1c96 02bd adff 403d fc2a 6bbd 1398 02bc
000003b0: b00a 0cbc c725 553d 67f3 8bbd 8b7b 1dbd
000003c0: ae92 2abd 94f4 603d a0c9 77bc 3f49 afbc
000003d0: cb08 8f3b 3bd0 8a3c 0b59 483d 4829 993d
000003e0: 24cf 853c 8a9e 91bd 8908 08bd 1b2c 8a3d
000003f0: 0b57 97bb 8b34 bc3c 5cdc 423d 1b3c a2bd

actor.2.bias f4 [64]
-0.009060172 0.07220594 -0.020956323 -0.082850456 0.052870933 -0.058228243 -0.0073013394 0.016604878
-0.04706078 -0.05594978 -0.013655816 -0.0039767236 0.064451955 -0.035768807 0.0818192 -0.02363972
0.04664962 0.036022924 -0.05004951 -0.08171276 0.09568633 -0.08012445 0.047631122 -0.08812556
0.008397718 -0.02439756 -0.0073680803 -0.014825495 -0.013035615 0.07480816 0.04998531 -0.032038927
0.08200152 0.040662706 -0.061605923 0.0659503 0.018253999 -0.041079458 -0.029173952 -0.008999074
0.01614371 -0.050470956 -0.022622593 0.0679735 -0.02258413 -0.0699905 -0.05595146 -0.07285569
0.071774215 0.01407893 -0.08379465 -0.07344937 0.010408612 0.039863404 0.06429371 0.08405238
0.0820807 -0.000997432 -0.053783435 -0.026872987 -0.084307276 -0.004221762 -0.013387917 0.00681257
00000000: 1e71 14bc b5e0 933d 98ac abbc 80ad a9bd
00000010: 318f 583d bd80 6ebd 1340 efbb f406 883c
00000020: cec2 40bd 992b 65bd a5bc 5fbc 2d4f 82bb
00000030: 63ff 833d 5082 12bd d390 a73d 16a8 c1bc
00000040: ac13 3f3d c68c 133d b700 4dbd 0559 a7bd
00000050: 32f7 c33d 4a18 a4bd da18 433d 2c7b b4bd
00000060: 9596 093c 64dd c7bc f06f f1bb a2e6 72bc
00000070: 5593 55bc 0535 993d 65bd 4c3d 403b 03bd
00000080: 6af0 a73d f08d 263d 7e56 7cbd f310 873d
00000090: 6989 953c ef42 28bd 36fe eebc da70 13bc
000000a0: d03f 843c a2ba 4ebd 0453 b9bc b135 8b3d
000000b0: 5a02 b9bc 2e57 8fbd 5c2d 65bd 5d35 95bd
000000c0: 5cfe 923d 50ab 663c 889c abbd a06c 96bd
000000d0: e288 2a3c cf47 233d 6cac 833d a723 ac3d
000000e0: ed19 a83d 44bc 82ba 054c 5cbd bd24 dcbc
000000f0: 4ba9 acbd b556 8abb fe58 5bbc fb3b df3b

actor.4.weight f4 [32, 64]
-0.07599048 0.023226151 0.11480947 0.041384045 -0.10591311 0.06814456 -0.022503302 -0.06893454
-0.0024429276 -0.083628476 0.04558034 -0.06263371 0.04719037 0.01548937 0.09856608 -0.021675516
-0.0628377 -0.013731644 0.10044435 -0.000669837 -0.09558767 0.09018497 -0.06568253 -0.0666181
0.094146624 -0.021531627 -0.055772096 -0.032471675 -0.0016178397 -0.02477035 0.0062375814 -0.03032421
-0.12308429 -0.037306715 -0.037422523 0.0114798825 0.09356206 0.11591305 -0.019167304 -0.085475706
-0.056643963 -0.12231149 -0.04115112 0.10389291 0.07704307 0.056989457 0.09995549 0.0167128
0.03306243 -0.04649815 -0.044792935 0.11277711 -0.105592355 -0.058258723 0.10836451 0.050585613
0.034186147 0.08119818 0.11171214 0.01908183 -0.07910156 0.07193823 0.03377766 0.08409744
0.028183367 -0.06619659 -0.06530419 0.0078881895 0.13473205 0.06450051 -0.033058316 0.044918228
0.028935773 0.050112963 -0.12055492 0.05178995 -0.10498507 -0.0740767 -0.016288726 -0.086024
-0.05501632 0.07244472 -0.07809432 -0.072420955 0.13233565 0.0920255 0.09196086 0.08467097
0.09751049 -0.016977131 -0.028581738 0.12303314 0.0072353743 0.06092817 0.007817146 -0.10353909
0.012019129 -0.057556026 0.082537435 -0.11248329 0.034804445 0.07266716 -0.08120566 0.12718756
-0.12343794 0.0893946 0.07651521 0.106324956 -0.016818501 0.02471455 -0.049157184 0.0500482
0.12664682 0.04267715 0.029784963 0.06765325 0.07578403 -0.09506395 -0.023806524 -0.021871224
0.12226303 -0.017767929 0.08852841 -0.11043887 0.022141373 -0.10835588 0.11230138 -0.02787928
-0.10886716 0.08419616 -0.06998575 -0.11527138 -0.07418789 -0.08690695 0.06630082 -0.0010983512
0.006034771 -0.11289737 -0.10081848 -0.052507363 -0.047136873 0.04916674 -0.10830484 -0.072680436
0.03897554 0.048027724 -0.07784508 0.009740591 -0.12313038 -0.050265178 0.019583419 0.04865306
0.05629003 -0.09890096 -0.060438156 0.027778378 0.03673747 0.045602318 -0.009750474 0.008892137
0.013207146 0.12247879 -0.11199075 0.11244928 -0.07281493 0.08856437 -0.11677369 0.054753177
-0.113496095 0.0637939 0.022187352 -0.08502126 0.11924727 -0.05833534 -0.10981031 0.009918595
-0.086376816 -0.08409466 0.06338553 0.01321198 0.0867527 -0.033500824 -0.014378389 -0.10626578
-0.102123104 0.058294628 0.039352477 -0.09968913 -0.017736249 0.07431762 -0.03095492 -0.017484376
-0.10426695 0.06562623 0.11559524 -0.09819414 -0.10981713 -0.11049949 -0.07744845 -0.09549569
0.11848701 -0.0586105 -0.10705275 -0.0338682 -0.05296059 -0.0021963865 -0.06756017 -0.055625528
0.024301263 -0.0016803741 0.10878043 0.12097821 -0.069658786 -0.10672954 0.056609273 0.029852916
-0.0019818533 0.013047084 0.11915851 -0.08472997 -0.10565912 -0.062793046 -0.067510754 -0.10353635
-0.039754517 0.119051546 -0.110019095 0.118608445 -0.03806406 0.086717576 0.09536219 0.061347645
-0.06535588 -0.052451804 0.005273789 -0.006323615 0.005977335 -0.09121943 -0.07688206 -0.00594346
0.10732103 0.055628687 0.059949428 0.0460319 -0.12418826 -0.039512537 -0.08397423 -0.099165305
-0.114959516 0.009885839 -0.025566384 -0.08278348 -0.060567882 0.04409189 0.030355113 0.029453484
00000000: e6a0 9bbd c544 be3c 3a21 eb3d 5182 293d
00000010: f9e8 d8bd 608f 8b3d d858 b8bc 8d2d 8dbd
00000020: 8619 20bb 6845 abbd 73b2 3a3d 1a46 80bd
00000030: b04a 413d 20c7 7d3c 03dd c93d da90 b1bc
00000040: 0db1 80bd b0fa 60bc c4b5 cd3d 0098 2fba
00000050: 78c3 c3bd e6b2 b83d 9084 86bd 126f 88bd
00000060: f2cf c03d 1863 b0bc 4871 64bd 0501 05bd
00000070: b10d d4ba 30eb cabc a064 cc3b 7a6a f8bc
00000080: 9e13 fcbd edce 18bd 5c48 19bd 1e16 3c3c
00000090: 779d bf3d d263 ed3d c004 9dbc e30d afbd
000000a0: 8003 68bd 727e fabd 148e 28bd cec5 d43d
000000b0: c2c8 9d3d c76d 693d 77b5 cc3d 48e9 883c
000000c0: 786c 073d d874 3ebd cc78 37bd aff7 e63d
000000d0: ce40 d8bd b3a0 6ebd 36ee dd3d dc32 4f3d
000000e0: c606 0c3d 3b4b a63d 56c9 e43d 7f51 9c3c
000000f0: 0000 a2bd 5a54 933d 725a 0a3d 473b ac3d
00000100: cee0 e63c 1492 87bd 34be 85bd 773d 013c
00000110: 33f7 093e d818 843d 2868 07bd 2dfc 373d
00000120: b70a ed3c 4043 4d3d 7fe5 f6bd b321 543d
00000130: 6a02 d7bd 86b5 97bd ef6f 85bc 5a2d b0bd
00000140: cb58 61bd e65d 943d eaef 9fbd 7051 94bd
00000150: ff82 073e de77 bc3d fa55 bc3d f967 ad3d
00000160: 94b3 c73d a013 8bbc 4024 eabc cdf8 fb3d
00000170: b816 ed3b d18f 793d 7d13 003c 4d0c d4bd
00000180: e1eb 443c debf 6bbd 6309 a93d a45d e6bd
00000190: 1b8f 0e3d 85d2 943d 274f a6bd 753d 023e
000001a0: 08cd fcbd 8414 b73d 02b4 9c3d e6c0 d93d
000001b0: f4c6 89bc 2b76 ca3c 0b59 49bd 57ff 4c3d
000001c0: b4af 013e 3cce 2e3d 98ff f33c ca8d 8a3d
000001d0: a834 9b3d e3b0 c2bd e605 c3bc 482b b3bc
000001e0: 0a65 fa3d 0c8e 91bc 624e b53d c62d e2bd
000001f0: d361 b53c b0e9 ddbd 44fe e53d 1663 e4bc
00000200: bff5 debd 096f ac3d b054 8fbd 6713 ecbd
00000210: d2ef 97bd 45fc b1bd b9c8 873d 8df6 8fba
00000220: 54bf c53b bc36 e7bd eb79 cebd f611 57bd
00000230: 9812 41bd 1063 493d eece ddbd 7bd9 94bd
00000240: d1a4 1f3d b8b8 443d 3e6d 9fbd 0097 1f3c
00000250: c82b fcbd dce2 4dbd 686d a03c 6e48 473d
00000260: 6090 663d 968c cabd 008e 77bd 7b8f e33c
00000270: 087a 163d 7fc9 3a3d 74c0 1fbc 53b0 113c
00000280: c962 583c 29d6 fa3d 685b e5bd cf4b e63d
00000290: fe1f 95bd 3d61 b53d 0b27 efbd de44 603d
000002a0: a470 e8bd 60a6 823d 40c2 b53c a01f aebd
000002b0: ea37 f43d 0af1 6ebd 3ae4 e0bd 9a81 223c
000002c0: 54e6 b0bd d239 acbd 46d0 813d 1077 583c
000002d0: 66ab b13d 2938 09bd 5693 6bbc e0a1 d9bd
000002e0: eb25 d1bd 59c6 6e3d 1030 213d d129 ccbd
000002f0: 9c4b 91bc d633 983d 2c95 fdbc 653b 8fbc
00000300: e989 d5bd 0b67 863d 32bd ec3d 021a c9bd
00000310: cee7 e0bd 8e4d e2bd 4b9d 9ebd 3f93 c3bd
00000320: 51a9 f23d 9011 70bd 793e dbbd 62b9 0abd
00000330: 34ed 58bd 40f1 0fbb fd5c 8abd 98d7 63bd
00000340: 7113 c73c 0040 dcba 46c8 de3d 6cc3 f73d
00000350: 44a9 8ebd 0495 dabd 20df 673d 1a8e f43c
00000360: fbe1 01bb 70c3 553c 6009 f43d e886 adbd
00000370: cf63 d8bd a499 80bd 1443 8abd de0a d4bd
00000380: a2d5 22bd 4cd1 f33d b151 e1bd fce8 f23d
00000390: 0fe9 1bbd fc98 b13d 404d c33d ab47 7b3d
000003a0: 4ed9 85bd b4d7 56bd c0cf ac3b 5436 cfbb
000003b0: 85dd c33b 41d1 babd 5774 9dbd 5bc1 c2bb
000003c0: 21cb db3d e8da 633d 888d 753d f28b 3c3d
000003d0: 6a56 febd e6d7 21bd aefa abbd 2e17 cbbd
000003e0: e56f ebbd 37f8 213c 9870 d1bc 638a a9bd
000003f0: 0716 78bd b399 343d 49ab f83c 6f48 f13c

actor.4.bias f4 [32]
-0.037158772 0.11478697 0.05843358 0.06358227 -0.11811134 0.028428968 0.119196355 0.043914042
0.06771763 0.07907625 -0.1226088 -0.04197598 0.07742883 0.014495599 0.0009059245 -0.05119644
0.0102197025 0.07260346 -0.055264298 -0.104954585 0.02024912 -0.040719844 0.087608255 0.063667335
0.0015672296 0.053594828 0.06491052 0.041461557 -0.06165412 -0.103930816 -0.039300505 0.11101357
00000000: cc33 18bd 6e15 eb3d 0d58 6f3d 6c37 823d
00000010: 5ce4 f1bd dee3 e83c 381d f43d 36df 333d
00000020: 8aaf 8a3d bbf2 a13d 531a fbbd 01ef 2bbd
00000030: 0293 9e3d f37e 6d3c 907b 6d3a 5cb3 51bd
00000040: 8a70 273c 1fb1 943d d15c 62bd 6ef2 d6bd
00000050: 7ce1 a53c dac9 26bd f56b b33d 0564 823d
00000060: 806b cd3a 4086 5b3d cfef 843d 98d3 293d
00000070: 0889 7cbd aed9 d4bd 91f9 20bd 155b e33d

actor.6.weight f4 [1, 32]
0.013513314 -0.10159465 0.04008295 0.16292049 0.039831996 -0.12847136 -0.12993379 0.12057764
0.12285318 -0.08120999 0.07953093 0.08102926 -0.118539326 0.019634718 0.058220707 -0.1567697
0.12023459 0.10451729 -0.13265477 -0.04622443 -0.020382985 0.109509 0.12876174 -0.007088244
0.13155128 0.042367533 0.1696214 0.17111409 0.054206267 -0.042993173 -0.16797522 -0.10379062
00000000: f266 5d3c db10 d0bd 052e 243d a1d4 263e
00000010: e026 233d ff8d 03be 5d0d 05be 69f1 f63d
00000020: 739a fb3d 6c51 a6bd 1de1 a23d abf2 a53d
00000030: bfc4 f2bd fdd8 a03c d678 6e3d 3c88 20be
00000040: 8d3d f63d 290d d63d a7d6 07be d455 3dbd
00000050: 38fa a6bc 4146 e03d 1eda 033e 8044 e8bb
00000060: 61b5 063e 9489 2d3d 3bb1 2d3e 8838 2f3e
00000070: 6407 5e3d 9c19 30bd b201 2cbe 2d90 d4bd

critic.0.weight f4 [128, 4]
-0.0019981533 0.30121198 0.45648074 0.3490786 0.1366958 -0.33040726 -0.08315976 0.21339527
0.1546449 0.07277781 0.05091214 -0.25166136 0.50700176 -0.30824396 -0.14623082 0.23674762
-0.14250226 -0.031930484 0.4204425 0.35776556 0.02422878 0.0944153 0.41461873 0.46095964
-0.18050207 -0.041489843 -0.08166987 -0.18081355 0.4239667 0.18133402 0.4401478 -0.14972258
-0.27507043 -0.28815752 -0.23234093 -0.41943485 -0.38498265 0.26463896 0.15485986 -0.051859174
-0.050073206 -0.112121105 0.24688137 -0.20753229 0.07914067 0.03380563 0.4358419 0.20257026
0.07631379 -0.3756238 0.40348607 -0.3755159 0.13754636 0.09336438 -0.15728489 -0.46357176
-0.07570255 0.2711686 -0.1460895 0.06274146 0.42698035 0.079606414 -0.13440765 0.06354014
0.20592076 -0.17263556 -0.27816045 -0.4454112 -0.29977107 0.23456888 -0.4457158 0.2223066
0.2242406 0.25579318 0.49943855 0.11541471 0.17576794 0.28588268 -0.21410188 0.26760936
-0.04008923 -0.35639095 0.184813 -0.07622087 -0.36483425 0.49572527 0.24888316 -0.18178512
0.018526495 -0.44488388 -0.32949716 -0.3081022 -0.32483304 -0.2431755 0.009901729 0.23412755
-0.14887299 -0.3618171 0.20759791 0.13280582 -0.27465332 -0.45618284 0.13509876 -0.27133375
-0.4791478 -0.32998902 0.49383628 0.013157368 -0.3187226 -0.3673622 0.085077226 -0.33072126
0.18105476 -0.048203625 0.030895514 0.47059786 -0.3566029 0.32218415 -0.21855068 -0.34026372
-0.18697536 0.45855063 0.0125072 -0.09643084 0.12614858 0.12121558 -0.4634552 -0.23514414
-0.31144804 0.33633518 -0.21743512 -0.18885314 -0.42847198 -0.14746499 -0.1060977 -0.052023888
-0.31496733 0.02612406 0.13374966 -0.46063638 -0.3001239 -0.17455271 0.2327982 -0.3845374
0.37849718 -0.326756 0.30236107 -0.03142649 -0.4424221 -0.49531662 0.40937543 -0.20620167
-0.31278422 0.27823165 0.37702584 0.06772683 0.4890448 0.48680705 0.041457124 0.29689744
-0.35326874 0.23402417 -0.2093249 0.07751566 0.19340715 -0.45006648 0.05373756 0.3290733
-0.44018155 -0.2612626 -0.44933093 -0.03913647 -0.18203793 -0.33166265 -0.3689 0.5220284
0.18055005 0.11801015 -0.30744463 0.19273233 -0.34311873 -0.30700183 -0.31345892 0.16083944
-0.22461312 -0.078945786 0.3019818 -0.15096802 -0.35603052 0.31627855 -0.042228322 -0.22307487
-0.28012693 0.035927832 -0.2525679 -0.29651874 -0.30033803 -0.22422409 -0.45015472 0.23228729
-0.26857945 -0.18916215 -0.055153344 0.3973095 -0.018607609 -0.17406519 0.099441946 0.4067436
-0.17141026 0.09081764 -0.21200481 0.31928813 -0.011105922 -0.26160547 -0.22259408 0.14605524
0.33250532 0.26370406 0.4878377 0.24965076 -0.3841625 0.115956575 -0.4004994 -0.4025246
-0.4263789 0.07599187 0.33601123 -0.25067627 0.33573213 -0.4725103 0.37519068 -0.2632836
-0.23159097 -0.08481906 -0.079053044 -0.23400931 0.1653855 0.32127172 0.311253 -0.43190932
-0.06980318 -0.45077837 0.0030232072 0.33124053 0.023721816 0.16950743 0.29149145 -0.11465098
-0.07908418 0.07915812 -0.04355229 0.004947758 0.10681152 -0.3165146 -0.124387264 -0.49836016
00000000: 73f3 02bb 7538 9a3e d8b7 e93e 6eba b23e
00000010: fcf9 0b3e 242b a9be aa4f aabd 4a84 5a3e
00000020: 3c5b 1e3e 880c 953d 4089 503d c2d9 80be
00000030: deca 013f 27d2 9dbe 88bd 15be f86d 723e
00000040: 1dec 11be 8ac9 02bd 3d44 d73e 0c2d b73e
00000050: 6f7b c63c cf5c c13d e848 d43e e702 ec3e
00000060: 89d5 38be 41f1 29bd 8842 a7bd 3027 39be
00000070: 2a12 d93e a0af 393e 0d5b e13e e050 19be
00000080: 08d6 8cbe 6289 93be c8ea 6dbe 2ac0 d6be
00000090: 721c c5be c27e 873e 9593 1e3e 496a 54bd
000000a0: 9019 4dbd c09f e5bd 78ce 7c3e 5883 54be
000000b0: 8114 a23d c677 0a3d ab26 df3e 946e 4f3e
000000c0: 684a 9c3d c351 c0be ba95 ce3e 9f43 c0be
000000d0: f4d8 0c3e d335 bf3d 4a0f 21be 4759 edbe
000000e0: f009 9bbd 9cd6 8a3e 7c98 15be 987e 803d
000000f0: 2b9d da3e b008 a33d 29a2 09be 5521 823d
00000100: e4dc 523e 60c7 30be 0c6b 8ebe f00c e4be
00000110: 987b 99be d332 703e dd34 e4be 57a4 633e
00000120: 549f 653e 53f7 823e 69b6 ff3e 8c5e ec3d
00000130: 83fc 333e 375f 923e 863d 5bbe 1804 893e
00000140: 9b34 24bd e078 b6be 9e3f 3d3e b019 9cbd
00000150: 8ecb babe b4cf fd3e 3adb 7e3e e125 3abe
00000160: e0c4 973c d2c7 e3be dab3 a8be 92bf 9dbe
00000170: 8450 a6be 0003 79be dd3a 223c 22bf 6f3e
00000180: 2972 18be 1740 b9be 8c94 543e 40fe 073e
00000190: 5c9f 8cbe cc90 e9be 5457 0a3e 42ec 8abe
000001a0: dc52 f5be 52f4 a8be 1cd8 fc3e 0092 573c
000001b0: 9c2f a3be e616 bcbe f83c ae3d 4c54 a9be
000001c0: 6b66 393e 2a71 45bd 9718 fd3c 34f2 f03e
000001d0: a894 b6be 52f5 a43e c0cb 5fbe 0c37 aebe
000001e0: 7876 3fbe 26c7 ea3e 00eb 4c3c 887d c5bd
000001f0: 182d 013e e03f f83d 004a edbe a0c9 70be
00000200: 1e76 9fbe 2034 ac3e 50a7 5ebe b862 41be
00000210: ae60 dbbe 1001 17be c049 d9bd 0017 55bd
00000220: 6643 a1be 2002 d63c acf5 083e 88d8 ebbe
00000230: d7a9 99be f2bd 32be a762 6e3e 16e2 c4be
00000240: 62ca c13e 904c a7be 12cf 9a3e 10b9 00bd
00000250: 2685 e2be 249a fdbe a899 d13e 8826 53be
00000260: 4125 a0be 6174 8e3e 8809 c13e 5db4 8a3d
00000270: 1464 fa3e c63e f93e f2ce 293d f102 983e
00000280: a4df b4be 08a4 6f3e 4459 56be 88c0 9e3d
00000290: 860c 463e 1d6f e6be ea1b 5c3d 4c7c a83e
000002a0: 7a5f e1be 36c4 85be b40e e6be 904d 20bd
000002b0: 2768 3abe b0cf a9be 76e0 bcbe a7a3 053f
000002c0: 1de2 383e 4eaf f13d 6269 9dbe a05b 453e
000002d0: 42ad afbe 582f 9dbe b07d a0be 18b3 243e
000002e0: fb00 66be 54ae a1bd 5c9d 9a3e 5c97 1abe
000002f0: a249 b6be 43ef a13e 9bf7 2cbd bd6d 64be
00000300: cc6c 8fbe 1029 133d 9450 81be 4ed1 97be
00000310: e8c5 99be 009b 65be ae7a e6be b8dc 6d3e
00000320: 3f83 89be b9b3 41be 79e8 61bd 276c cb3e
00000330: fc6e 98bc 253e 32be 38a8 cb3d b240 d03e
00000340: 2c86 2fbe 99fe b93d ca17 59be bc79 a33e
00000350: 9df5 35bc 27f1 85be b4ef 63be 818f 153e
00000360: 233e aa3e 3804 873e ddc5 f93e 73a4 7f3e
00000370: f2b0 c4be a47a ed3d 420e cdbe b417 cebe
00000380: 564e dabe a0a1 9b3d aa09 ac3e a458 80be
00000390: 15e5 ab3e dfec f1be fe18 c03e 1ccd 86be
000003a0: 2f26 6dbe 9eb5 adbd 90e6 a1bd 23a0 6fbe
000003b0: d15a 293e ba7d a43e 8e5c 9f3e 3823 ddbe
000003c0: f8f4 8ebd 6ccc e6be 0021 463b 5c98 a93e
000003d0: 4154 c23c 5b93 2d3e 5e3e 953e 22ce eabd
000003e0: e3f6 a1bd a71d a23d e363 32bd cd20 a23b
000003f0: 00c0 da3d 340e a2be c0be febd 1029 ffbe

critic.0.bias f4 [128]
0.06645103 0.39838696 -0.4150011 -0.26128107 -0.19738716 0.3737895 0.21423472 0.20045939
-0.28262806 -0.1617258 -0.37983304 -0.32761523 0.07700303 0.3619902 -0.28683478 -0.26262492
-0.41673058 0.29932317 -0.058961723 -0.4689568 0.3472144 -0.18482569 -0.012101293 0.42405808
0.20060183 -0.303675 -0.30334604 -0.25357765 0.39614624 -0.18449992 -0.4591558 -0.46298617
-0.22740197 -0.25543827 0.14033885 0.48005927 -0.45015216 -0.10123235 -0.15736309 -0.44505998
-0.2396105 0.20071103 0.13252588 0.043341536 -0.23917933 -0.12801558 0.17094116 0.024916226
-0.41980964 -0.39136803 0.4783573 -0.1490664 0.28304186 0.04902871 0.14771864 0.18980098
-0.15744638 0.0075273626 0.27675092 0.21710877 -0.24672878 -0.3016905 0.02429544 -0.10873139
0.2620667 0.28400218 0.49831522 0.48310307 0.07927089 -0.26925725 0.24388094 0.18074296
-0.10606904 -0.42800325 -0.32034683 0.39531738 0.060444873 0.35366422 -0.07332128 0.23076701
0.1686755 0.27225944 -0.18831342 -0.40840167 0.06514948 -0.00998024 0.082657635 -0.47996777
0.45356643 -0.26074088 0.11930162 -0.4205455 0.45440608 0.08627248 0.47750252 -0.016769737
0.08752943 0.30496186 0.46204543 -0.39532012 -0.43236697 0.44416067 0.16876411 0.4877493
-0.089702524 0.37331536 -0.17378765 -0.36981508 -0.2370247 -0.2344595 -0.3283526 0.18354264
-0.17411064 -0.12605602 -0.32203066 -0.44835418 -0.12743706 -0.13369223 0.3210675 -0.21040775
0.35944876 -0.44083655 -0.3055731 -0.1942296 0.0010103396 -0.008023977 0.36792237 -0.45190394
00000000: 7a17 883d 60f9 cb3e 067b d4be a2c6 85be
00000010: dc1f 4abe 5661 bf3e 5960 5b3e 3a45 4d3e
00000020: a0b4 90be 739b 25be 7a79 c2be 2fbd a7be
00000030: c4b3 9d3d c856 b93e 02dc 92be c676 86be
00000040: b65d d5be e340 993e d981 71bd 1b1b f0be
00000050: 16c6 b13e f242 3dbe 8044 46bc 241e d93e
00000060: 916a 4d3e 4a7b 9bbe 2c50 9bbe eed4 81be
00000070: aed3 ca3e 8ced 3cbe 7816 ebbe 860c edbe
00000080: 10dc 68be cec8 82be fdb4 0f3e 54ca f53e
00000090: 587a e6be e852 cfbd ca23 21be e7de e3be
000000a0: 745c 75be 3187 4d3e ddb4 073e e586 313d
000000b0: 6deb 74be 8416 03be 330b 2f3e 1d1d cc3c
000000c0: 4af1 d6be 6461 c8be 3feb f43e dda4 18be
000000d0: ddea 903e 54d2 483d 8e43 173e 305b 423e
000000e0: a039 21be 18a8 f63b 4cb2 8d3e c351 5e3e
000000f0: 78a6 7cbe 2d77 9abe 3b07 c73c 90ae debd
00000100: 9b2d 863e bc68 913e 2c23 ff3e 4959 f73e
00000110: c758 a23d 16dc 89be edbb 793e af14 393e
00000120: ba3a d9bd 3e23 dbbe 8004 a4be 0a67 ca3e
00000130: 0b95 773d 7a13 b53e 7829 96bd 304e 6c3e
00000140: 45b9 2c3e 9765 8b3e 3cd5 40be 061a d1be
00000150: 176d 853d 2984 23bc 6848 a93d 56be f5be
00000160: dc39 e83e d47f 85be 6854 f43d bd51 d7be
00000170: eaa7 e83e a0af b03d 367b f43e b060 89bc
00000180: a142 b33d f623 9c3e 3891 ec3e 6667 cabe
00000190: 345f ddbe 0769 e33e 80d0 2c3e 47ba f93e
000001a0: f5b5 b7bd 3123 bf3e 64f5 31be 6758 bdbe
000001b0: 9ab6 72be 2716 70be d51d a8be 9af2 3b3e
000001c0: 0f4a 32be d414 01be 34e1 a4be ae8e e5be
000001d0: dc7e 02be 9ee6 08be f662 a43e 2175 57be
000001e0: ab09 b83e 54b5 e1be 1474 9cbe 20e4 46be
000001f0: 5f6d 843a 0077 03bc 5260 bc3e f45f e7be

critic.2.weight f4 [64, 128]
-0.011219427 -0.08548819 0.07232333 0.047516607 0.008379571 0.079530664 -0.07508805 0.07012584
0.024951808 -0.050700992 -0.047092486 -0.080518335 0.023280583 -0.03578693 -0.05801088 -0.029862624
-0.06502292 0.008648835 0.08683241 0.017664313 -0.03297072 -0.0882522 0.0499051 0.03768093
-0.040537164 -0.0435808 0.027114019 -0.023331739 -0.005266249 0.022121496 0.0132696405 0.054894842
0.009021983 -0.004931368 -0.027507707 -0.014049061 0.08483616 -0.054092307 -0.045130435 -0.06917836
-0.0508219 0.041016094 -0.07073791 0.032424293 0.053227074 0.027942419 0.038578518 0.0063053295
0.00666406 -0.07508695 -0.07030947 0.0059669316 -0.054017857 -0.06228263 0.03814695 -0.0063308477
-0.0631802 -0.03784633 -0.0004768297 0.02223558 -0.08213195 -0.013541393 0.03064318 0.04957404
-0.028399188 0.05562418 -0.06601901 0.04380142 0.056356348 -0.031867065 -0.020784736 -0.07533617
0.08560567 -0.059793226 -0.021533407 -0.07158081 0.026718877 0.080102794 -0.034469124 0.030026987
-0.057993717 -0.06605687 0.008398958 0.021050103 0.059024297 -0.053173758 0.08497488 0.078165315
-0.073185354 0.06967399 0.061001636 -0.024679065 -0.078615926 0.06685024 -0.058058273 0.020168215
0.023838699 0.030308269 -0.07443354 0.03237021 -0.067737415 0.06385221 0.009002432 0.0086835995
-0.019985162 -0.034000915 -0.041064844 -0.063985206 0.057198443 -0.027869593 0.0071445853 -0.051863465
0.0048832297 -0.03284807 -0.042249043 0.007581681 -0.07944169 -0.0041463673 -0.07276009 -0.08189404
-0.07145514 0.06767436 0.008971505 0.021747395 0.032038674 -0.063958794 -0.053680215 -0.07077421
-0.056924246 -0.08606448 -0.02676737 0.017719842 0.082354896 0.01851868 0.08165684 -0.0047747777
0.049501203 0.044564076 -0.07655068 -0.02732436 -0.07279529 0.063849024 -0.07359212 0.0079806745
-0.06211672 -0.0010334988 -0.0049224347 0.045450114 -0.06012272 -0.04042143 -0.024495855 0.058116417
0.045464568 -0.08711409 0.046738826 -0.0470859 0.06747517 -0.061109282 0.066291355 -0.012620106
-0.02143649 0.0754459 0.052024774 0.0015258448 -0.0046860054 0.038686655 0.0010016635 0.05276618
0.0013792664 0.043807905 -0.020907214 0.07371298 0.02154567 0.042060025 -0.07083948 -0.07513758
-0.036451448 0.05739198 -0.06037795 0.020362526 0.045291536 0.03051594 -0.011210235 0.04456712
0.0813693 0.0062798187 -0.027653348 0.046472583 -0.08405661 0.06547438 -0.03607537 0.055124275
0.07876779 0.059464306 0.023054248 0.038593758 -0.058384378 -0.08727491 -0.016144574 0.08067499
-0.019996986 0.06180296 -0.009746134 0.06652334 -0.027292471 -0.023323243 -0.07602125 0.055972647
-0.050871816 0.04384915 -0.076473236 -0.08289578 0.07834334 -0.07660844 0.07045002 0.04489226
-0.040676206 0.06175343 0.081225276 -0.06717723 -0.032676987 -0.08060617 -0.052548263 0.065917246
0.07633419 0.006242003 -0.08503954 -0.0086179 0.005717933 -0.03809637 -0.046924885 -0.08723591
-0.005257398 0.07712991 -0.06486882 -0.06683606 -0.0627185 0.0038203895 -0.066893205 0.057321806
0.020912021 0.0031550825 -0.054436374 -0.019790664 -0.0621576 -0.03715468 -0.059540555 -0.04959741
-0.029540233 -0.03508207 0.043476038 -0.00024858117 0.008003029 0.042009808 0.038146608 -0.013791956
00000000: b0d1 37bc 6f14 afbd 411e 943d c6a0 423d
00000010: 784a 093c f9e0 a23d c3c7 99bd 239e 8f3d
00000020: bc67 cc3c d8ab 4fbd 0de4 40bd cce6 a4bd
00000030: ecb6 be3c 5195 12bd d19c 6dbd 76a2 f4bc
00000040: bd2a 85bd d8b3 0d3c 31d5 b13d c0b4 903c
00000050: 4e0c 07bd 92bd b4bd 4a69 4c3d 5257 1a3d
00000060: 4c0a 26bd c881 32bd 381e de3c 3422 bfbc
00000070: 8090 acbb 2438 b53c e868 593c 6ad9 603d
00000080: f0d0 133c 5097 a1bb d857 e1bc 082e 66bc
00000090: 95be ad3d e58f 5dbd b1da 38bd 62ad 8dbd
000000a0: a02a 50bd 7e00 283d 0adf 90bd 56cf 043d
000000b0: a204 5a3d 80e7 e43c 8204 1e3d f09c ce3b
000000c0: 305e da3b 30c7 99bd 69fe 8fbd 4086 c33b
000000d0: d441 5dbd 121c 7fbd fa3f 1c3d 0073 cfbb
000000e0: 9f64 81bd c104 1bbd 00ff f9b9 6427 b63c
000000f0: cc34 a8bd b8dc 5dbc 6807 fb3c 260e 4b3d
00000100: 6aa5 e8bc 2ed6 633d fa34 87bd 1e69 333d
00000110: ead5 663d 0a87 02bd c044 aabc da49 9abd
00000120: 0752 af3d bee9 74bd d466 b0bc f698 92bd
00000130: 8ce1 da3c ef0c a43d 7f2f 0dbd 28fb f53c
00000140: d28a 6dbd d348 87bd c89b 093c 4471 ac3c
00000150: 76c3 713d bacc 59bd 4f07 ae3d 2315 a03d
00000160: 34e2 95bd 3db1 8e3d dadc 793d c02b cabc
00000170: 6301 a1bd c7e8 883d 83ce 6dbd d037 a53c
00000180: 6049 c33c 0c49 f83c 9d70 98bd a096 043d
00000190: eab9 8abd f3c4 823d f07e 133c a845 0e3c
000001a0: ecb7 a3bc 8b44 0bbd 9c33 28bd ad0a 83bd
000001b0: ea48 6a3d c64e e4bc 201d ea3b c96e 54bd
000001c0: 8003 a03b b38b 06bd 550d 2dbd c06f f83b
000001d0: 53b2 a2bd 40de 87bb 3e03 95bd 10b8 a7bd
000001e0: 1357 92bd db98 8a3d 38fd 123c 9827 b23c
000001f0: fc3a 033d d4fc 82bd c9df 5bbd 12f2 90bd
00000200: 6629 69bd 9342 b0bd 3e47 dbbc 3429 913c
00000210: afa9 a83d 7db4 973c b43b a73d bd75 9cbb
00000220: c6c1 4a3d d288 363d 9ac6 9cbd 56d7 dfbc
00000230: b215 95bd 47c3 823d 77b7 96bd 60c1 023c
00000240: 1a6e 7ebd 7776 87ba 604c a1bb e629 3a3d
00000250: 3e43 76bd f190 25bd 88ab c8bc 7b0b 6e3d
00000260: 0e39 3a3d df68 b2bd 3671 3f3d 25dd 40bd
00000270: 6c30 8a3d ba4d 7abd c3c3 873d 90c4 4ebc
00000280: 949b afbc 6183 9a3d ee17 553d dbfe c73a
00000290: 108d 99bb e675 1e3d 404a 833a 5a21 583d
000002a0: 80c8 b43a eb6f 333d 9b45 abbc d5f6 963d
000002b0: 8c80 b03c 2247 2c3d 4a14 91bd bbe1 99bd
000002c0: 1d4e 15bd da13 6b3d df4e 77bd 50cf a63c
000002d0: 9e83 393d 91fc f93c 22ab 37bc 038c 363d
000002e0: f3a4 a63d f0c6 cd3b 4689 e2bc 095a 3e3d
000002f0: df25 acbd 6f17 863d c4c3 13bd fec9 613d
00000300: 0251 a13d d890 733d 43dc bc3c 7d14 1e3d
00000310: 7524 6fbd 30bd b2bd a041 84bc ee38 a53d
00000320: b8d0 a3bc 1a25 7d3d 40ae 1fbc 643d 883d
00000330: 7694 dfbc 6310 bfbc 07b1 9bbd 9343 653d
00000340: f75e 50bd 2b9b 333d 009e 9cbd 43c5 a9bd
00000350: 7972 a03d e3e4 9cbd 1a48 903d f2e0 373d
00000360: 189c 26bd 2af1 7c3d 7059 a63d 3794 89bd
00000370: 4ed8 05bd d914 a5bd d93c 57bd 9fff 863d
00000380: 1a55 9c3d b789 cc3b 3629 aebd 1832 0dbc
00000390: 805d bb3b f00a 1cbd 4f34 40bd bea8 b2bd
000003a0: 4046 acbb 49f6 9d3d f2d9 84bd 58e1 88bd
000003b0: 8f72 80bd 805f 7a3b 4eff 88bd 45ca 6a3d
000003c0: b04f ab3c 80c5 4e3b adf8 5ebd 0820 a2bc
000003d0: f898 7ebd 812f 18bd cce0 73bd a726 4bbd
000003e0: 5cfe f1bc 37b2 0fbd ee13 323d 0054 82b9
000003f0: 231f 033c 7a12 2c3d 9e3f 1c3d a8f7 61bc

critic.2.bias f4 [64]
-0.0010509342 -0.028544126 0.009251612 0.027952755 -0.06913218 -0.02065678 -0.077777356 -0.018198894
-0.0045448206 0.061135273 -0.019063918 -0.047378995 -0.05484621 0.07170914 -0.0794607 0.08696432
0.074631 0.04487511 -0.05220746 0.0440023 -0.07034315 -0.012207117 0.05689783 0.075051546
0.029832805 0.032627504 0.05991129 0.07590582 0.008844197 -0.045323122 0.08989866 -0.016120072
-0.009861395 0.028492197 -0.03669911 0.07954705 -0.08282452 0.076615945 0.053526618 -0.05916491
0.06816866 0.043950975 0.05039529 -0.031249173 0.03559304 0.0012837772 -0.024331056 0.08501127
-0.053339355 0.0458731 -0.008458467 0.006679602 -0.021759845 0.086721264 0.015115326 0.08667034
0.054823603 -0.04208189 0.07158165 0.010729246 -0.034649745 0.07271832 -0.00048725493 -0.021478057
00000000: 80bf 89ba 5fd5 e9bc 1394 173c 2dfd e43c
00000010: 2c95 8dbd 6838 a9bc bc49 9fbd d915 95bc
00000020: b8ec 94bb fb68 7a3d ef2b 9cbc 7a10 42bd
00000030: 6ba6 60bd 3edc 923d 4bbc a2bd 591a b23d
00000040: 23d8 983d f7ce 373d 7dd7 55bd c13b 343d
00000050: 1210 90bd 5c00 48bc b30d 693d a0b4 993d
00000060: ed63 f43c 6ba4 053d 8a65 753d 8374 9b3d
00000070: 40e7 103c bda4 39bd ca1c b83d 3e0e 84bc
00000080: b091 21bc 7868 e93c ce51 16bd 90e9 a23d
00000090: e79f a9bd d2e8 9c3d ba3e 5b3d e856 72bd
000000a0: 039c 8b3d f005 343d 4b6b 4e3d 44fe ffbc
000000b0: 02ca 113d 6a44 a83a ec51 c7bc 641a ae3d
000000c0: 5e7a 5abd 6fe5 3b3d 6295 0abc 90e0 da3b
000000d0: b441 b2bc eb9a b13d 46a6 773c 3880 b13d
000000e0: b78e 603d 0f5e 2cbd 6699 923d b8c9 2f3c
000000f0: e4ec 0dbd 58ed 943d 4076 ffb9 c0f2 afbc

critic.4.weight f4 [32, 64]
-0.020012885 -0.03912732 0.07713458 0.11325158 0.008405149 -0.0085582435 0.011541516 0.10750729
-0.009293526 -0.0045292526 -0.016871735 0.0010379702 -0.06261839 -0.06691143 0.09600532 -0.03293167
0.12058276 -0.05035007 -0.054907903 -0.10852362 -0.024619356 0.01822953 0.025300607 0.0878638
0.013305157 0.0071685165 -0.014066055 0.012945861 -0.0104478 0.0033063293 0.0025836825 0.098766536
-0.02567476 0.032760248 0.006801069 -0.010030493 -0.02851154 -0.06910917 0.06765635 0.11865857
-0.10796291 0.07051921 0.03423004 -0.005678579 -0.05772488 -0.10395801 -0.06637089 0.05987449
0.09008153 0.018157676 0.045031562 0.011831179 0.11367586 -0.083093956 0.028144777 0.09246753
-0.080099866 0.07526876 -0.06528658 0.02929154 -0.07449047 -0.020446211 -0.07413098 -0.08392407
0.08541167 -0.026329082 0.10722966 -0.049482286 0.04188028 0.01757389 0.100458175 0.0074098
-0.118501894 0.0027136249 0.07031514 0.07232229 0.018409804 0.016360372 0.012433544 -0.07400222
0.007724172 0.051575165 0.005357921 0.09177799 -0.107436046 -0.022492358 -0.042407066 0.11426049
-0.032380316 -0.072922915 -0.02275355 0.022863574 -0.09452219 0.12198122 -0.11519106 -0.1033795
0.0891511 -0.034717355 -0.023688948 0.109585166 -0.00066096755 0.047128055 0.056254834 -0.067227945
0.104190394 0.04728406 0.057724684 0.011889697 0.085268505 0.10976546 0.06945529 -0.10846788
0.01323536 0.024496766 0.05848985 0.06299418 -0.113225296 -0.05306068 0.12268696 -0.100784324
-0.09855235 -0.060799222 0.021214457 0.10927011 0.06310047 0.113467604 -0.078488305 -0.123609856
0.042171285 0.046384647 0.0059567415 0.054759827 -0.098335505 0.056934934 -0.11720152 -0.05225614
-0.09767018 -0.10350714 -0.06301212 -0.109462835 -0.074269086 -0.040334538 -0.113545954 0.0984235
0.073842406 0.122260846 -0.0043298006 0.015489458 -0.078922875 0.09395904 -0.009003028 -0.06775059
0.10000246 -0.08195059 -0.026323691 -0.09620632 0.11790982 0.05556921 0.030402526 0.05035103
0.08678652 -0.09613101 0.02707559 -0.12333632 0.04622502 -0.0010826519 0.023286745 0.0033991188
-0.119314104 -0.021617059 -0.026688991 -0.107836545 -0.11259309 -0.04354069 -0.1144913 -0.06528758
-0.12074509 -0.055842753 0.1053191 0.094772756 0.11926602 -0.020667508 0.0532717 0.1126834
-0.03315671 0.049518365 -0.022573108 0.025990099 0.045194417 -0.1038476 0.124550365 -0.08485335
0.04598625 -0.032460317 0.07935262 0.09577671 -0.12151106 0.12125154 -0.06253387 0.009875149
-0.1249851 -0.09674567 0.01531893 0.049559787 -0.097920954 -0.043303028 0.10226783 -0.113542184
0.09164402 -0.06910898 0.10475847 -0.037690118 -0.04175344 0.061384648 0.055806324 0.06259699
0.030559525 -0.07396436 -0.03928119 -0.110787794 -0.012534767 -0.08881907 0.015067175 -0.088993475
0.024120376 0.10581842 0.10838653 -0.09066111 -0.030600488 -0.042920545 -0.06894155 -0.06380333
0.09072414 -0.078557566 0.089206874 -0.064251795 0.033753797 -0.12141861 -0.0820597 -0.00030134618
-0.0031204373 -0.042735115 -0.06516899 0.011593938 -0.10523018 0.05955687 0.031062946 -0.02658315
0.1106316 0.10550341 0.12365693 -0.023137107 -0.11272524 0.047888026 0.08726169 -0.033800006
00000000: 10f2 a3bc f843 20bd bcf8 9d3d 72f0 e73d
00000010: c0b5 093c e037 0cbc a018 3d3c c82c dc3d
00000020: e043 18bc 206a 94bb 9836 8abc 800c 883a
00000030: 123e 80bd dc08 89bd 709e c43d 5ce3 06bd
00000040: 18f4 f63d e03b 4ebd 1ce7 60bd a241 debd
00000050: 88ae c9bc 1856 953c 3843 cf3c f0f1 b33d
00000060: e0fd 593c e0e5 ea3b 5075 66bc e01a 543c
00000070: 402d 2bbc 00af 583b 0053 293b 1c46 ca3d
00000080: e053 d2bc 9c2f 063d 80db de3b f056 24bc
00000090: 0891 e9bc 1c89 8dbd 6a8f 8a3d 4403 f33d
000000a0: a81b ddbd 606c 903d cc34 0c3d 6013 babb
000000b0: ec70 6cbd f0e7 d4bd 76ed 87bd f43e 753d
000000c0: aa7c b83d 68bf 943c 0473 383d 90d7 413c
000000d0: e4ce e83d 2a2d aabd e08f e63c 9e5f bd3d
000000e0: 660b a4bd 8226 9a3d f8b4 85bd d0f4 ef3c
000000f0: 768e 98bd d07e a7bc fcd1 97bd 62e0 abbd
00000100: 50ec ae3d 16b0 d7bc 399b db3d f0ad 4abd
00000110: a88a 2b3d 1ef7 8f3c 04bd cd3d e8cd f23b
00000120: 1fb1 f2bd 12d7 313b 6201 903d b51d 943d
00000130: 28d0 963c 3006 863c 10b6 4b3c 7a8e 97bd
00000140: 0d1b fd3b 7b40 533d 8091 af3b 19f6 bb3d
00000150: 6e07 dcbd e541 b8bc 08b3 2dbd 6701 ea3d
00000160: 39a1 04bd 9c58 95bd a765 babc 644c bb3c
00000170: da94 c1bd 4ad1 f93d 4ae9 ebbd a2b8 d3bd
00000180: da94 b63d c933 0ebd 530f c2bc 306e e03d
00000190: c844 2dba 5909 413d 786b 663d ceae 89bd
000001a0: c661 d53d eeac 413d b870 6c3d 01cd 423c
000001b0: 41a1 ae3d b7cc e03d 933e 8e3d 6824 debd
000001c0: 20d9 583c 71ad c83c 0e93 6f3d 1803 813d
000001d0: aae2 e7bd 2856 59bd 4d43 fb3d 0368 cebd
000001e0: d1d5 c9bd 9b08 79bd f1c9 ad3c 02c9 df3d
000001f0: d23a 813d b461 e83d 7abe a0bd 2a27 fdbd
00000200: ccbb 2c3d d4fd 3d3d c530 c33b d74b 603d
00000210: 2064 c9bd 9b34 693d 5a07 f0bd 890a 56bd
00000220: 4e07 c8bd 8dfb d3bd 800c 81bd 0d2e e0bd
00000230: 641a 98bd d435 25bd c88a e8bd 4392 c93d
00000240: b03a 973d e563 fa3d 00e1 8dbb 7fc7 7d3c
00000250: 51a2 a1bd 996d c03d 7081 13bc d2c0 8abd
00000260: 17ce cc3d b6d5 a7bd c8a4 d7bc d207 c5bd
00000270: b47a f13d 8a9c 633d b80e f93c e23c 4e3d
00000280: 22bd b13d 56e0 c4bd a1cd dd3c c197 fcbd
00000290: 7256 3d3d c5e7 8dba d8c3 be3c c0c3 5e3b
000002a0: f45a f4bd 4216 b1bc dfa2 dabc 68d9 dcbd
000002b0: 3597 e6bd b957 32bd 6a7a eabd 7fb5 85bd
000002c0: 3449 f7bd 5fbb 64bd 8ab1 d73d 3818 c23d
000002d0: be41 f43d e84e a9bc 6d33 5a3d 8ec6 e63d
000002e0: 55cf 07bd c5d3 4a3d 3deb b8bc 30e9 d43c
000002f0: c81d 393d 0dae d4bd 4314 ff3d 98c7 adbd
00000300: 145c 3c3d 1cf5 04bd a083 a23d 9426 c43d
00000310: cada f8bd ba52 f83d c211 80bd 60cb 213c
00000320: 30f8 ffbd 9822 c6bd 40fc 7a3c 34ff 4a3d
00000330: c88a c8bd 845e 31bd cc71 d13d ce88 e8bd
00000340: dcaf bb3d 0289 8dbd 9c8b d63d f460 1abd
00000350: a805 2bbd 786e 7b3d 2c95 643d da32 803d
00000360: f857 fa3c a07a 97bd 50e5 20bd b6e4 e2bd
00000370: a05e 4dbc c6e6 b5bd 50dc 763c 3642 b6bd
00000380: 1898 c53c 54b7 d83d c2f9 dd3d 88ac b9bd
00000390: e0ad fabc 74cd 2fbd 3a31 8dbd 52ab 82bd
000003a0: 94cd b93d cae2 a0bd 18b2 b63d 7296 83bd
000003b0: 6c41 0a3d 52aa f8bd ea0e a8bd 00fe 9db9
000003c0: 4080 4cbb 040b 2fbd 5277 85bd 80f4 3d3c
000003d0: ec82 d7bd e8f1 733d b877 fe3c e8c4 d9bc
000003e0: d292 e23d 2c12 d83d d83f fd3d 088a bdbc
000003f0: 7edc e6bd 3c26 443d 42b6 b23d e071 0abd

critic.4.bias f4 [32]
-0.10198529 0.04192782 0.103304796 -0.09868313 -0.09896697 -0.054308355 0.053756896 -0.08400722
0.11469144 -0.062002618 0.12302205 -0.07363351 0.11557965 0.07734044 -0.031650603 -0.096807405
0.078504615 -0.10497482 -0.0682178 -0.0909518 0.041054707 -0.098115295 -0.03854448 0.041917507
-0.039279148 -0.09485306 0.072934516 0.04155585 -0.013486546 0.11618399 -0.0028135118 0.08927507
00000000: aadd d0bd 81bc 2b3d 7791 d33d 621a cabd
00000010: 32af cabd 7072 5ebd 3130 5c3d fa0b acbd
00000020: 58e3 ea3d 75f6 7dbd fcf2 fb3d 2acd 96bd
00000030: 06b5 ec3d aa64 9e3d 10a4 01bd f642 c6bd
00000040: 07c7 a03d 0afd d6bd c6b5 8bbd f044 babd
00000050: fb28 283d acf0 c8bd d1e0 1dbd b1b1 2b3d
00000060: 2ce3 20bd 5242 c2bd b15e 953d 7836 2a3d
00000070: adf6 5cbc dff1 ed3d e562 38bb d9d5 b63d

critic.6.weight f4 [1, 32]
-0.13237004 0.17325176 0.052497454 -0.030327499 -0.018111601 -0.16781768 0.0026813934 -0.07508806
-0.012421751 0.05909025 0.008646053 -0.17053127 0.13712257 -0.04980556 0.15334575 0.016387895
-0.17441893 -0.06607075 -0.004811257 0.14977907 0.10752767 0.11691574 0.047994565 0.049672116
0.106457576 -0.036417127 0.097420536 0.17113352 -0.10868056 -0.082852 -0.13405019 -0.012109265
00000000: 038c 07be e968 313e 9207 573d 6071 f8bc
00000010: c85e 94bc 66d8 2bbe 51ba 2f3b c5c7 99bd
00000020: 9a84 4bbc 9e08 723d 2da8 0d3c c09f 2ebe
00000030: dc69 0c3e ea00 4cbd ab06 1d3e e83f 863c
00000040: e09a 32be 1a50 87bd c0a7 9dbb af5f 193e
00000050: 7837 dc3d 8571 ef3d f395 443d fd74 4b3d
00000060: 6e06 da3d 202a 15bd 6b84 c73d a03d 2f3e
00000070: ea93 debd 4fae a9bd 7444 09be f065 46bc
